pretrained_GNN_models/GNN_272trainvalid_fold4_1651_19.17843_2.82847.pt (torch, 250927 bytes, 10 tensors)

conv1.lin_rel.weight f4 [120, 14]
-0.23560116 -0.2009342 -0.22186674 0.23336372 0.16066791 0.12583728 -0.20079046 -0.028459387
0.124705724 9.868e-42 0.12761721 0.23279054 -0.019455167 0.27148217 -0.07449847 0.18231405
-0.25654882 0.22687577 -0.11484545 0.2168805 0.25452715 -0.27546814 -0.06804116 -9.837e-42
-0.0918341 -0.15457295 0.2259134 -0.20694825 -0.2065976 -0.4132879 -0.117749035 0.2362815
0.041036624 -0.051463563 0.26608616 1.1924e-41 -9.903e-42 -9.904e-42 -0.05117088 0.07655474
-0.011149009 0.087519035 -0.028710622 0.07635936 -0.18705197 0.3473884 -9.822e-42 0.17294034
-1.1697e-41 -9.819e-42 -9.909e-42 9.816e-42 0.028887184 -0.019145941 -0.18261465 -0.13866945
-0.0006419956 -0.16417134 0.15764704 -0.11780561 0.04706414 -9.833e-42 9.839e-42 -9.907e-42
9.854e-42 9.885e-42 0.008067796 0.16507243 -0.046657737 0.027232299 -0.06924325 -9.893e-42
0.037086677 0.16439341 -1.0225e-41 -9.888e-42 9.88e-42 -9.819e-42 9.84e-42 9.871e-42
-9.876e-42 -9.879e-42 -0.099446036 -0.15987931 -0.104057185 -0.4243963 0.17714304 0.19258855
-9.876e-42 -0.042761877 0.20937768 9.878e-42 -9.832e-42 9.822e-42 -0.002250096 -0.077586174
-0.081989616 -0.016672932 -0.15807351 0.1887139 0.0075442414 0.15064596 0.06354409 0.18374124
-0.034871195 0.029956045 0.25767693 9.889e-42 0.092315115 0.1360949 -0.044787124 0.057918984
0.16123632 -0.049774274 0.16354726 0.36758643 0.14429392 0.06713621 0.0006822354 -0.13791907
0.19886793 -9.825e-42 -0.12613672 -0.04271179 0.133332 -0.018291015 0.097924165 -0.17268123
0.14156094 0.22571829 -9.867e-42 9.829e-42 -9.868e-42 -9.827e-42 -9.844e-42 -9.895e-42
0.32610184 -0.14369301 -0.04887803 -0.2863038 -0.05335171 0.14305331 -0.154286 -0.23973568
-9.832e-42 0.0018415203 0.19526497 -0.023726886 0.32535186 -9.847e-42 -0.060471676 -0.1235524
-0.17535432 -0.07564221 0.2252716 0.12631164 0.27167886 -9.885e-42 2.1827958e-07 9.87e-42
9.83e-42 -9.907e-42 -9.815e-42 -9.893e-42 -0.17623645 -9.837e-42 0.06682851 -0.29873693
-0.24681813 -0.16077925 -0.087064534 0.14491543 0.23010378 0.1959885 -0.11879348 0.07407681
-0.011032872 9.816e-42 -0.050978377 0.2765907 0.29843858 0.104505815 0.14566936 0.26745605
0.14475106 -0.009849837 0.15851991 -0.009903242 -0.040460333 0.27241248 0.23626983 -9.826e-42
-0.055947296 0.043244112 0.11274754 -0.008615485 -0.23098512 0.2360377 -0.055245068 0.1864902
0.051980827 -0.17954408 -0.015927954 -0.25705156 -0.24948116 9.857e-42 0.177385 -0.1978254
0.19911896 0.039917964 0.1555709 0.041443758 0.31767654 0.33493695 -0.24070145 0.10363183
-0.11618276 -9.835471e-05 0.012489442 9.862e-42 0.076693356 0.25782 0.1868443 -0.24583884
0.27194545 0.09825803 0.23028028 -0.06610736 -0.05023278 0.19830944 -0.28241813 0.19274746
0.0007154415 9.925e-42 0.12952915 -0.21080703 0.006080949 0.081484675 -0.26742908 0.22149807
0.0855358 0.059616435 0.18479203 0.12768802 -9.83e-42 9.864e-42 9.867e-42 9.815e-42
-0.2458296 -0.09736844 0.11437624 -0.2068682 -0.19113217 0.21662888 -0.02154903 -0.06756161
00000000: 6e41 71be b2c1 4dbe 0931 63be e6f6 6e3e
00000010: 2186 243e 7ddb 003e 049c 4dbe a923 e9bc
00000020: b765 ff3d 821b 0000 16ae 023e a560 6e3e
00000030: 7160 9fbc b6ff 8a3e a792 98bd 89b0 3a3e
00000040: 5e5a 83be 1f52 683e 1734 ebbd ec15 5e3e
00000050: 6251 823e 290a 8dbe 2a59 8bbd 6c1b 0080
00000060: 8413 bcbd 5f48 1ebe d855 673e 3eea 53be
00000070: 528e 53be 799a d3be 6826 f1bd c7f3 713e
00000080: 0516 283d 75cb 52bd 723c 883e 3d21 0000
00000090: 9b1b 0080 9c1b 0080 8f98 51bd bbc8 9c3d
000000a0: 55aa 36bc 2e3d b33d 8a32 ebbc 4c62 9c3d
000000b0: 8d8a 3fbe e4dc b13e 611b 0080 4617 313e
000000c0: 9b20 0080 5f1b 0080 9f1b 0080 5d1b 0000
000000d0: d1a4 ec3c f3d7 9cbc 56ff 3abe 5dff 0dbe
000000e0: 984b 28ba 881c 28be 3a6e 213e 1144 f1bd
000000f0: 54c6 403d 691b 0080 6d1b 0000 9e1b 0080
00000100: 781b 0000 8e1b 0000 ca2e 043c bf08 293e
00000110: 2f1c 3fbd 4516 df3c 68cf 8dbd 941b 0080
00000120: 33e8 173d bf56 283e 811c 0080 901b 0080
00000130: 8b1b 0000 5f1b 0080 6e1b 0000 841b 0000
00000140: 881b 0080 8a1b 0080 5daa cbbd 67b7 23be
00000150: ef1b d5bd 794a d9be fc64 353e ef35 453e
00000160: 881b 0080 1427 2fbd 1a67 563e 891b 0000
00000170: 681b 0080 611b 0000 5976 13bb 80e5 9ebd
00000180: 2cea a7bd ac95 88bc 06de 21be 373e 413e
00000190: af35 f73b ef42 1a3e 6723 823d aa26 3c3e
000001a0: 19d5 0ebd 6166 f53c 3bee 833e 911b 0000
000001b0: b50f bd3d 765c 0b3e b472 37bd 753c 6d3d
000001c0: 221b 253e 1ce0 4bbd ef78 273e 4a34 bc3e
000001d0: c9c1 133e b67e 893d 0bd8 323a a83a 0dbe
000001e0: 09a4 4b3e 631b 0080 fc29 01be 8ff2 2ebd
000001f0: 2f88 083e 0ad7 95bc 778c c83d 59d3 30be
00000200: 5af5 103e b222 673e 811b 0080 661b 0000
00000210: 821b 0080 651b 0080 711b 0080 951b 0080
00000220: d2f6 a63e 4324 13be 5434 48bd 6996 92be
00000230: 5387 5abd 917c 123e 26fd 1dbe 457d 75be
00000240: 681b 0080 2b5f f13a 8af3 473e e35e c2bc
00000250: 8594 a63e 731b 0080 26b1 77bd 0a09 fdbd
00000260: 1590 33be 4eea 9abd 99ad 663e d757 013e
00000270: 7e19 8b3e 8e1b 0080 3c60 6a34 831b 0000
00000280: 671b 0000 9e1b 0080 5c1b 0080 941b 0080
00000290: 5477 34be 6c1b 0080 63dd 883d 0cf4 98be
000002a0: e4bd 7cbe 51a3 24be e44e b2bd b664 143e
000002b0: 53a0 6b3e 36b1 483e ff49 f3bd 95b5 973d
000002c0: 38c3 34bc 5d1b 0000 b4ce 50bd 4c9d 8d3e
000002d0: f1cc 983e 2507 d63d 592a 153e 00f0 883e
000002e0: 9f39 143e 3661 21bc 0b53 223e 3541 22bc
000002f0: bcb9 25bd a679 8b3e b8f0 713e 641b 0080
00000300: fe28 65bd bd20 313d 2fe8 e63d f727 0dbc
00000310: 5d87 6cbe deb3 713e a748 62bd 49f7 3e3e
00000320: d9e9 543d 67da 37be 577b 82bc 439c 83be
00000330: fd77 7fbe 7a1b 0000 6aa4 353e be92 4abe
00000340: d7e5 4b3e 0581 233d fa4d 1f3e eec0 293d
00000350: 80a6 a23e db7c ab3e 717a 76be ed3c d43d
00000360: 3af1 edbd c843 ceb8 84a0 4c3c 7e1b 0000
00000370: 6811 9d3d fc00 843e 1d54 3f3e 2dbd 7bbe
00000380: 6f3c 8b3e 823b c93d 98ce 6b3e 4c63 87bd
00000390: e3c0 4dbd a111 4b3e 1c99 90be 975f 453e
000003a0: 778c 3b3a ab1b 0000 4aa3 043e ccdd 57be
000003b0: b342 c73b 70e1 a63d 77ec 88be 64d0 623e
000003c0: 652d af3d 5d30 743d 1f3a 3d3e a6c0 023e
000003d0: 671b 0080 7f1b 0000 811b 0000 5c1b 0000
000003e0: c1ba 7bbe 1b69 c7bd 173e ea3d 42d5 53be
000003f0: 27b8 43be f6d3 5d3e 9787 b0bc be5d 8abd

conv1.lin_rel.bias f4 [120]
0.20011945 0.09196453 0.2416329 0.12149749 -0.21639413 0.07187372 0.14112215 0.022663733
-0.0044895764 -0.20273115 0.2650633 -0.18262568 -0.19647007 -0.100489676 0.26529232 0.16854313
0.16829042 0.042089008 0.20043102 -0.0064852256 0.25583616 -0.20009676 0.15465567 -0.11102856
-0.16571304 0.16309153 -0.09736539 -0.08804474 -0.06546961 0.14877479 -0.12697956 0.06109742
0.25354823 0.18874387 -0.24300033 -0.087868296 -0.09372272 0.106476724 0.14273353 0.024287844
0.009668608 -0.2222672 -0.05735926 0.10697416 -0.19042648 -0.12304845 -0.071195595 0.14422785
-0.20774892 0.31189105 -0.139407 -1.3116775e-07 0.1079431 -0.0786697 0.03544216 0.07098107
-0.122411415 0.2624761 0.24604356 0.1247275 0.032151934 0.2043964 0.16725226 0.1446688
0.20492157 0.21332376 -0.00064097415 0.27307674 0.0023761669 0.26262036 0.15714234 0.045190427
0.05037631 0.1949206 -0.23741665 -0.00032327182 0.10412037 -0.1471236 -0.06531173 -0.08543739
0.2015088 -0.19510956 -0.09988863 0.24514912 -0.003997729 -0.23993927 -0.0012879613 0.1886189
0.120247535 -0.0025454238 -0.0329546 0.20608899 -0.019346718 -0.13378516 0.20213255 -0.11708594
-0.05932811 -0.18943259 -0.1496753 0.061445005 -0.17557868 0.14878443 -0.034469005 0.18122546
0.016499732 0.053351246 -0.13164923 0.24665113 0.10722734 -0.100571476 0.16503252 -0.028100569
-0.046966653 0.13268062 0.06900779 0.07452173 0.15984565 0.24470845 0.072586894 0.00021033558
00000000: 1dec 4c3e e657 bc3d 9d6e 773e add3 f83d
00000010: 6c96 5dbe 8732 933d 5382 103e 4ba9 b93c
00000020: 4c1d 93bb c198 4fbe 60b6 873e 3a02 3bbe
00000030: 732f 49be 88cd cdbd 65d4 873e 9296 2c3e
00000040: 5354 2c3e 8665 2c3d ca3d 4d3e 0482 d4bb
00000050: f5fc 823e 2ae6 4cbe 0e5e 1e3e f162 e3bd
00000060: aeb0 29be 7701 273e 8167 c7bd cd50 b4bd
00000070: ee14 86bd 6b58 183e ee06 02be 4a41 7a3d
00000080: 13d1 813e 1346 413e 14d5 78be 4bf4 b3bd
00000090: b3f1 bfbd 7810 da3d bd28 123e 4df7 c63c
000000a0: 1569 1e3c 039a 63be 8bf1 6abd 4515 db3d
000000b0: 29ff 42be d300 fcbd ffce 91bd 77b0 133e
000000c0: 22bc 54be 2fb0 9f3e b5c0 0ebe 1ed7 0cb4
000000d0: 4611 dd3d 941d a1bd cc2b 113d 865e 913d
000000e0: d6b2 fabd 4463 863e d8f2 7b3e 2271 ff3d
000000f0: bfb1 033d 4a4d 513e 2d44 2b3e 0f24 143e
00000100: f6d6 513e 8b71 5a3e 0c07 28ba b7d0 8b3e
00000110: 77b9 1b3b 2d76 863e ece9 203e 9919 393d
00000120: 6457 4e3d 4499 473e 5a1d 73be cf7c a9b9
00000130: 0f3d d53d 92a7 16be 28c2 85bd ccf9 aebd
00000140: 5358 4e3e cdca 47be 6992 ccbd 5f08 7b3e
00000150: 62ff 82bb a4b2 75be cfd0 a8ba 5025 413e
00000160: 5744 f63d 20d1 26bb 67fb 06bd fe08 533e
00000170: 027d 9ebc fafe 08be d6fb 4e3e c1ca efbd
00000180: 0802 73bd 9efa 41be 7b44 19be c2ad 7b3d
00000190: e6ca 33be f25a 183e 5f2f 0dbd 2b93 393e
000001a0: 722a 873c d686 5a3d 0ecf 06be 1d92 7c3e
000001b0: 029a db3d 6bf8 cdbd 49fe 283e 2a33 e6bc
000001c0: 1b60 40bd 6edd 073e f553 8d3d d99e 983d
000001d0: 94ae 233e da94 7a3e 70a8 943d 878d 5c39

conv1.lin_root.weight f4 [120, 14]
-0.13135046 0.2614199 0.19112085 0.07209626 0.13006845 0.16650069 1.2603e-41 0.177357
0.057744995 9.853e-42 -0.18312483 0.072741516 -0.13001932 0.2723186 0.27391574 0.042331412
-0.23554158 0.16647679 0.18378256 9.893e-42 0.1720757 0.22740538 -0.006505326 -9.861e-42
0.19532742 0.09346961 0.18618569 -0.009088547 -0.16194871 0.020878542 0.083097294 -0.18674362
0.25099212 9.888e-42 -6.3042644e-05 0.031011844 -0.010506541 -9.904e-42 0.0033167484 0.24119928
-0.21687584 -0.006866508 0.16852573 -9.89e-42 0.011626904 0.13358782 -9.823e-42 -9.889e-42
-9.92e-42 -9.892e-42 -9.862e-42 -9.848e-42 -0.049389306 0.2583375 -0.18864626 -0.08193194
-0.24439985 0.029567627 -0.1068957 -0.123532556 0.24714403 -0.015296535 -0.14002544 0.17717317
0.27492845 -1.0896e-41 0.006241869 0.18083437 0.045454893 0.2914866 -0.11775616 -9.848e-42
-9.886e-42 1.0405e-41 -9.903e-42 -1.0357e-41 -0.10112803 -9.846e-42 9.817e-42 -9.844e-42
1.0448e-41 9.816e-42 -0.011840548 0.016836653 -0.14644074 0.19821301 -0.23784436 0.21811019
-0.06337746 1.0455e-41 -0.14876205 -0.045935683 0.106233604 -9.895e-42 0.012954091 -0.02619305
0.15331003 0.11874527 0.17651306 1.1489e-41 0.023852287 -9.896e-42 9.902e-42 -9.827e-42
-9.871e-42 -9.833e-42 -1.0367e-41 -9.833e-42 -0.09821371 -0.1789302 -0.18268172 -0.07287051
-0.12140978 0.26901278 -0.006692359 0.06369575 0.27783117 -0.110229395 -0.2760121 0.004901264
-0.15921792 9.861e-42 0.17995286 0.25196236 0.00020533908 -0.124330334 0.13268566 -0.18961777
-0.112206325 -1.0019e-41 -9.809e-42 9.864e-42 0.26857254 -9.839e-42 -9.874e-42 -9.872e-42
0.2196393 -0.18131207 -0.22119579 -0.14037034 0.23545171 0.05309217 -0.11571054 0.2408925
9.832e-42 -9.857e-42 9.833e-42 -9.86e-42 -9.907e-42 -9.871e-42 0.0044975844 -9.812e-42
-0.12718256 -0.24214691 -0.0010695076 -9.895e-42 9.875e-42 0.2144666 9.904e-42 -0.15692388
0.24479191 0.004910073 -9.81e-42 -9.875e-42 -0.08468385 -9.841e-42 -0.11818789 -0.13859166
0.23851056 -9.81e-42 0.16690995 9.864e-42 -9.89e-42 9.857e-42 9.868e-42 9.834e-42
9.867e-42 9.83e-42 -0.22557157 0.0484901 0.0082474 -0.15251482 -0.2185451 -0.02894634
-0.035661906 0.15172172 0.23378868 0.0774575 -0.12888007 0.008542534 0.09108839 -9.839e-42
-0.21940471 0.109206654 0.24303941 -0.18840407 0.08507138 -0.06490214 -0.020128762 -0.00860312
0.28835827 0.17509459 -0.014886732 0.23798412 0.22197808 1.2089e-41 -0.10983124 0.07246335
-0.16009371 0.20958453 -0.06258688 0.19294962 -0.1703161 -0.1670422 0.12464211 0.07946392
-0.116729856 -0.1699995 0.09270026 -9.822e-42 -0.2191987 0.18922253 0.08106412 0.26163697
-0.21539435 0.16700718 0.2510751 0.12601729 -0.14588907 -0.033856735 -0.053599767 -0.13462968
0.03991511 9.948e-42 -0.02945555 0.105480775 0.08554105 -0.15581715 0.203143 -9.826e-42
9.871e-42 9.899e-42 -9.862e-42 9.91e-42 0.016415354 9.855e-42 9.909e-42 -9.815e-42
-0.16297062 -9.886e-42 0.031114584 -0.0456829 0.23383194 -0.15226181 -0.22935195 0.07048197
00000000: bc80 06be d4d8 853e 2fb5 433e 34a7 933d
00000010: aa30 053e 287f 2a3e 2223 0000 139d 353e
00000020: 0486 6c3d 771b 0000 1385 3bbe 81f9 943d
00000030: c923 05be 586d 8b3e af3e 8c3e b463 2d3d
00000040: d031 71be e478 2a3e 7f31 3c3e 941b 0000
00000050: 9d34 303e f5dc 683e a12a d5bb 7d1b 0080
00000060: e903 483e ff6c bf3d 76a7 3e3e 21e8 14bc
00000070: e2d5 25be 7a09 ab3c ea2e aa3d b839 3fbe
00000080: 0a82 803e 901b 0000 c335 84b8 8d0c fe3c
00000090: a023 2cbc 9c1b 0080 ce5d 593b f2fc 763e
000000a0: b314 5ebe 7200 e1bb 0292 2c3e 921b 0080
000000b0: c57e 3e3c 3fcb 083e 621b 0080 911b 0080
000000c0: a71b 0080 931b 0080 7e1b 0080 741b 0080
000000d0: 714c 4abd d044 843e 7c2c 41be efcb a7bd
000000e0: f443 7abe cf37 f23c 22ec dabd a3fe fcbd
000000f0: 5313 7d3e 519e 7abc d462 0fbe e26c 353e
00000100: 6cc3 8c3e 601e 0080 9888 cc3b a52c 393e
00000110: e92e 3a3d bb3d 953e 242a f1bd 741b 0080
00000120: 8f1b 0080 011d 0000 9b1b 0080 df1c 0080
00000130: 361c cfbd 721b 0080 5e1b 0000 711b 0080
00000140: 201d 0000 5d1b 0000 dcfe 41bc 05ed 893c
00000150: 90f4 15be 5af8 4a3e 798d 73be 4758 5f3e
00000160: 0bcc 81bd 251d 0000 1455 18be 0e27 3cbd
00000170: 0191 d93d 951b 0080 653d 543c cf92 d6bc
00000180: 4efd 1c3e b830 f33d d7bf 343e 0720 0000
00000190: df65 c33c 961b 0080 9a1b 0000 651b 0080
000001a0: 841b 0080 691b 0080 e61c 0080 691b 0080
000001b0: 4524 c9bd 7a39 37be eb10 3bbe 223d 95bd
000001c0: b1a5 f8bd 0bbc 893e 944b dbbb eb72 823d
000001d0: e33f 8e3e f3bf e1bd 7551 8dbe c89a a03b
000001e0: 060a 23be 7d1b 0000 9045 383e 3601 813e
000001f0: 4a50 5739 e7a0 febd c0de 073e 292b 42be
00000200: 6ecc e5bd ee1b 0080 581b 0080 7f1b 0000
00000210: 5782 893e 6d1b 0080 861b 0080 851b 0080
00000220: 20e9 603e dfa9 39be 2681 62be 3ebd 0fbe
00000230: 411a 713e 2d77 593d a6f9 ecbd 86ac 763e
00000240: 681b 0000 7a1b 0080 691b 0000 7c1b 0080
00000250: 9e1b 0080 841b 0080 7960 933b 5a1b 0080
00000260: 253c 02be 5cf5 77be b82e 8cba 951b 0080
00000270: 871b 0000 229d 5b3e 9c1b 0000 a7b0 20be
00000280: bbaa 7a3e ade4 a03b 591b 0080 871b 0080
00000290: ba6e adbd 6f1b 0080 7e0c f2bd f9ea 0dbe
000002a0: 1d3c 743e 591b 0080 71ea 2a3e 7f1b 0000
000002b0: 921b 0080 7a1b 0000 821b 0000 6a1b 0000
000002c0: 811b 0000 671b 0000 3cfc 66be 8e9d 463d
000002d0: 1a20 073c d82c 1cbe 49ca 5fbe e020 edbc
000002e0: 3812 12bd f05c 1b3e 4d66 6f3e 0aa2 9e3d
000002f0: 23f9 03be fcf5 0b3c 8d8c ba3d 6d1b 0080
00000300: a1ab 60be bda7 df3d 53df 783e ffec 40be
00000310: e739 ae3d 6aeb 84bd 13e5 a4bc 1af4 0cbc
00000320: b2a3 933e ff4b 333e 7be7 73bc 1cb2 733e
00000330: 394e 633e b321 0000 33ef e0bd aa67 943d
00000340: 9bef 23be 549d 563e 8d2d 80bd 9694 453e
00000350: 5867 2ebe 1c0d 2bbe 5d44 ff3d fbbd a23d
00000360: 1010 efbd 5914 2ebe a2d9 bd3d 611b 0080
00000370: a075 60be 8dc3 413e f204 a63d 48f5 853e
00000380: 5690 5cbe ee03 2b3e ea8c 803e ad0a 013e
00000390: f263 15be 5cad 0abd 6e8b 5bbd 5ddc 09be
000003a0: 077e 233d bb1b 0000 c44c f1bc 4e06 d83d
000003b0: 2530 af3d 888e 1fbe b804 503e 641b 0080
000003c0: 841b 0000 981b 0000 7e1b 0080 a01b 0000
000003d0: 7e79 863c 791b 0000 9f1b 0000 5c1b 0080
000003e0: c5e1 26be 8f1b 0080 03e4 fe3c fe1d 3bbd
000003f0: a471 6f3e 85ea 1bbe 3ddb 6abe da58 903d

conv2.lin_rel.weight f4 [120, 120]
0.07719634 0.07650217 0.08310736 0.05367719 -0.04795978 -0.07893201 -0.010408929 0.09826886
-0.09419339 -0.15630782 -0.048882063 0.20278105 0.03223638 -0.056899127 0.07712366 -0.043457765
0.069823556 -0.023079067 -0.060924094 0.00769915 0.07030706 0.06811375 -0.09615285 0.10331499
-0.06748569 0.055521794 0.07044471 0.024032842 0.117274694 -0.150828 0.07486192 -0.09097088
-0.04198057 0.041309673 -0.121331304 -0.091285154 0.0339038 -0.043529794 -0.036329918 0.08532155
0.08050611 -0.017322408 -0.033193834 0.138882 -0.11439961 -0.028077748 0.021826977 0.097597495
-0.09933936 0.1302797 -0.0061377874 -2.21194e-39 -0.06696051 -0.10891767 -0.06026549 -0.108336486
0.008476222 -0.055963326 0.055969022 0.043761015 -0.078441456 0.06158998 -0.0032173584 -0.028530795
0.11915617 -0.060266193 -0.00064379483 -0.064402595 0.021535628 0.054237735 0.016464142 0.03451954
-0.00028694127 0.031384207 0.028368361 9.923489e-05 -0.008977921 -0.16941045 -0.04442462 -0.023949418
0.06450981 -0.031316686 -0.06345698 0.055142887 0.0012386034 0.028667714 -0.11778775 0.10361638
-0.04789891 -0.0005719264 -0.030860258 0.113853335 0.040049125 0.064411454 0.062829144 0.03720699
0.061789364 0.017940773 0.0392605 0.1162874 -0.018796094 -0.0059461133 -0.01178961 -0.054689787
0.021558795 -0.031132383 0.02372587 0.009072935 0.087024264 0.028641889 0.042960804 0.096615024
0.006907293 -0.04573307 -0.07250649 0.055253725 -0.043280616 0.040905263 0.03268616 -0.00074007834
0.10374808 0.047850344 -0.0029299245 0.05306291 -0.011497477 0.012211697 0.11318771 0.09366321
-0.0015500962 -0.07821125 -0.15972698 0.1616455 0.097439066 -0.118489675 0.08485722 0.067426264
0.007215331 -0.17114843 0.006344775 0.0054817633 0.06928643 -0.033826627 0.008394174 0.11457022
0.020598669 -0.042817228 0.01793198 -0.034778442 0.055302836 -0.15084966 0.021280032 0.010179826
0.03535785 0.028545875 -0.044296805 -0.034171127 -0.037117098 0.031727478 -0.07027637 0.04284493
-0.07302334 0.07829935 0.10170264 0.039122973 -0.07041748 -0.010759388 0.0412561 0.0546359
-0.11369356 0.14039694 0.0775432 3.412595e-39 0.016508214 -0.10264052 -0.068621814 -0.006147951
-0.0049671303 0.05411921 -0.020281876 0.08477707 -0.07268162 -0.0014659734 -0.065017104 -0.018732335
0.1490559 0.08018007 -0.0012987807 -0.08816863 0.14453518 0.040852845 0.028261857 -0.06896232
-0.03166199 -0.0009835345 -0.058260266 6.5319895e-05 0.09737323 -0.10880684 -0.034462083 -0.05034592
-0.035372704 0.0051677744 -0.07847114 0.007447523 0.0011607809 0.017188651 -0.11197026 0.11065811
-0.07690238 -0.000115794 -0.085875146 0.13050134 -0.052128445 0.059721857 -0.049543727 -0.05787456
-0.033455737 -0.12645125 0.08994438 -0.047275364 0.06031157 0.030038133 0.06699111 -0.031840004
0.10408288 0.020278754 -0.04311843 0.087124825 -0.01745557 -0.09012537 0.02694641 0.108244345
-0.06287865 0.088836566 0.052585866 0.019102555 -0.042126663 -0.03913726 0.1666648 0.00045127788
0.042960927 -0.0122151645 0.019997766 0.024738431 0.002114752 -0.020252343 0.13709103 0.1636904
0.07189716 -0.21726601 -0.19838779 0.26529375 0.10377667 -0.05962771 0.04959821 0.037126437
00000000: 1d19 9e3d 2bad 9c3d 3134 aa3d 9ddc 5b3d
00000010: 7971 44bd 1ba7 a1bd 368a 2abc 2f41 c93d
00000020: 77e8 c0bd 280f 20be 8f38 48bd d6a5 4f3e
00000030: 4b0a 043d 0f0f 69bd 02f3 9d3d c500 32bd
00000040: a7ff 8e3d 5010 bdbc 8b8b 79bd 2749 fc3b
00000050: 26fd 8f3d 397f 8b3d c9eb c4bd cf96 d33d
00000060: f035 8abd d26a 633d 5145 903d 86e0 c43c
00000070: b72d f03d a872 1abe 3551 993d f14e babd
00000080: d1f3 2bbd 5534 293d 8c7c f8bd b6f3 babd
00000090: b6de 0a3d 4c4c 32bd aece 14bd 11bd ae3d
000000a0: 63e0 a43d b9e7 8dbc 42f6 07bd 1537 0e3e
000000b0: 584a eabd 4e03 e6bc 7dce b23c 32e1 c73d
000000c0: 6f72 cbbd 0b68 053e 7e1f c9bb fd15 1880
000000d0: 9822 89bd 3a10 dfbd f2d8 76bd 85df ddbd
000000e0: dadf 0a3c cd39 65bd c63f 653d c03e 333d
000000f0: eaa5 a0bd c645 7c3d 51da 52bb 6ab9 e9bc
00000100: 2608 f43d afd9 76bd 57c4 28ba 82e5 83bd
00000110: 7c6b b03c 6328 5e3d cfdf 863c 5c64 0d3d
00000120: 9b70 96b9 ba8c 003d c464 e83c 531c d038
00000130: 2118 13bc ef79 2dbe 97f6 35bd 9231 c4bc
00000140: b81d 843d ed45 00bd bcf5 81bd 82dd 613d
00000150: a258 a23a 8ed8 ea3c b43a f1bd d334 d43d
00000160: a631 44bd 55ed 15ba a7ce fcbc f02b e93d
00000170: 8d0a 243d 27ea 833d 91ac 803d 5b66 183d
00000180: d816 7d3d 87f8 923c 9ecf 203d 1728 ee3d
00000190: 44fa 99bc 9dd7 c2bb 3529 41bc 6602 60bd
000001a0: 129c b03c 5709 ffbc c15c c23c a6a6 143c
000001b0: c739 b23d 65a2 ea3c abf7 2f3d 19de c53d
000001c0: 9356 e23b 9952 3bbd 487e 94bd bb51 623d
000001d0: 0447 31bd 478c 273d ece1 053d d101 42ba
000001e0: e079 d43d b9fe 433d fa03 40bb 7e58 593d
000001f0: ea5f 3cbc 9213 483c f5ce e73d 7fd2 bf3d
00000200: 992c cbba 382d a0bd 788f 23be 6686 253e
00000210: 228e c73d b7aa f2bd 9fc9 ad3d c816 8a3d
00000220: 956e ec3b 8941 2fbe d5e7 cf3b 5da0 b33b
00000230: 0be6 8d3d ca8d 0abd b887 093c cba3 ea3d
00000240: 8abe a83c 1e61 2fbd 16e6 923c d773 0ebd
00000250: 3a85 623d 5578 1abe 7653 ae3c 49c9 263c
00000260: 65d3 103d 0ad9 e93c 9170 35bd 06f7 0bbd
00000270: 1908 18bd acf4 013d 0fed 8fbd 2a7e 2f3d
00000280: 438d 95bd 695b a03d 7949 d03d 693f 203d
00000290: 0a37 90bd 2548 30bc 28fc 283d e5c9 5f3d
000002a0: 2bd8 e8bd 37c4 0f3e f8ce 9e3d ed28 2500
000002b0: 3c3c 873c 3135 d2bd 9889 8cbd c074 c9bb
000002c0: 4fc3 a2bb 1bac 5d3d 2d26 a6bc 9a9f ad3d
000002d0: 1ada 94bd e825 c0ba b027 85bd 8e74 99bc
000002e0: 1ca2 183e 7335 a43d d93b aaba c191 b4bd
000002f0: 0801 143e 5055 273d 6985 e73c 1e3c 8dbd
00000300: 01b0 01bd f1e9 80ba 51a2 6ebd 5afc 8838
00000310: 9e6b c73d 1fd6 debd 1d28 0dbd 8637 4ebd
00000320: f8e2 10bd 6f56 a93b 7ab5 a0bd 5a0a f43b
00000330: 5825 983a 37cf 8c3c aa50 e5bd b8a0 e23d
00000340: ff7e 9dbd 6ed6 f2b8 4fdf afbd 25a2 053e
00000350: a384 55bd e89e 743d 5dee 4abd e00d 6dbd
00000360: e208 09bd 707c 01be c234 b83d d0a3 41bd
00000370: 4409 773d 8812 f63c a332 893d aa6a 02bd
00000380: 6829 d53d a11f a63c f39c 30bd 806e b23d
00000390: fcfe 8ebc a693 b8bd b8be dc3c 36af dd3d
000003a0: 86c6 80bd f2ef b53d 4764 573d f67c 9c3c
000003b0: 028d 2cbd 644e 20bd 2daa 2a3e 7e99 ec39
000003c0: ccf7 2f3d 1d22 48bc 5bd2 a33c 40a8 ca3c
000003d0: a797 0a3b 3ee8 a5bc 9761 0c3e 759e 273e
000003e0: d13e 933d fb7a 5ebe 2b26 4bbe 95d4 873e
000003f0: dd88 d43d 303c 74bd 7e27 4b3d e411 183d

conv2.lin_rel.bias f4 [120]
-0.07823962 0.08355591 -0.032578107 0.07392658 0.054120433 -0.05146127 0.07897237 0.020599404
0.07746254 0.054830868 0.090158515 -0.00855774 0.041904844 -0.0049044867 -0.013781618 0.014593384
0.017183129 -0.03044862 0.015126845 -0.012395799 0.011780895 -0.0023920352 -0.05946766 0.03779537
-0.0007702933 0.044578183 0.010391379 0.0349666 -0.045945816 0.1257176 0.01265966 0.061651874
-1.1228318e-25 -0.023825463 -0.027927414 -0.020379027 0.051482752 -0.041833133 -0.03202991 -0.06930091
0.08303127 0.06381959 0.07936151 0.088067584 0.018933577 0.09515226 -0.061688494 0.0741529
0.06637844 0.058203634 -1.5155872e-07 -0.037350655 -0.015668714 -0.048579637 0.08089247 -0.05032346
-0.07463851 0.080909796 0.0029694133 0.10506426 0.034338303 9.82e-42 0.0077649127 -3.762813e-10
-0.058865983 0.0835328 -0.05316223 0.08659872 -0.0065582087 -0.07696593 -0.020665517 0.086869575
-0.053735904 -0.017195536 0.039950266 0.073164426 0.011493221 -0.049502686 -0.05166282 0.05166126
0.0747166 -0.010410783 -0.01749077 -0.079788804 -0.003137584 -0.030499317 -0.02540488 0.040668514
-9.872e-42 0.06700628 -0.015015303 0.046638552 0.06692736 -0.081717186 0.084224924 0.017697142
0.019520586 -0.07236828 -0.081369385 0.09820034 -1.0271304e-16 0.028631782 0.07906235 -0.08786458
-0.06130943 -0.035470445 0.03548346 0.015235125 0.059030313 0.04157153 -0.05981023 0.00988518
0.097921096 -0.040605288 0.006572329 0.021270692 0.014908075 0.07627157 0.005627795 -0.024475746
00000000: 183c a0bd 5c1f ab3d 9f70 05bd d266 973d
00000010: 63ad 5d3d 0dc9 52bd 44bc a13d 15c0 a83c
00000020: aea4 9e3d 5596 603d 07a5 b83d c335 0cbc
00000030: 6aa4 2b3d d1b5 a0bb 4ccc 61bc 1719 6f3c
00000040: a2c3 8c3c 626f f9bc 96d6 773c c017 4bbc
00000050: a804 413c b1c3 1cbb 5c94 73bd 51cf 1a3d
00000060: 82ed 49ba 9d97 363d 9a40 2a3c 2339 0f3d
00000070: ae31 3cbd 1dbc 003e 766a 4f3c ad86 7c3d
00000080: f6ff 0a96 9e2d c3bc 08c8 e4bc ebf1 a6bc
00000090: 94df 523d 3859 2bbd cb31 03bd a3ed 8dbd
000000a0: 4c0c aa3d d8b3 823d 4a88 a23d c75c b43d
000000b0: 971a 9b3c 30df c23d 13ad 7cbd 7add 973d
000000c0: 6bf1 873d ef66 6e3d 25bc 22b4 00fd 18bd
000000d0: ad5b 80bc 71fb 46bd f4aa a53d f91f 4ebd
000000e0: 13dc 98bd 09b4 a53d 7d9a 423b ee2b d73d
000000f0: 52a6 0c3d 601b 0000 cf70 fe3b e3dc ceaf
00000100: 751d 71bd 3f13 ab3d a3c0 59bd ab5a b13d
00000110: 3ee6 d6bb 50a0 9dbd bb4a a9bc ade8 b13d
00000120: 2e1a 5cbd a7dd 8cbc e4a2 233d 3bd7 953d
00000130: 104e 3c3c 54c3 4abd 659c 53bd c29a 533d
00000140: 0405 993d fd91 2abc ce48 8fbc 5068 a3bd
00000150: ed9f 4dbb b4d9 f9bc e51d d0bc 0794 263d
00000160: 851b 0080 973a 893d bf02 76bc 1108 3f3d
00000170: 3611 893d 575b a7bd 1e7e ac3d 99f9 903c
00000180: a3e9 9f3c d235 94bd fea4 a6bd 431d c93d
00000190: 14d7 eca4 338d ea3c 71eb a13d 58f2 b3bd
000001a0: 991f 7bbd 7549 11bd 1b57 113d bf9c 793c
000001b0: c5c9 713d e946 2a3d 92fb 74bd 73f5 213c
000001c0: db8a c83d bb51 26bd b15c d73b e03f ae3c
000001d0: 0041 743c 4534 9c3d 5e69 b83b 5c81 c8bc

conv2.lin_root.weight f4 [120, 120]
-0.0063534104 0.07611591 0.066435 0.043860804 -0.0038673424 -0.017608056 0.15739487 0.084869996
-0.036190633 -0.033515982 -0.07044506 0.19568682 0.00022704716 0.0069035036 0.06650273 0.071218446
0.059736725 -0.18756306 0.03172303 -0.047310024 0.1530829 0.06184601 0.08914595 -0.027165955
-0.1435063 0.040181853 -0.05405888 0.15189189 0.09641823 0.006538846 -0.040304087 -0.020014312
-0.03238857 0.05290862 -0.112222835 -0.10268757 0.0260958 0.06322523 -0.06476667 0.033294585
-0.051908087 0.030410934 0.07055068 0.08484456 -0.019985138 -0.0783758 -0.02574504 0.080197394
-0.21981663 0.16428491 -0.04710373 8.18948e-40 0.006293522 -0.091518044 0.045589603 -0.013916796
0.057326738 0.07045584 0.0707586 -0.05968815 -0.023534687 0.06828213 -0.015900908 -0.022213982
0.012596263 -0.012927875 -0.0005343205 0.042022757 0.10881513 0.07085213 -0.050883736 -0.051602755
0.04205562 -0.044694256 0.04889132 6.61705e-07 0.08262943 -0.119711 -0.0872299 0.03209388
0.06395699 0.03250313 -0.07799146 0.063087545 0.00057302974 -0.07395327 -0.12409328 0.018720856
0.047238473 -0.00051564106 0.015000173 -0.029032651 0.09764891 0.093407005 -0.037210625 -0.010503389
-0.035733406 0.0035511982 0.11760949 -0.038374998 -0.03967648 -0.026564047 0.07602939 0.05446031
0.068106316 -0.03627334 0.101976566 0.0026391817 0.06389592 0.05505114 0.012011306 0.1653459
-0.012044157 -0.0012038514 0.06309027 0.072594576 0.043907326 -0.07409492 0.14428465 -0.00053119665
0.072549425 0.040803425 -0.0010351012 0.040483456 -0.021369958 -0.045456264 0.018051103 0.10095319
0.037737552 -0.09382505 -0.15906961 0.2654862 -0.026594661 -0.07713981 0.0377727 -0.012535841
0.039295975 -0.18698981 0.06935733 0.06739666 0.21522832 0.05003882 0.060757827 -0.0064166607
-0.028255312 0.09350059 -0.036603585 0.12263908 0.13144204 -0.08522717 0.012673659 0.10349446
0.05588156 0.04989104 -0.08996153 -0.13729392 0.02377301 -0.04112387 -0.0523189 -0.067992486
-0.011965562 -0.024951385 0.02188989 -0.004852904 -0.03032887 0.06182703 0.057647154 0.06733749
-0.12892093 0.11825385 0.03656487 2.650077e-39 -0.06619345 -0.08950502 0.048476618 -0.023093084
-0.0011433967 0.048846647 -0.077887304 0.034291293 0.084239826 -0.02104022 -0.039530966 -0.028761158
0.08855909 0.07109781 -0.0010247034 0.01962617 0.15156081 -0.03151482 0.011318671 0.013154652
-0.063213 0.08151639 -0.06604678 2.1578244e-07 0.05235798 -0.1469148 -0.043813933 -0.04047998
-0.039110087 -0.06302556 -0.044667803 0.04080764 0.00085694174 0.015307448 -0.028412268 -0.04909031
-0.026299382 -0.000110455745 -0.05177676 0.05485049 0.051324006 0.020818328 -0.066297784 0.07665007
0.07546773 -0.016398842 0.11035489 -0.015957173 -0.013509175 0.059957795 0.069481485 -0.046334136
-0.051625777 0.076762415 -0.039419767 -0.067644864 0.120699756 0.068092264 0.020352188 0.10984881
-0.0009419415 0.07051433 -0.08206346 0.027703432 0.0773663 0.059343196 0.0677905 0.0011513684
0.13754688 0.14943834 0.035968445 0.070815116 0.011857899 -0.07477572 0.06529276 0.04715609
-0.064420775 -0.17494915 -0.13240285 0.268471 0.042230267 -0.01615565 0.10492555 0.09277331
00000000: 4530 d0bb a9e2 9b3d 130f 883d 63a7 333d
00000010: 3d73 7dbb c53e 90bc 1f2c 213e 52d0 ad3d
00000020: a13c 14bd 0e48 09bd 8045 90bd 2062 483e
00000030: 8213 6e39 c936 e23b 9532 883d fada 913d
00000040: 7fae 743d 8810 40be 02f0 013d 28c8 41bd
00000050: c4c1 1c3e 3e52 7d3d 2792 b63d 238b debc
00000060: 51f3 12be ba95 243d d86c 5dbd 8c89 1b3e
00000070: ec76 c53d d143 d63b e615 25bd 0ef5 a3bc
00000080: e1a9 04bd b6b6 583d 16d5 e5bd dc4d d2bd
00000090: dcc6 d53c 3b7c 813d 63a4 84bd e75f 083d
000000a0: 939d 54bd 5a20 f93c e07c 903d fcc2 ad3d
000000b0: dfb7 a3bc 7e83 a0bd 43e7 d2bc 883e a43d
000000c0: 9c17 61be 4e3a 283e d7ef 40bd e5ea 0800
000000d0: e439 ce3b d06d bbbd 2abc 3a3d 4603 64bc
000000e0: 71cf 6a3d 274b 903d e3e9 903d 907b 74bd
000000f0: d1cb c0bc 80d7 8b3d 9f42 82bc 19fa b5bc
00000100: 8e60 4e3c 70cf 53bc a411 0cba 0e20 2c3d
00000110: 78da de3d ec1a 913d 776b 50bd 695d 53bd
00000120: 8442 2c3d 5311 37bd 4442 483d 05a0 3135
00000130: 9e39 a93d 0a2b f5bd 97a5 b2bd df74 033d
00000140: e2fb 823d 0122 053d fdb9 9fbd 0b34 813d
00000150: 6037 163a d074 97bd 9e24 febd 7b5c 993c
00000160: 217d 413d 162c 07ba 49c3 753c e2d5 edbc
00000170: 27fc c73d 2c4c bf3d 2b6a 18bd 6816 2cbc
00000180: 315d 12bd 38bb 683b 3fdd f03d 1a2f 1dbd
00000190: ce83 22bd d89c d9bc 4cb5 9b3d c611 5f3d
000001a0: 537b 8b3d 5b93 14bd 17d9 d03d 1ff6 2c3b
000001b0: dddb 823d 4e7d 613d 12cb 443c 7050 293e
000001c0: db54 45bc 8dca 9dba 7935 813d 77ac 943d
000001d0: 2bd8 333d 14bf 97bd 5bbf 133e 0140 0bba
000001e0: cb94 943d 7e21 273d 3cac 87ba fbd1 253d
000001f0: 0d10 afbc 5930 3abd e8df 933c 8cc0 ce3d
00000200: b192 1a3d 5927 c0bd 25e3 22be cfed 873e
00000210: 0cdd d9bc 7afb 9dbd 8cb7 1a3d 2163 4dbc
00000220: d1f4 203d 427a 3fbe 370b 8e3d 4307 8a3d
00000230: d064 5c3e 81f5 4c3d 33dd 783d da42 d2bb
00000240: af77 e7bc 3d7d bf3d a4ed 15bd 332a fb3d
00000250: be98 063e 958b aebd 2ea5 4f3c e7f4 d33d
00000260: 10e4 643d 8c5a 4c3d c03d b8bd c796 0cbe
00000270: 9ebf c23c 8171 28bd 584c 56bd a53f 8bbd
00000280: 340b 44bc d966 ccbc 6d52 b33c 1c05 9fbb
00000290: 4074 f8bc 573e 7d3d 6c1f 6c3d 3de8 893d
000002a0: d903 04be 132f f23d 0cc5 153d 56db 1c00
000002b0: 6e90 87bd 684e b7bd 6b8f 463d b52d bdbc
000002c0: 07de 95ba 6c13 483d 6183 9fbd 0775 0c3d
000002d0: ee85 ac3d 8a5c acbc 39eb 21bd 859c ebbc
000002e0: 785e b53d bb9b 913d 574f 86ba 10c7 a03c
000002f0: c232 1b3e af15 01bd f271 393c 9c86 573c
00000300: d175 81bd 11f2 a63d 8943 87bd d3b1 6734
00000310: 5275 563d d570 16be 3d76 33bd 56ce 25bd
00000320: e631 20bd 8b13 81bd 96f5 36bd e925 273d
00000330: 63a4 603a 17cc 7a3c d8c0 e8bc ec12 49bd
00000340: cd71 d7bc 7aa4 e7b8 de13 54bd e8aa 603d
00000350: 1f39 523d 338b aa3c 22c7 87bd b6fa 9c3d
00000360: d38e 9a3d dd56 86bc bf01 e23d 9eb8 82bc
00000370: 9655 5dbc 4e96 753d 4f4c 8e3d ddc8 3dbd
00000380: 8d75 53bd 9d35 9d3d 9f76 21bd 6489 8abd
00000390: 6f31 f73d f573 8b3d a2b9 a63c 6af8 e03d
000003a0: a0ec 76ba d169 903d e310 a8bd 4ff2 e23c
000003b0: 3972 9e3d da11 733d bfd5 8a3d 83e9 963a
000003c0: 17d9 0c3e 5d06 193e a653 133d 8407 913d
000003d0: a247 423c 0324 99bd 36b8 853d bf26 413d
000003e0: 0aef 83bd df25 33be 9d94 07be 0875 893e
000003f0: a5f9 2c3d db58 84bc 35e3 d63d efff bd3d

conv3.lin_rel.weight f4 [120, 120]
-0.043725155 0.034763493 0.06884469 0.03649706 0.057763007 -0.046182122 0.18673325 -0.030888999
-0.04328672 -0.018378036 0.021800399 0.05843633 -0.07661873 -0.07552545 -0.06726384 -0.05597867
0.09045855 -0.08125293 0.071940534 0.032691285 0.07551954 -0.0015297432 -0.12661508 0.060770374
0.00034978805 -0.055128057 0.015935736 0.010536031 -0.2238958 -0.2586384 -0.060632188 -0.018991783
-9.099719e-27 0.01700903 0.02284577 -0.019492451 0.057488397 -0.064888425 -0.013394886 -0.0031474351
0.1412815 -0.01486314 -0.043721538 -0.067048304 -0.06284838 0.08190251 0.07116519 -0.018658265
-0.055986967 -0.040476482 8.791998e-19 0.034556475 -0.038773544 -0.011272992 -0.087378204 0.09653866
0.05283164 0.007446059 0.10307787 0.08630407 0.086441815 9.851e-42 0.07881064 -3.802277e-08
-0.07097697 0.069907755 0.05986498 0.06486792 0.09902157 0.011353441 0.0507767 0.030821107
-0.027828375 0.06902589 0.0005533172 0.06934631 0.02485502 0.0040946538 0.05913414 0.03967225
-0.0136671215 0.0030493534 0.14019711 0.086602546 0.0027002199 0.06625582 0.03517534 0.07571888
9.917e-42 0.04609113 -0.033869278 -0.0018937156 0.03218159 0.040689725 0.078107774 -0.0029430017
-0.074589305 -0.10698789 -0.041050497 0.0720025 -9.847e-42 -0.0020173925 0.051063534 0.042607587
0.10124435 -0.03909672 0.08360589 -0.026451305 -0.13147758 -0.09693249 -0.2572407 -0.21246934
0.10074544 -0.046654183 0.07871241 0.09237735 0.083162606 0.06430718 0.0560492 -0.0074758558
0.07955333 0.03638768 0.05213909 0.03779915 0.11218245 -0.021581512 0.21285567 0.009716886
0.09176416 0.042950284 0.079075724 0.025507497 -0.048612624 -0.08725067 0.026054611 -0.021308746
0.007977496 -0.024719022 -0.020816581 0.05399706 0.06179103 -0.0014494782 -0.17327555 -0.024399107
0.0002709641 0.008830147 0.08023794 -0.062305827 -0.1897324 -0.22386679 0.027804611 0.0007226035
9.879e-42 0.106546156 -0.023264734 0.055143792 0.0067132935 0.0894197 0.07029901 0.08651058
0.10371419 -0.026011795 -0.033532664 -0.046865564 0.10973895 -0.009193641 0.09448116 -0.01486882
0.094808675 -0.0028355594 9.81e-42 0.056292247 -0.028253471 0.028211793 -0.09257949 0.116653346
0.06452719 0.12689723 0.1342022 0.10148624 -0.0041791075 -9.937e-42 0.06548013 -1.5145968e-11
0.023292376 -0.043896563 0.019167656 -0.041686688 0.07183256 0.03743895 0.06106286 0.087184496
0.06263527 0.09798837 0.01931661 0.011311813 0.08615872 0.006175514 0.034708858 0.02090064
-0.010309813 0.0028174578 0.12783496 -0.0121302325 0.0015328513 0.029270437 0.12839888 0.0014794421
9.904e-42 0.0030004892 0.030222138 0.06491886 0.0190841 0.086481154 0.0046097087 0.04049611
-0.070776105 -0.09636541 0.07228928 0.105288856 3.1734722e-31 -0.0002677681 -0.038830135 -0.0055497554
0.10959587 0.04134076 0.108977295 0.009822667 -0.09689309 -0.15349141 -0.30824077 -0.22455966
0.12214893 -0.056169916 -0.033938844 0.021088487 -0.044816256 0.12364039 0.01194516 -0.08046141
0.047137327 0.12531103 0.11868715 0.09921919 -0.029379591 -0.110834435 0.26501414 0.10835436
0.118368484 -0.0031131017 0.09814323 0.066727705 -0.012770096 -0.0640508 0.008036393 0.10855896
00000000: 2619 33bd 2a64 0e3d 72fe 8c3d f17d 153d
00000010: e798 6c3d 7729 3dbd 0037 3f3e ed0a fdbc
00000020: 6a4d 31bd 898d 96bc c096 b23c ef5a 6f3d
00000030: 48ea 9cbd 16ad 9abd a0c1 89bd e449 65bd
00000040: 5542 b93d f067 a6bd 8f55 933d 4ce7 053d
00000050: fda9 9a3d aa81 c8ba 62a7 01be 5bea 783d
00000060: c263 b739 f5cd 61bd a98b 823c 519f 2c3c
00000070: f144 65be 416c 84be 7559 78bd a894 9bbc
00000080: 0f3d 3494 8556 8b3c 0d27 bb3c a2ae 9fbc
00000090: f478 6b3d 39e4 84bd 3976 5bbc 3345 4ebb
000000a0: 19ac 103e 8784 73bc 5b15 33bd 9f50 89bd
000000b0: a7b6 80bd 81bc a73d 0ebf 913d 38d9 98bc
000000c0: 9752 65bd abca 25bd 3bbf 8121 178b 0d3d
000000d0: 02d1 1ebd 5bb2 38bc 58f3 b2bd 10b6 c53d
000000e0: fd65 583d 12fe f33b 7e1a d33d 30c0 b03d
000000f0: 6808 b13d 761b 0000 7967 a13d 7a4e 23b3
00000100: 605c 91bd cc2b 8f3d fb34 753d 79d9 843d
00000110: d2cb ca3d c803 3a3c 3bfb 4f3d 8c7c fc3c
00000120: 55f8 e3bc 725d 8d3d 7d0c 113a 7005 8e3d
00000130: c19c cb3c 722c 863b a436 723d 5f7f 223d
00000140: 10ec 5fbc a9d7 473b d58f 0f3e ad5c b13d
00000150: 2cf6 303b 22b1 873d 0414 103d 8012 9b3d
00000160: a51b 0000 0dca 3c3d 83ba 0abd 8d36 f8ba
00000170: d8d0 033d 45aa 263d f8f6 9f3d 60df 40bb
00000180: 47c2 98bd 781c dbbd 9124 28bd 0c76 933d
00000190: 731b 0080 3b36 04bb ff27 513d 4b85 2e3d
000001a0: 3359 cf3d e223 20bd 9139 ab3d 68b0 d8bc
000001b0: 0fa2 06be 8b84 c6bd 0eb5 83be 9091 59be
000001c0: a053 ce3d 7518 3fbd f933 a13d 5630 bd3d
000001d0: 2851 aa3d 7cb3 833d d993 653d 06f8 f4bb
000001e0: dbec a23d 3f0b 153d cc8f 553d 48d3 1a3d
000001f0: eabf e53d b6cb b0bc d6f6 593e 9333 1f3c
00000200: d9ee bb3d a3ec 2f3d 74f2 a13d 19f5 d03c
00000210: 081e 47bd 7bb0 b2bd 7b70 d53c ae8f aebc
00000220: 0bb4 023c 8c7f cabc 8987 aabc 052c 5d3d
00000230: 9718 7d3d 6bfc bdba 256f 31be a3e0 c7bc
00000240: 3010 8e39 52ac 103c ca53 a43d 6534 7fbd
00000250: 3649 42be 563d 65be 7fc6 e33c 1a6d 3d3a
00000260: 8a1b 0000 df34 da3d af95 bebc 75de 613d
00000270: 30fb db3b ad21 b73d edf8 8f3d 752c b13d
00000280: 1b68 d43d b016 d5bc 8c59 09bd 1bf6 3fbd
00000290: d1be e03d eda0 16bc 577f c13d 5a9c 73bc
000002a0: 0d2b c23d cbd4 39bb 591b 0000 b392 663d
000002b0: d373 e7bc 6b1c e73c 519a bdbd f3e7 ee3d
000002c0: d526 843d 59f1 013e 4d6c 093e 05d8 cf3d
000002d0: e5f0 88bb b31b 0080 721a 863d b039 85ad
000002e0: a7cf be3c e2cc 33bd 7d05 9d3c a9bf 2abd
000002f0: f31c 933d 9659 193d 0d1d 7a3d c98d b23d
00000300: ec46 803d 20ae c83d de3d 9e3c 2f55 393c
00000310: fc73 b03d f75b ca3b e02a 0e3d d237 ab3c
00000320: 7dea 28bc 19a5 383b 2be7 023e e2bd 46bc
00000330: f4e9 c83a 8ec8 ef3c ff7a 033e d7e9 c13a
00000340: 9c1b 0000 dba3 443b 6b94 f73c 2ef4 843d
00000350: 4256 9c3c 081d b13d 0a0d 973b 40df 253d
00000360: 10f3 90bd 3a5b c5bd 670c 943d afa1 d73d
00000370: 5af8 cd0c 3a63 8cb9 590c 1fbd b9da b5bb
00000380: cd73 e03d ee54 293d 7d2f df3d 40ef 203c
00000390: e26f c6bd da2c 1dbe bcd1 9dbe f8f2 65be
000003a0: 3829 fa3d 6d12 66bd 7503 0bbd c3c1 ac3c
000003b0: 4091 37bd 2c37 fd3d a2b5 433c f4c8 a4bd
000003c0: 1213 413d 8951 003e 4012 f33d 6e33 cb3d
000003d0: 78ad f0bc 2afd e2bd efaf 873e e4e8 dd3d
000003e0: 2d6b f23d 2e05 4cbb 51ff c83d 89a8 883d
000003f0: aa39 51bc 112d 83bd 13ab 033c 2954 de3d

conv3.lin_rel.bias f4 [120]
0.009120437 -0.011789461 -0.02892556 0.04394855 0.014772086 0.018935313 -0.07407863 -0.036262438
-0.007821601 -0.031775486 0.056380175 -0.049365137 -0.012045953 -0.04600557 0.01705128 -0.0442471
-0.0749604 -0.046010375 0.0240909 -0.08719022 -0.024597183 0.060529023 -0.015835444 0.061466325
-0.07239982 0.087668195 -0.01774887 -0.015920164 -0.024583783 -0.02308243 -0.02181939 0.084345624
0.0826676 -0.05806366 0.024243303 0.06275698 0.02845402 0.070156716 -0.0029479167 0.07923791
-0.07507417 -0.014535853 0.05912731 0.019450435 0.058644094 0.047523502 0.067357376 -0.03663951
-0.005577348 -0.08049003 0.062471285 -0.01011306 -0.004234347 0.055217408 -0.019838646 0.031532567
0.031300414 0.030744882 -0.0634191 -0.08150249 -0.005256325 -0.011844905 -0.09864733 -0.030804096
0.073343724 0.030947795 0.08952411 -0.08010864 0.0780799 0.021651052 -0.019445406 -0.023876155
0.06870475 0.02938617 0.005912277 0.084680066 0.030968044 -0.014947386 -0.0675171 -0.072374955
-0.07533157 0.06896461 0.033207487 0.00033318464 0.0034227339 0.02499341 -0.07589511 0.05675963
-0.07063293 -0.016124094 -0.041503593 -0.0776898 0.028170068 0.038733505 -0.0740575 0.044266135
-0.07273057 0.064839266 0.02241197 -0.01882154 -0.06765185 0.0096665155 0.08146224 0.032631364
-0.027562657 -0.06593214 0.08052649 -0.022339063 -0.0800857 0.09535402 0.0016828971 -0.08366913
-0.02591885 -0.058366615 0.032775816 -0.05799371 0.045969494 -0.037437797 0.01379773 -0.037489235
00000000: e36d 153c 9528 41bc 4cf5 ecbc 6503 343d
00000010: 9f06 723c 3b1e 9b3c 89b6 97bd ec87 14bd
00000020: 2c26 00bc 0327 02bd e6ee 663d 1933 4abd
00000030: 645c 45bc 5670 3cbd 20af 8b3c 723c 35bd
00000040: d784 99bd 6075 3cbd 475a c53c c990 b2bd
00000050: 0880 c9bc 48ed 773d 55b9 81bc 1dc4 7b3d
00000060: 5b46 94bd 628b b33d 1466 91bc 016b 82bc
00000070: ee63 c9bc 5d17 bdbc 94be b2bc 66bd ac3d
00000080: a14d a93d 29d4 6dbd e499 c63c bb86 803d
00000090: 6818 e93c 53ae 8f3d d631 41bb 7c47 a23d
000000a0: 7dc0 99bd c927 6ebc 7a2f 723d 8556 9f3c
000000b0: ca34 703d 01a8 423d aaf2 893d 5013 16bd
000000c0: 30c2 b6bb f5d7 a4bd e4e1 7f3d 3fb1 25bc
000000d0: 47c0 8abb a62b 623d a884 a2bc 4b28 013d
000000e0: dd34 003d b1dc fb3c e0e1 81bd c7ea a6bd
000000f0: 403d acbb 2211 42bc 9d07 cabd df58 fcbc
00000100: 3c35 963d 3b86 fd3c 6b58 b73d 0010 a4bd
00000110: 5be8 9f3d 8c5d b13c f94b 9fbc ed97 c3bc
00000120: 13b5 8c3d 44bb f03c c6bb c13b be6c ad3d
00000130: b2b0 fd3c e2e5 74bc 6846 8abd 5239 94bd
00000140: 7047 9abd 513d 8d3d 9304 083d 49af ae39
00000150: f24f 603b fbbe cc3c e56e 9bbd c97c 683d
00000160: ffa7 90bd ad16 84bc acff 29bd d41b 9fbd
00000170: eac4 e63c 06a7 1e3d 75ab 97bd 6850 353d
00000180: c4f3 94bd 73ca 843d 4f99 b73c a12f 9abc
00000190: 0e8d 8abd 4e60 1e3c add5 a63d 77a8 053d
000001a0: 15cb e1bc 6e07 87bd 13eb a43d 6900 b7bc
000001b0: f903 a4bd f848 c33d a894 dc3a b95a abbd
000001c0: c553 d4bc d511 6fbd ef3f 063d d08a 6dbd
000001d0: 824a 3c3d 6058 19bd e00f 623c 508e 19bd

conv3.lin_root.weight f4 [120, 120]
0.06614197 0.09119451 0.032946024 -0.0021952472 0.082720555 -0.016426722 0.29770583 0.0041504367
0.041855525 0.032823373 0.08085072 0.051898662 -0.05287132 -0.08993905 -0.010722032 0.030627266
0.08394084 -0.06299283 0.0714388 -0.050731853 0.074772775 -0.0005032916 -0.086625375 0.028211901
2.1093752e-05 0.014086616 0.06618558 0.051283747 -0.18518148 -0.20802897 0.032169774 0.029718151
9.868e-42 -0.011187721 0.0569152 0.11122563 0.06588487 0.044181455 -0.055435583 -0.05041768
0.09081445 0.09609701 0.0607342 0.048423212 0.03359322 -0.022448074 0.06428938 0.094861895
0.030661171 -0.023175336 -9.854e-42 -0.058809314 -0.05766803 -0.008060224 0.015789898 0.071753025
-0.043833487 -0.010623684 0.07011014 0.023234878 0.0798229 9.829e-42 0.097367875 -2.2841112e-14
-0.06008099 0.0221539 0.10866222 -0.044278894 0.13229911 -0.05259764 0.04712697 0.096698806
-0.020161942 0.084106416 0.057612427 0.0109753795 0.07655748 0.019373067 -0.020419316 0.08585411
-0.052522812 0.0022875073 0.13012455 -0.033549346 0.0023947496 -0.059912365 0.053225458 -0.03267551
-9.854e-42 0.017607164 0.09168372 0.05671068 0.07077883 0.008021001 0.085386515 0.13518746
-0.06712542 -0.0582776 -0.044241544 0.065350585 9.892e-42 -0.0022107228 -0.008549136 -0.048482638
0.10570816 -0.029767431 -0.028065577 0.037161022 -0.103265405 0.026172996 -0.26654264 -0.14739966
0.07102399 0.017018186 0.03622297 0.0319564 -0.04704613 0.05019084 -0.032450017 -0.06904357
0.0049622906 0.0063671554 0.09113745 0.103692025 -0.018642584 -0.08024837 0.19243236 0.11890791
0.066513576 0.04783046 0.013306709 0.035753 -0.021580508 -0.07897453 0.10605248 -0.046057045
0.10502262 -0.027508961 0.037435964 0.073520385 0.0897633 -0.0005166119 -0.058489434 0.070092216
1.4799503e-05 -0.045810755 -0.017119572 -0.048424996 -0.1952392 -0.17997117 -0.0070071146 0.036059245
-9.837e-42 0.10761908 0.068424165 0.017164141 0.0061829207 -0.052134417 0.08052429 0.071101226
0.068025686 0.05452198 -0.039407488 0.015979849 0.105250865 -0.012300289 -0.012638364 0.08526368
0.10056782 -0.022350335 9.84e-42 -0.060758404 -0.038747218 -0.04847274 -0.04590567 0.12139867
0.0679161 0.11154897 0.14780362 0.043428205 0.018017473 9.917e-42 0.18298556 -3.7744978e-23
0.0731451 -0.010085966 -0.05133041 0.062093146 0.14061901 -0.041029498 0.08601106 0.07322192
0.08807423 0.023520255 0.018301316 0.05715792 0.05029582 0.05707198 -0.0008381116 -0.010545768
0.07116479 0.0015440278 0.11758594 0.03431006 0.001312309 -0.0716311 0.13377501 -0.030276403
-9.899e-42 -0.0008569401 0.11254354 0.043226212 0.018375607 -0.062060934 0.08453669 0.034987547
-0.06057817 -0.080107115 0.114222035 -0.037951563 -9.847e-42 -0.0002763459 0.04493166 0.04331008
0.060248945 -0.03825997 0.07366595 -0.014781711 -0.091741495 -0.034195106 -0.2509705 -0.1548948
0.07602483 0.07940552 0.041725446 0.10379581 0.04828438 0.034752373 -0.048735112 -0.004529843
0.008099582 0.037640084 0.07309469 0.07663466 0.037858546 -0.06555463 0.26426333 0.11873809
0.12661245 0.077174 -0.014491868 0.038866952 -0.08388967 -0.06635942 0.023934606 -0.004534517
00000000: 7175 873d 30c4 ba3d 69f2 063d 23de 0fbb
00000010: 6569 a93d 5591 86bc e66c 983e 6300 883b
00000020: b370 2b3d cd71 063d 1095 a53d b193 543d
00000030: 998f 58bd f731 b8bd 76ab 2fbc 08e6 fa3c
00000040: 2de9 ab3d 6302 81bd 814e 923d 34cc 4fbd
00000050: 7822 993d 54ef 03ba a568 b1bd a51c e73c
00000060: 7df2 b037 8dcb 663c 4e8c 873d e80e 523d
00000070: 37a0 3dbe 8c05 55be 74c4 033d 7b73 f33c
00000080: 821b 0000 b44c 37bc ea1f 693d 43ca e33d
00000090: a6ee 863d 9df7 343d 6c10 63bd c582 4ebd
000000a0: edfc b93d 82ce c43d 6dc4 783d 6b57 463d
000000b0: 0b99 093d 06e5 b7bc 27aa 833d f446 c23d
000000c0: 232d fb3c 34da bdbc 781b 0080 09e2 70bd
000000d0: 5035 6cbd 080f 04bc d159 813c 40f3 923d
000000e0: be8a 33bd f60e 2ebc e895 8f3d 1257 be3c
000000f0: 307a a33d 661b 0000 cf68 c73d 05bc cda8
00000100: 7c17 76bd 187c b53c 4c8a de3d c95d 35bd
00000110: 6b79 073e 9f70 57bd 3608 413d 060a c63d
00000120: a82a a5bc fc3f ac3d 02fb 6b3d 14d2 333c
00000130: 2bca 9c3d 44b4 9e3c 6946 a7bc 48d4 af3d
00000140: 2922 57bd 01ea 153b 5f3f 053e 0a6b 09bd
00000150: 3bf1 1c3b ab66 75bd f002 5a3d c1d6 05bd
00000160: 781b 0080 e63c 903c adc4 bb3d 7549 683d
00000170: 7ef4 903d 846a 033c 20df ae3d 956e 0a3e
00000180: 0d79 89bd 7eb4 6ebd 9f36 35bd 87d6 853d
00000190: 931b 0000 c6e1 10bb ad11 0cbc bb95 46bd
000001a0: 857d d83d d4da f3bc c8e9 e5bc 2836 183d
000001b0: d07c d3bd c068 d63c 4778 88be f0ef 16be
000001c0: 0775 913d b969 8b3c 895e 143d b7e4 023d
000001d0: 71b3 40bd e994 4d3d 4fea 04bd b766 8dbd
000001e0: b69a a23b 92a3 d03b 45a6 ba3d 7c5c d43d
000001f0: 55b8 98bc 4259 a4bd fd0c 453e fe85 f33d
00000200: 4538 883d dfe9 433d 6204 5a3c bd71 123d
00000210: 9bc9 b0bc 66bd a1bd 0b32 d93d 50a6 3cbd
00000220: 1916 d73d 795a e1bc 7456 193d db91 963d
00000230: d2d5 b73d 3d6d 07ba 9e92 6fbd 828c 8f3d
00000240: 624b 7837 0fa4 3bbd 583e 8cbc 4a59 46bd
00000250: c9ec 47be 5d4a 38be f09b e5bb dcb2 133d
00000260: 6c1b 0080 6467 dc3d f821 8c3d d09b 8c3c
00000270: 199a ca3b e68a 55bd ebe9 a43d 859d 913d
00000280: 0d51 8b3d 7152 5f3d bf69 21bd 2ce8 823c
00000290: c48d d73d 2787 49bc 2411 4fbc b99e ae3d
000002a0: 80f6 cd3d 0d18 b7bc 6e1b 0000 cedd 78bd
000002b0: 67b5 1ebd 5a8b 46bd 9507 3cbd de9f f83d
000002c0: 9917 8b3d c973 e43d d559 173e c6e1 313d
000002d0: 6199 933c a51b 0000 9160 3b3e 0586 369a
000002e0: 19cd 953d 9c3f 25bc d63f 52bd 6255 7e3d
000002f0: 6efe 0f3e 8c0e 28bd 9126 b03d 60f5 953d
00000300: 4360 b43d 8dad c03c a4ec 953c 6c1e 6a3d
00000310: fd02 4e3d 4fc4 693d b8b4 5bba 28c8 2cbc
00000320: d8be 913d fa60 ca3a e6d0 f03d b588 0c3d
00000330: c801 ac3a 53b3 92bd 51fc 083e 3806 f8bc
00000340: 981b 0080 47a4 60ba 3a7d e63d f80d 313d
00000350: 7188 963c 9b33 7ebd 9221 ad3d 1a4f 0f3d
00000360: d120 78bd 330f a4bd 3eed e93d 1973 1bbd
00000370: 731b 0080 85e2 90b9 430a 383d e965 313d
00000380: 99c7 763d 7cb6 1cbd 2cde 963d fd2e 72bc
00000390: f7e2 bbbd 2b10 0cbd 357f 80be be9c 1ebe
000003a0: e8b2 9b3d 5c9f a23d 4de8 2a3d e692 d43d
000003b0: d8c5 453d 8158 0e3d 789e 47bd 146f 94bb
000003c0: 1cb4 043c 7d2c 1a3d abb2 953d a2f2 9c3d
000003d0: 9011 1b3d 8141 86bd 864d 873e f52c f33d
000003e0: b2a6 013e 670d 9e3d 4d6f 6dbc f432 1f3d
000003f0: 59ce abbd 73e7 87bd 8212 c43c 4996 94bb

lin.weight f4 [1, 120]
0.095448434 0.057368144 0.05982242 0.13733399 0.105922624 0.07180634 0.07507572 -0.07364591
0.14306395 0.1486027 0.1282872 0.07299208 -0.07818982 -0.08496007 0.08618871 0.1234985
-0.094516 -0.066284545 -0.1073506 -0.08133793 0.06337507 0.071721695 0.066997394 0.10856404
0.06570179 0.055801556 -0.1509508 0.08506251 -0.059841637 -0.0830537 0.061969392 -0.0947131
-0.12768847 -0.10119759 0.06325792 0.09563763 -0.11005823 0.08901576 0.085187264 -0.08349055
0.10725984 -0.0765655 -0.068153605 0.08783513 0.11377746 0.10616929 0.12517051 0.062010758
-0.11734887 -0.09274331 -0.09351683 -0.06564868 0.077347465 0.07792065 -0.14391743 -0.10443297
-0.09874134 -0.08191538 0.10917453 -0.14533219 -0.073261395 0.15234007 -0.06409842 -0.122492045
-0.098184764 -0.14363112 0.13124768 0.08564276 0.10370327 0.07698482 0.11583575 -0.15800016
-0.08945233 -0.07838795 -0.05249039 -0.072397135 0.1032278 -0.05844495 0.12224771 -0.1160862
-0.1315433 0.051422846 -0.063512795 -0.12584256 0.053550888 -0.06580114 -0.14457314 -0.09847354
-0.11766214 -0.07238838 -0.1397011 0.080996566 0.12545276 -0.060676146 0.11738028 -0.13786025
-0.08602809 -0.065365955 0.088043354 -0.06355633 0.07557562 -0.12546095 -0.14827752 -0.07145904
-0.14975059 0.103601925 0.12504315 0.060841363 0.10872471 0.07748403 0.06970446 0.09190455
0.12763743 0.09600626 0.07034584 -0.10205895 -0.13301873 0.11694729 -0.11706765 0.10361414
00000000: 787a c33d dcfa 6a3d 5b08 753d 48a1 0c3e
00000010: f6ed d83d 340f 933d 4dc1 993d abd3 96bd
00000020: 5b7f 123e 4e2b 183e b85d 033e df7c 953d
00000030: fc21 a0bd 8cff adbd b583 b03d c8ec fc3d
00000040: 9b91 c1bd 31c0 87bd a2da dbbd 8094 a6bd
00000050: caca 813d d3e2 923d ee35 893d d356 de3d
00000060: a98e 863d 2c90 643d d992 1abe 4135 ae3d
00000070: 811c 75bd 0f18 aabd 9ed3 7d3d f1f8 c1bd
00000080: c4c0 02be af40 cfbd 5e8d 813d a9dd c33d
00000090: 3666 e1bd e54d b63d a976 ae3d 18fd aabd
000000a0: 0cab db3d 5fce 9cbd 1e94 8bbd e8e2 b33d
000000b0: 2804 e93d 496f d93d b32c 003e fefe 7d3d
000000c0: 9b54 f0bd 34f0 bdbd c085 bfbd d172 86bd
000000d0: 5968 9e3d dd94 9f3d 175f 13be f4e0 d5bd
000000e0: e638 cabd 40c3 a7bd e596 df3d f6d1 14be
000000f0: 120a 96bd 09ff 1b3e 0846 83bd 1cdd fabd
00000100: 1815 c9bd 0914 13be cb65 063e 7965 af3d
00000110: 6162 d43d 38aa 9d3d 4b3b ed3d cbca 21be
00000120: c832 b7bd dd89 a0bd 2a00 57bd f344 94bd
00000130: 1969 d33d f963 6fbd 025d fa3d 9abe edbd
00000140: 49b3 06be c3a0 523d ff12 82bd dfdc 00be
00000150: 2d58 5b3d c0c2 86bd fb0a 14be 7fac c9bd
00000160: d9f8 f0bd 5c40 94bd ce0d 0fbe 87e1 a53d
00000170: b076 003e 8d87 78bd 1265 f03d 3d2b 0dbe
00000180: 7f2f b0bd 96de 85bd 1350 b43d d229 82bd
00000190: 64c7 9a3d d678 00be 10d6 17be 1e59 92bd
000001a0: 3858 19be 3f2d d43d 500b 003e cb34 793d
000001b0: 10ab de3d f2af 9e3d 36c1 8e3d 7438 bc3d
000001c0: 63b3 023e ee9e c43d 7b11 903d 4804 d1bd
000001d0: 1036 08be 1082 ef3d 2ac1 efbd a633 d43d
