pretrained_GNN_models/GNN_272trainvalid_fold2_946_12.59959_2.28863.pt (torch, 250912 bytes, 10 tensors)

conv1.lin_rel.weight f4 [120, 14]
0	0x3e8e7686	0.278248
1	0x3e89d92a	0.26923496
2	0xbe0275da	-0.1274027
3	0xbe72865c	-0.23684067
4	0xbb1da58c	-0.0024054972
5	0x3c0fa414	0.008767147
6	0x3d0adde9	0.033903036
7	0xbdd13019	-0.10214252
8	0x3e6ea5e4	0.2330547
9	0x00001ca9	1.0281e-41
10	0xbd4eb988	-0.050469905
11	0xbc815b8b	-0.015790721
12	0xbd1bfdfe	-0.038084023
13	0x3ca02def	0.019553153
14	0x3e2b3867	0.16720735
15	0xbe7c354b	-0.24629705
16	0x3d4fc42e	0.0507242
17	0xbdd95f33	-0.10613861
18	0x3e2901ca	0.16504589
19	0x3bbc08de	0.0057383617
20	0x3e4d6d99	0.2006134
21	0xbc8a2c92	-0.016866956
22	0x3e8b0525	0.27152362
23	0x80001ba6	-9.918e-42
24	0xbdf42faf	-0.119231574
25	0x3e2f29cb	0.17105787
26	0x3d0b77b8	0.03404972
27	0xbe540690	-0.20705628
28	0xbcc4ed3e	-0.024038907
29	0x3e5198fe	0.20468518
30	0xbc87bf80	-0.016570807
31	0x3bf939af	0.0076057534
32	0x80001b6b	-9.836e-42
33	0x80001b59	-9.81e-42
34	0x80001b73	-9.847e-42
35	0x00001b72	9.846e-42
36	0x2f8c94a7	2.5571475e-10
37	0x80001b62	-9.823e-42
38	0xbcf100d7	-0.029419346
39	0x3e33472e	0.17507622
40	0x3c648c86	0.013949519
41	0xbe98b8a5	-0.29828373
42	0x3de3ca3d	0.11122558
43	0x3df72e98	0.12069434
44	0xbe60aa68	-0.21940005
45	0x3e58e3d5	0.21180661
46	0xbce97665	-0.028498838
47	0xbdd3e294	-0.10345951
48	0x3cf05947	0.029339446
49	0x3dc367a8	0.09541255
50	0xbe51b33c	-0.20478529
51	0xad73b752	-1.3853656e-11
52	0x3d2c4e1a	0.04206667
53	0xbd4ab627	-0.04949012
54	0x3e5c15d2	0.21492699
55	0xbce7d966	-0.028301906
56	0x3e314ce3	0.17314486
57	0x00001b82	9.868e-42
58	0x3e291670	0.16512465
59	0x80001b8d	-9.883e-42
60	0x80001b5a	-9.812e-42
61	0x80001bb1	-9.934e-42
62	0xa59f7489	-2.766107e-16
63	0x347d3a39	2.3583642e-07
64	0x80001b75	-9.85e-42
65	0xa2549078	-2.8807839e-18
66	0xbb84e8e1	-0.0040560816
67	0x3cb91371	0.022592278
68	0xbe8e9935	-0.27851263
69	0xbe593102	-0.21210101
70	0x3e1bb2d2	0.15204933
71	0xbdd8887c	-0.10572907
72	0xbe749c2e	-0.23887703
73	0xbe8c2e06	-0.27378863
74	0x3dbda38d	0.092597105
75	0xbcaa81c5	-0.020813832
76	0xbe1d5b1b	-0.15366785
77	0xbdae48b2	-0.08509959
78	0x3e28f029	0.16497864
79	0x8d33b0ee	-5.5371605e-31
80	0x3e7fc910	0.24979043
81	0xbdef6c66	-0.11690597
82	0xbe62ac53	-0.22136049
83	0xbd3b714f	-0.045762356
84	0xbde609a0	-0.112323046
85	0xbe1d7f9b	-0.15380709
86	0x3e4b6bf8	0.19865406
87	0xbbdb8552	-0.0066992426
88	0x2ae2bafd	4.0275414e-13
89	0x00001bb4	9.938e-42
90	0x1cbc6702	1.2467423e-21
91	0x34c657a0	3.694413e-07
92	0x2bcf42c4	1.4726766e-12
93	0x00001c9e	1.0266e-41
94	0x3e4df54b	0.20113103
95	0xbdcdc7a8	-0.10047847
96	0x3e026b4d	0.12736244
97	0xbea5ba11	-0.3236852
98	0x3d1a9528	0.037739903
99	0x3e38c8a2	0.18045285
100	0xbcc6624f	-0.024216799
101	0xbdcc8c40	-0.09987688
102	0xbe92f21f	-0.2870035
103	0x3db71552	0.089396134
104	0x3e5359f3	0.20639782
105	0x3d2b656c	0.04184477
106	0xbe7934a1	-0.24336483
107	0x358f8584	1.0693188e-06
108	0x3e6c1b04	0.2305718
109	0x3dd30db5	0.10305349
110	0xbe913d84	-0.28367245
111	0x3e61491e	0.22000548
112	0x3d5a8f3f	0.053359266
113	0xbdf36cd6	-0.11885993
114	0x3e39b09b	0.18133776
115	0x2cb9d0c4	5.281194e-12
116	0xb28b6f31	-1.6232294e-08
117	0x927e70f8	-8.0287513e-28
118	0xbdc1cc6d	-0.09462819
119	0x80001b6d	-9.839e-42
120	0x80001bc8	-9.966e-42
121	0x3672d8ac	3.618693e-06
122	0xbc811259	-0.01575582
123	0xbe1eb541	-0.1549883
124	0x3cfb21b8	0.030655727
125	0xbde320a2	-0.110902086
126	0xbe0a7140	-0.13519764
127	0x3e2eb881	0.1706257
128	0x00001b6a	9.834e-42
129	0x272fc449	2.4392535e-15
130	0xad80ed34	-1.4657255e-11
131	0x8fcabad7	-1.9990706e-29
132	0x3e9693ff	0.29409787
133	0x00001b85	9.872e-42
134	0x1ed8d6c8	2.2958721e-20
135	0x00001b8b	9.88e-42
136	0xbc2c6b58	-0.01052364
137	0xbc17fae5	-0.0092761265
138	0x3daec462	0.08533551
139	0xbe2617f4	-0.16220075
140	0xbd4b53a9	-0.04964033
141	0x3dc2a9c2	0.09505035
142	0xbe31169a	-0.17293778
143	0xbdc20ca0	-0.09475064
144	0x30b7b660	1.3366837e-09
145	0xb1ec0a93	-6.869706e-09
146	0x905661dc	-4.2279447e-29
147	0x2aa45dc3	2.9197312e-13
148	0x3ec37b0c	0.38179815
149	0x00001b59	9.81e-42
150	0x3e54843e	0.20753571
151	0x3e164f5a	0.14678708
152	0xbe79d0ac	-0.24396008
153	0xbe4c68e4	-0.19961888
154	0xbdd75fb7	-0.10516303
155	0xbe58aef7	-0.21160494
156	0x3da43484	0.08017829
157	0x3daa21f3	0.083072565
158	0x80001bb8	-9.944e-42
159	0xbd180112	-0.037110396
160	0x3e23f130	0.16009974
161	0xb5d3c859	-1.5779034e-06
162	0xbaec5588	-0.0018030861
163	0x80001ba2	-9.913e-42
164	0x3d0fadc1	0.035077814
165	0x3d9a6836	0.07539408
166	0xbcfb2c2c	-0.030660711
167	0xbe420782	-0.18948177
168	0x3d290a42	0.04126955
169	0xbcd04171	-0.02542183
170	0xbd94e637	-0.072704725
171	0xbdf1ab12	-0.11800207
172	0x3e4ef9e5	0.20212515
173	0x3e244b21	0.16044284
174	0xbe80122b	-0.2501386
175	0x3ea2e18d	0.31812707
176	0x3e94899c	0.29011238
177	0x00001b85	9.872e-42
178	0x3e5c2462	0.21498254
179	0xbe69f91d	-0.22848935
180	0xbb6ac740	-0.0035824329
181	0x3e7c1a67	0.24619447
182	0xbe7c53a0	-0.24641275
183	0xbe3fd2db	-0.18732779
184	0xbcbbd734	-0.022929765
185	0x3e89c4bc	0.2690791
186	0x80001be1	-1.0001e-41
187	0x3d881ded	0.06646333
188	0x3e0638f3	0.13107662
189	0x80001b64	-9.826e-42
190	0x3e9403c7	0.28909132
191	0x25006ffe	1.1140175e-16
192	0xbe72128d	-0.23639889
193	0xbd832489	-0.06403453
194	0xbe1c2824	-0.15249687
195	0x3cdf0fb9	0.027229177
196	0x3d531f45	0.051543493
197	0x3d0fedaa	0.035138763
198	0xbe088238	-0.13330925
199	0x3dbab58a	0.09116657
200	0xbe531774	-0.20614415
201	0x9e352de9	-9.591554e-21
202	0x001da284	2.721529e-39
203	0x3ce8ff09	0.028441923
204	0x3e2c0f39	0.16802682
205	0x00001b65	9.827e-42
206	0x3c132bdf	0.008982628
207	0xbe38842b	-0.18019168
208	0x3e9783b8	0.2959268
209	0xbe72f335	-0.23725589
210	0xbd6cd2b8	-0.057818145
211	0x3d926f78	0.07150167
212	0x3e29a476	0.16566643
213	0xbe556b5e	-0.20841739
214	0x3e27df7d	0.16393848
215	0x3d9fbec3	0.07800057
216	0xbe69a112	-0.2281535
217	0x3e0a4ff4	0.13507062
218	0xbc24ae5d	-0.010051337
219	0x33e57fba	1.0686877e-07
220	0x3e04fb49	0.12986483
221	0x3d529b69	0.051417742
222	0xbe6c1444	-0.23054606
223	0x3e0b852a	0.13625017
224	0xbe1296e7	-0.14315377
225	0x3e09e559	0.13466395
226	0xbc2b394a	-0.0104506705
227	0x3e33c28a	0.1755468
228	0x3e1c2baf	0.15251039
229	0xbd65ac02	-0.056072243
230	0x3e027e7a	0.1274356
231	0x3e136db9	0.14397325
232	0x3df2c4d7	0.118539505
233	0xb38288ae	-6.0784586e-08
234	0x3da08894	0.0783855
235	0x3e42e9a6	0.19034442
236	0x3ddf4862	0.10902478
237	0xbdcda903	-0.10042002
238	0x3e2a1dec	0.16612977
239	0xbd3391e2	-0.043840297
240	0xbe9d649d	-0.30740824
241	0xbe5cd625	-0.21566065
242	0x3da4f788	0.08055025
243	0xbe51fdd8	-0.2050699
244	0x3e056480	0.13026619
245	0xbe6bb5fe	-0.23018643
246	0xbe6b59b3	-0.22983436
247	0x27330153	2.4841958e-15
248	0xbe237cb8	-0.15965545
249	0x3e4c3cf0	0.19945121
250	0xbe128db8	-0.14311874
251	0x3e496abc	0.19669622
252	0x3dd3215c	0.10309097
253	0x3e7e4621	0.2483144
254	0x3cd3061c	0.02575975
255	0x3e1b797c	0.15183061

conv1.lin_rel.bias f4 [120]
0	0x3e4efb01	0.20212938
1	0x3c3a8d0d	0.011386168
2	0xbe45d048	-0.19317734
3	0x3e572fe6	0.21014366
4	0xbe5ae932	-0.2137802
5	0xbe0f595e	-0.13998935
6	0x3b306eea	0.0026921579
7	0x3e7ffeb5	0.24999507
8	0xbd5d097f	-0.053964134
9	0xbc8e637d	-0.017381424
10	0xbdf02bfe	-0.11727141
11	0x3b890275	0.004181201
12	0x3e185445	0.14875896
13	0x3e84ba84	0.2592355
14	0x3dad7393	0.0846931
15	0x3e57d961	0.21079017
16	0x3e432ba3	0.19059615
17	0x3e1817b8	0.14852798
18	0x3e0c71ce	0.13715288
19	0x3da29a88	0.07939631
20	0x3e894d44	0.26816761
21	0xbe14799f	-0.1449952
22	0x3e8e529f	0.2779741
23	0x3e4b0858	0.19827402
24	0x3d5f7fe8	0.05456534
25	0x3e40ec09	0.1884004
26	0xbe0d8d1c	-0.1382336
27	0xbc651f19	-0.013984465
28	0xbabb0283	-0.0014267716
29	0x3e455d50	0.19273877
30	0x3e36dcf3	0.17857723
31	0xbe87e712	-0.2654348
32	0x3e0f9433	0.14021377
33	0xbd4af4b8	-0.04954979
34	0xbe5fad0c	-0.21843356
35	0xbe7823c0	-0.24232388
36	0x3e0d59cc	0.13803786
37	0xbdb68789	-0.0891257
38	0xbe7290a2	-0.23687986
39	0x3e32cd4c	0.17461127
40	0xbe59f13d	-0.21283431
41	0x3e5c12e5	0.21491583
42	0xbe59e728	-0.21279585
43	0x3e42839c	0.18995517
44	0xbd58fb6f	-0.05297416
45	0x3e7d67bb	0.24746601
46	0xbc96e905	-0.01842166
47	0xbe897450	-0.26846552
48	0xbcec425c	-0.028840236
49	0xbe3bc89e	-0.18338248
50	0x3e69285d	0.22769304
51	0x3e41bca3	0.18919615
52	0xbdd245d3	-0.10267224
53	0x3cb47847	0.022030009
54	0xbe00387d	-0.12521549
55	0x3e888907	0.26667044
56	0x3dba8a4c	0.09108409
57	0x3c9aca45	0.018895278
58	0xbdf1eb93	-0.1181251
59	0x3e1fcbd3	0.15605097
60	0x3e10fd22	0.14159063
61	0xbe6666ce	-0.22500154
62	0xbde4b1b5	-0.111667074
63	0x3e8266f8	0.25469184
64	0xbe0de453	-0.1385663
65	0x3e78df4c	0.24303931
66	0x3e2a6b77	0.16642557
67	0x3e5acc11	0.21366908
68	0xbdd837e1	-0.10557533
69	0xbd9318a5	-0.07182435
70	0x3e675c3e	0.22593781
71	0xbd8baba2	-0.06819846
72	0xbe3de9c9	-0.18546213
73	0x3e32ca16	0.17459902
74	0x3e86dd13	0.2634054
75	0xbe1e78a7	-0.15475713
76	0x3e2457f0	0.1604917
77	0x3e5218eb	0.20517318
78	0xbe5a5d51	-0.2132466
79	0xbdbdf1e2	-0.09274651
80	0xbe6fc6a5	-0.2341562
81	0xbd91ed15	-0.07125298
82	0x3e48708a	0.1957418
83	0x3e91e9ae	0.28498596
84	0xbe4f9622	-0.20272115
85	0xbe878b37	-0.264734
86	0xbda4ef88	-0.080534995
87	0x3e7b6cad	0.24553175
88	0x3e0d6b02	0.13810351
89	0x3df5b514	0.119974285
90	0x3e4fff96	0.20312342
91	0xbe65cf26	-0.22442302
92	0x3df4b5a7	0.1194871
93	0x3e3d814e	0.18506357
94	0xbdd99836	-0.10624735
95	0x3e88b455	0.26700082
96	0x3d9eb8c9	0.07750089
97	0x3d4221d5	0.047395546
98	0xbdee6d2c	-0.11641917
99	0x3d92bf93	0.07165446
100	0xbb711634	-0.0036786916
101	0xbe2550a3	-0.16144042
102	0xbe3e9065	-0.1860977
103	0xbe6a3685	-0.2287236
104	0x3e74d626	0.23909816
105	0xbe0fa922	-0.14029363
106	0x3e349932	0.17636564
107	0xbe620790	-0.22073197
108	0xbd62c423	-0.05536283
109	0xbd1c71f8	-0.038194627
110	0xbe802c53	-0.25033817
111	0xbe53b2d4	-0.20673686
112	0xbe4cca7c	-0.19999117
113	0xbcc567b5	-0.024097303
114	0x3e478608	0.19484723
115	0xbd53215e	-0.051545493
116	0xbe2abf02	-0.16674426
117	0x3e795d58	0.24352014
118	0x3e62cf58	0.22149408
119	0xbc3a5a24	-0.01137403

conv1.lin_root.weight f4 [120, 14]
0	0xbc87302d	-0.016502464
1	0xbd91f951	-0.071276315
2	0xbdcce3a3	-0.10004356
3	0x3e3402ed	0.17579241
4	0x3e9c5ace	0.30538028
5	0xbe7b2620	-0.24526262
6	0x00001c35	1.0119e-41
7	0x3eab95dc	0.3351277
8	0x3d7c0933	0.06153221
9	0x3350d104	4.8618872e-08
10	0xbe01db5b	-0.12681334
11	0xbd5fec15	-0.054668505
12	0xbe615b23	-0.22007422
13	0xbe6449ba	-0.2229375
14	0x3e3e4c68	0.18583834
15	0x3e7159ec	0.23569459
16	0xbe74e02c	-0.2391364
17	0x3dcbe5f5	0.0995597
18	0xbe024846	-0.12722883
19	0x3e4d9257	0.20075355
20	0x3da58547	0.08082061
21	0x3bcc9255	0.00624303
22	0x3dfdef4e	0.12399159
23	0x349f812c	2.9710043e-07
24	0xbccc942c	-0.024972998
25	0xbdd2fc00	-0.103019714
26	0x3e5906af	0.21193956
27	0x3ca160aa	0.019699413
28	0x3e73012c	0.23730916
29	0x00001b74	9.848e-42
30	0x80001b99	-9.9e-42
31	0x80001b81	-9.867e-42
32	0x33998c96	7.15019e-08
33	0x8c24839f	-1.2673709e-31
34	0x1f112846	3.0738258e-20
35	0x3100c90e	1.8740738e-09
36	0xa88b21a4	-1.544669e-14
37	0x00001b8b	9.88e-42
38	0xbdf75221	-0.12076212
39	0x3e21b917	0.15793262
40	0xbe1af527	-0.1513258
41	0x3e16ef8c	0.14739817
42	0x3e7707a9	0.24124016
43	0xbdb4498d	-0.08803091
44	0x3e402551	0.18764235
45	0xbe60ad55	-0.21941121
46	0x3e1c4ed4	0.15264446
47	0x3c9704c6	0.018434893
48	0x3db8b976	0.09019749
49	0x3e203a5b	0.15647261
50	0x3e2527a4	0.16128403
51	0x20334d41	1.5187451e-19
52	0x3e7d4785	0.24734314
53	0xba48cc77	-0.0007659862
54	0x3e2f9432	0.17146376
55	0x3e3221f4	0.17395765
56	0xbe671bb2	-0.22569159
57	0x3e873099	0.26404265
58	0xbe31ac39	-0.17350854
59	0xbc703a1e	-0.014662294
60	0x80001b61	-9.822e-42
61	0x3c028dcd	0.007968378
62	0xb282e4fa	-1.5238118e-08
63	0xb27027e7	-1.3978911e-08
64	0x3e59c4a3	0.21266417
65	0x331291e2	3.4125954e-08
66	0x3e74ff17	0.23925434
67	0xbe3d8723	-0.18508582
68	0x3e2bda2c	0.16782445
69	0x3d2039b2	0.039117523
70	0x3e4b5e84	0.19860274
71	0xbcd59d5f	-0.026076017
72	0x3e11cd29	0.14238419
73	0x3e8d281e	0.2756967
74	0xbe1b71d0	-0.15180135
75	0xbe624f48	-0.22100556
76	0x9edcaca3	-2.3364807e-20
77	0x3e4804f1	0.19533135
78	0x3c6335a1	0.013867767
79	0xaeef0f4c	-1.0871179e-10
80	0x3e1a4b8b	0.1506788
81	0x3dd7dfd8	0.10540742
82	0x3e662a0c	0.22476977
83	0x3e2609fd	0.16214748
84	0xbd30bf98	-0.043151468
85	0x3d891f73	0.066954516
86	0x3e09bf6a	0.13451925
87	0x880bd87a	-4.208326e-34
88	0xb477971c	-2.3058641e-07
89	0x9baab4d8	-2.8241008e-22
90	0xbdccd0eb	-0.100007854
91	0xa5c8606e	-3.4759813e-16
92	0xb26531c0	-1.3340866e-08
93	0xa262882a	-3.0700796e-18
94	0x3e9f1229	0.31068543
95	0x3d4842ac	0.04889171
96	0xbd9cdf37	-0.07659762
97	0xbe4df637	-0.20113455
98	0x3e07d17a	0.13263503
99	0xbdb3214d	-0.08746586
100	0xbca9d9af	-0.020733682
101	0x3e052ba6	0.13004932
102	0x3e1c0aa8	0.1523844
103	0xb9d8c9d6	-0.0004134911
104	0xafa78d73	-3.047763e-10
105	0x3e8400c6	0.2578184
106	0x3e1ddd2d	0.15416403
107	0x00001b7d	9.861e-42
108	0x3e3cdf78	0.18444622
109	0xbd2c3bf9	-0.042049382
110	0x3e5b9237	0.21442495
111	0xbe2fea77	-0.17179285
112	0xbe797d19	-0.24364127
113	0xbd8b96ed	-0.06815896
114	0x3d6c9182	0.057755955
115	0x3d803efc	0.06262013
116	0x3d0f20fd	0.03494357
117	0x3e4ad5b6	0.19808087
118	0xbdf1f3c9	-0.118140765
119	0x3e2524a5	0.1612726
120	0x3d3baf10	0.04582125
121	0x23b7a21f	1.990956e-17
122	0x3e368b47	0.17826568
123	0xbcdfd0e6	-0.02732129
124	0x3ea115ce	0.31461948
125	0x3cf7e9c4	0.030262835
126	0xbe262231	-0.1622398
127	0x89ea8232	-5.6455886e-33
128	0x3e41b8dd	0.18918176
129	0x80001b94	-9.893e-42
130	0x234b25d3	1.1012662e-17
131	0xa3fd722a	-2.7478665e-17
132	0x2f86ee1c	2.4543645e-10
133	0xacb8925b	-5.2458433e-12
134	0xaaa24051	-2.882161e-13
135	0x318ba04d	4.0636565e-09
136	0xbd3559b5	-0.044275004
137	0xbd82c264	-0.06384733
138	0xbd8720e7	-0.065980725
139	0xbdf9e699	-0.12202186
140	0xbe82d167	-0.25550386
141	0xbe307bec	-0.17234772
142	0xbdd301b9	-0.10303063
143	0x3e83d956	0.25751752
144	0x2187cd2f	9.202267e-19
145	0x80001ba6	-9.918e-42
146	0x1ce6df2d	1.5277813e-21
147	0x0006c87a	6.2293e-40
148	0x3d889df3	0.066707514
149	0x9952983c	-1.0887489e-23
150	0x3df49e26	0.11944227
151	0x3e3550a9	0.1770655
152	0x3e3c5dac	0.18395108
153	0x3e45ade8	0.19304621
154	0x3e23b8e5	0.159885
155	0xbe09ff9c	-0.13476413
156	0x3dd0ab16	0.10188882
157	0x3e2d10a1	0.16900875
158	0x89c31459	-4.6963677e-33
159	0x00001b61	9.822e-42
160	0x3e4ccb75	0.19999488
161	0x3e8ff43d	0.28116027
162	0x90b235ff	-7.0291815e-29
163	0x31ce81d7	6.01015e-09
164	0x3d93393b	0.0718865
165	0x3e789e59	0.24279155
166	0x3d7993b7	0.060931887
167	0xbd696a61	-0.056986216
168	0x3d7b8a28	0.061411053
169	0xbdf19714	-0.11796394
170	0x3c8543c3	0.016267663
171	0xbdba3009	-0.09091193
172	0x3e17f3fa	0.14839163
173	0x3d97579c	0.07389757
174	0xb319c082	-3.5798173e-08
175	0x3c89971e	0.016795691
176	0x3c2f2b76	0.010691514
177	0xa6743b96	-8.473526e-16
178	0x3d231367	0.039813425
179	0xbe71f7ae	-0.23629639
180	0x3b965a2a	0.004588385
181	0xbe5cb05d	-0.21551652
182	0xbe3d0be1	-0.18461563
183	0x3e7499f6	0.23886856
184	0x3e6638c7	0.22482596
185	0x3d85f422	0.06540705
186	0x3e8dcec4	0.27696812
187	0xa616e94b	-5.2357875e-16
188	0x00001b85	9.872e-42
189	0x3dfcad62	0.12337758
190	0x3dac6e30	0.08419454
191	0xb48a90fd	-2.5809996e-07
192	0xac4b9337	-2.8929756e-12
193	0x80001b67	-9.83e-42
194	0x3e6f0e6a	0.23345342
195	0x3e63badc	0.2223925
196	0x3b80039c	0.0039066803
197	0x3e8ca7dd	0.2747182
198	0xbd2b2412	-0.041782446
199	0x3cf22d4f	0.02956262
200	0x3e853976	0.26020402
201	0xbd7c2e61	-0.061567668
202	0x3e2ee132	0.17078093
203	0x3e350925	0.1767927
204	0x3df1f88d	0.118149854
205	0x80001b81	-9.867e-42
206	0xbbeeb441	-0.0072846715
207	0x3d75577c	0.059897885
208	0x3d93b99e	0.07213138
209	0xbe0692a3	-0.13141875
210	0x3e7bff23	0.24609046
211	0x3e620db5	0.22075541
212	0x3e3dea21	0.18546344
213	0xbe173c96	-0.14769205
214	0x3d2e8eee	0.042616777
215	0x3385299f	6.200866e-08
216	0x80001b6a	-9.834e-42
217	0x3e18a47c	0.14906496
218	0xbe65df32	-0.22448424
219	0x27b885bc	5.1215254e-15
220	0x3e0ccdef	0.13750432
221	0xbe74fd33	-0.23924713
222	0xbd329969	-0.043603335
223	0xbe575d62	-0.21031716
224	0xbe41b8ad	-0.18918104
225	0xbdc5a8fb	-0.09651371
226	0xbe818bac	-0.25301874
227	0x3d678714	0.056525305
228	0x3e8d48c0	0.27594566
229	0x00001ba2	9.913e-42
230	0x3db11dbd	0.0864825
231	0xbe3ef923	-0.18649726
232	0x3b97512f	0.004617832
233	0x1d49f3ca	2.6728164e-21
234	0xbe3935e2	-0.18086961
235	0x3e343881	0.1759968
236	0x3e8c2ef3	0.2737957
237	0x3e4ed24b	0.20197408
238	0xbcdf4ffe	-0.027259823
239	0xbc83ced9	-0.016089844
240	0xbe2c30e9	-0.16815533
241	0xbd2844b7	-0.041081157
242	0x3e936ef9	0.28795603
243	0x3b1de931	0.0024095292
244	0x32844ad8	1.5400857e-08
245	0xbe2fbb1d	-0.17161222
246	0x3ce0f295	0.027459422
247	0xb59662e5	-1.1204653e-06
248	0x3e22fbf1	0.1591642
249	0xbe373e27	-0.17894803
250	0x3d9eeb7f	0.07759761
251	0xbe6cd917	-0.23129688
252	0xbcc3bae1	-0.023892822
253	0x3e6e8028	0.23291075
254	0xbe03f667	-0.12886964
255	0x3e1e0372	0.15431002

conv2.lin_rel.weight f4 [120, 120]
0	0xbc9eef6b	-0.019401273
1	0x3d98d115	0.07461754
2	0xbe2ba68c	-0.16762751
3	0x3d88fa35	0.06688348
4	0x3e06a6d9	0.13149585
5	0x3d12a53a	0.035802104
6	0x3d12e75c	0.035865173
7	0x3da95d88	0.08269793
8	0x3d109e5e	0.03530728
9	0x3c0e0067	0.008667088
10	0x3c2b5458	0.010457121
11	0x3d513419	0.051075075
12	0x3d067a86	0.03283169
13	0xbb1c91be	-0.002389058
14	0x3e44e0f8	0.19226444
15	0x3b8201b9	0.0039674905
16	0xbc8a6b0c	-0.016896747
17	0x3d2ddb6c	0.042445585
18	0x3e03ea7f	0.12882422
19	0x3d39af1f	0.045333024
20	0x3cd81294	0.026376046
21	0xbdab01eb	-0.08349975
22	0xbd0c14fa	-0.034199692
23	0x3dc31919	0.095262714
24	0xbdcb8743	-0.099379085
25	0x3b945c12	0.004527577
26	0xbd794d1b	-0.06086455
27	0xbe19d1d0	-0.15021443
28	0x3abfec07	0.0014642485
29	0xbcfd3a12	-0.03091148
30	0x3ddc0a71	0.10744179
31	0xbd80d4cc	-0.06290588
32	0xbd8f3558	-0.069925964
33	0x3dbbf246	0.09177069
34	0xbd5d72a5	-0.05406441
35	0xbda9611b	-0.082704745
36	0x3b356094	0.0027675973
37	0x3d866962	0.06563069
38	0xbdabacd3	-0.08382573
39	0x3ad67767	0.0016362489
40	0xbc831514	-0.016001262
41	0x3d160808	0.036628753
42	0x3d22c804	0.03974153
43	0x3cc2be32	0.023772333
44	0xbda48e21	-0.080349214
45	0x3d9d80ab	0.07690557
46	0xbd04d049	-0.0324252
47	0x3d580522	0.05273927
48	0x3e0a0aa0	0.13480616
49	0xbb2c9fa0	-0.002634026
50	0xbd6231d7	-0.055223312
51	0xbcace947	-0.021107329
52	0x3d914cf6	0.07094757
53	0x3e432220	0.19055986
54	0xbb83ecad	-0.0040260167
55	0xbd92fc20	-0.07176995
56	0x3d3656c1	0.04451633
57	0x3c93baad	0.01803335
58	0x3d966205	0.073429145
59	0xbd420e83	-0.04737712
60	0x3bd051fd	0.00635743
61	0x3d0140f9	0.031556103
62	0x3dc47452	0.09592499
63	0x3e0823a4	0.13294846
64	0xbd96f58a	-0.073710516
65	0xbd196d47	-0.03745773
66	0x3d8c341b	0.06845876
67	0xbde173a3	-0.11008384
68	0x3c9dc385	0.01925827
69	0xbd84adda	-0.06478472
70	0x3df026ea	0.11726172
71	0xbc840095	-0.016113559
72	0xbb71a63d	-0.0036872767
73	0x3bb29cc6	0.0054508178
74	0xbd8b0d08	-0.06789595
75	0x3d5a99a4	0.05336918
76	0xbb8c312d	-0.004278323
77	0x3cf71be0	0.030164659
78	0xbdc25add	-0.09489987
79	0x3d00b9fb	0.031427365
80	0xbd74a3c7	-0.059726503
81	0x3cec8fe5	0.028877208
82	0xbd78fd08	-0.060788184
83	0x3dc8f629	0.09812576
84	0xbc4031f9	-0.011730664
85	0xbd5e5a37	-0.054285254
86	0x3ea47c7c	0.32126224
87	0x3cfc9b7f	0.030835865
88	0xbd845927	-0.06462317
89	0x3d89c7a5	0.06727532
90	0xbd37d053	-0.044876408
91	0xbd501f15	-0.050810892
92	0x3d973266	0.073826596
93	0x3e17268a	0.14760795
94	0xbc80cbdc	-0.015722208
95	0xbb83b644	-0.0040195305
96	0xbd37a197	-0.04483184
97	0xbc86fb36	-0.016477209
98	0x3e3069f4	0.17227918
99	0xbd6d6077	-0.057953324
100	0x1811436d	1.8774852e-24
101	0xbdae54fa	-0.08512302
102	0x39cf01de	0.00039483508
103	0x3e805132	0.25061947
104	0x3d900398	0.070319355
105	0xbd55d07d	-0.052200783
106	0x3cee4c57	0.029089136
107	0xbc491fc8	-0.012275644
108	0x3da8d875	0.08244411
109	0xbbd86199	-0.0066034314
110	0x3b63d99d	0.0034767159
111	0xbb4906b2	-0.0030674157
112	0x3aaef00f	0.001334669
113	0xbdc07324	-0.09396961
114	0xbc7ed594	-0.015553851
115	0xbcb32460	-0.02186793
116	0x3d25c7a8	0.04047361
117	0xbdb838a1	-0.08995176
118	0xbd931eb7	-0.07183593
119	0xbb3f77f5	-0.0029215787
120	0x3c802d86	0.015646707
121	0x3da107cb	0.078628145
122	0xbe12db2d	-0.14341421
123	0xbd22c167	-0.039735224
124	0x3e1519a4	0.14560562
125	0xbd5ddc2b	-0.054165047
126	0xbd8b438f	-0.06799995
127	0xbd4be012	-0.049774237
128	0x3e31f933	0.17380218
129	0xbd31e580	-0.04343176
130	0xbd56b6c5	-0.052420396
131	0xbc9e64c8	-0.019335166
132	0x3d8f50d9	0.06997842
133	0x3dea824a	0.11450632
134	0x3e2ad4b7	0.16682707
135	0x3d6e7651	0.058218304
136	0x3dccb515	0.09995476
137	0xbc908b6a	-0.017644603
138	0x3d6b5a9b	0.057459455
139	0xbd55a6ab	-0.0521609
140	0x3c834206	0.016022693
141	0x3d89df62	0.0673206
142	0xbe006f25	-0.12542398
143	0xbd5ac03b	-0.05340598
144	0xbe0e4a43	-0.13895516
145	0xbda90a9d	-0.082539774
146	0xbe33aeed	-0.17547198
147	0xbdfb76f9	-0.122785516
148	0x3b133839	0.0022463931
149	0x3cf8b308	0.030358806
150	0x3dbcf69f	0.09226727
151	0x3c58c23f	0.013229906
152	0x3dd246d6	0.10267417
153	0x3d44cb50	0.048045456
154	0x3d0676b8	0.032828063
155	0x3da67da6	0.08129434
156	0x3cd01405	0.025400171
157	0x3cde1166	0.027107906
158	0xbd0ec84d	-0.03485899
159	0xbcea90d1	-0.028633507
160	0x3d8313bd	0.06400249
161	0xbbc4351c	-0.0059877764
162	0xbabfb4dd	-0.0014626045
163	0x3dc663e1	0.09687019
164	0xbd82cd29	-0.063867874
165	0xbd97df55	-0.07415644
166	0xbbd6a8df	-0.0065508927
167	0xbcb40a31	-0.021977516
168	0x3c881626	0.016612124
169	0xbdd65829	-0.10466034
170	0x3d70ab6b	0.058757227
171	0xbc263c46	-0.010146206
172	0x3caa8816	0.020816844
173	0x3e36ad3b	0.1783952
174	0x3dce5e89	0.10076625
175	0xbd8d00d9	-0.06884927
176	0xbdaccec6	-0.084378764
177	0xbd8834ce	-0.06650697
178	0x3c82ea1b	0.01598077
179	0x3c965e3a	0.018355478
180	0x3d3f2c5c	0.046673164
181	0xbd408905	-0.047005672
182	0x3d6ec9de	0.058297984
183	0x3dc45f33	0.0958847
184	0x3d9864a1	0.074410684
185	0x3c9ed198	0.019387051
186	0x3d7d51f1	0.061845724
187	0x3d7925c4	0.06082703
188	0x3c0a0085	0.008422975
189	0xbbfcf7cb	-0.007719969
190	0x3dc9e81e	0.09858726
191	0xbab909b3	-0.001411727
192	0xbcb8b432	-0.022546861
193	0x3d820794	0.06349102
194	0x3cd5980e	0.026073482
195	0xbdd34481	-0.103158005
196	0x3c3769e8	0.011194684
197	0xbc4d74dd	-0.012540069
198	0x3d83eb67	0.06441384
199	0xbd49d686	-0.04927685
200	0xbc147929	-0.00906209
201	0xbda917a1	-0.0825646
202	0x3d4c8a2a	0.04993645
203	0xbc1eb1ba	-0.009685928
204	0xbd53903e	-0.051651232
205	0xbdc1f103	-0.094697975
206	0x3ea105fb	0.31449875
207	0x3c8a844c	0.016908787
208	0xbd22567c	-0.03963326
209	0x3b86b39c	0.0041107666
210	0xbd56bf35	-0.052428443
211	0xbc6ce4ae	-0.014458818
212	0x3c35338c	0.011059653
213	0x3d944fda	0.07241793
214	0x3c311a58	0.0108095035
215	0xbd38c3d0	-0.045108616
216	0x3da80ac6	0.0820518
217	0x3c642292	0.013924258
218	0x3d576087	0.05258229
219	0xbe2a39e6	-0.16623649
220	0x37b62c68	2.1716769e-05
221	0xbdde6d35	-0.10860673
222	0x3cbf9126	0.023384642
223	0x3eb15aa8	0.34639478
224	0x3cdb3e66	0.026763152
225	0x3d75133e	0.059832804
226	0xbd5c3ac6	-0.05376699
227	0xbc83e8be	-0.016102191
228	0x3d669c77	0.05630156
229	0x3d972069	0.073792286
230	0xbd4fb50d	-0.050709773
231	0xbdba83f9	-0.09107203
232	0x3df06cbd	0.1173949
233	0xbd235a14	-0.039880827
234	0xbb140926	-0.002258846
235	0x3c9a836b	0.018861493
236	0xbdd7f495	-0.10544697
237	0x3d1b27ae	0.03787964
238	0xbc971957	-0.0184447
239	0xbd40cb22	-0.047068723
240	0xba4b4fe5	-0.00077557407
241	0xb9d42412	-0.00040462665
242	0xa352f1ea	-1.143535e-17
243	0xbae0cec6	-0.0017151467
244	0xa1c7b4ec	-1.3532654e-18
245	0xb91eb876	-0.00015136771
246	0x225ca592	2.9903212e-18
247	0xba6dfdc1	-0.0009078645
248	0xb5755f96	-9.140871e-07
249	0x8bc63dd8	-7.635988e-32
250	0x2b0e00d7	5.04497e-13
251	0x22bfa5c9	5.1946186e-18
252	0xbaa38c77	-0.0012477775
253	0xb7f08681	-2.8672863e-05
254	0xb6a474e8	-4.9011906e-06
255	0xb973589a	-0.00023207293

conv2.lin_rel.bias f4 [120]
0	0xbbc603e2	-0.0060429433
1	0x3d0a9419	0.033832643
2	0xba9788e8	-0.0011561187
3	0x3dba254e	0.090891466
4	0xbc9083f2	-0.017641041
5	0xbd66aaac	-0.05631511
6	0xbda78523	-0.08179691
7	0xbd7abac6	-0.061213277
8	0xbce166a6	-0.027514767
9	0x3d9f5c53	0.07781281
10	0x3ce8afe8	0.028404191
11	0x3dc898ce	0.0979477
12	0x3cbfcd61	0.023413362
13	0x3c1e82c7	0.009674734
14	0xb2410e37	-1.1237311e-08
15	0x800018f7	-8.956e-42
16	0x3c925c05	0.017866144
17	0x3dbee452	0.093208924
18	0xbd0dea76	-0.034647427
19	0xbd860cb9	-0.065453954
20	0xbce593ac	-0.028024517
21	0x3d9d972f	0.076948516
22	0xbda2a8c6	-0.07942347
23	0x3d8f1e69	0.06988222
24	0x3d70f004	0.058822647
25	0x3c9d9bd3	0.019239342
26	0x3db93cc9	0.09044797
27	0xbd4987bd	-0.049201716
28	0xaf9c5f09	-2.844376e-10
29	0xbb9f75d8	-0.004866343
30	0x3bff7109	0.0077954573
31	0x3da4ef51	0.080534585
32	0x3c2e6d2b	0.010646145
33	0xb60c3147	-2.0890309e-06
34	0x3d46ee35	0.048567016
35	0x3b890d1c	0.004182471
36	0xbae7dd71	-0.0017689896
37	0x3c956857	0.01823823
38	0x3d64b645	0.05583789
39	0xbd177fb6	-0.03698703
40	0x3d4e937a	0.050433613
41	0x3cd09444	0.025461324
42	0x3d585308	0.05281356
43	0x3d657472	0.056019254
44	0x3d3e419a	0.04644928
45	0x3dd35c12	0.103202954
46	0x3dce287c	0.100663155
47	0x3d8cd44f	0.06876432
48	0xbc8717c6	-0.016490828
49	0x3c806ba7	0.015676333
50	0xbbbc1026	-0.0057392297
51	0x3cbc7320	0.023004115
52	0x3d3de4ba	0.04636071
53	0x3c95d16e	0.01828834
54	0x3d2b4612	0.04181487
55	0xbdac1a7c	-0.08403489
56	0xbd2130cb	-0.039353173
57	0x3d396bfb	0.045268994
58	0x3db4c024	0.088257104
59	0x9b7e22bf	-2.1021615e-22
60	0x3d1942cc	0.037417218
61	0x3d5b3f17	0.053526964
62	0xbd82d54b	-0.06388339
63	0x3d8a1d5e	0.067438826
64	0x3ccb923c	0.024850003
65	0x3ccf0f4c	0.025275849
66	0x38fc3247	0.00012025661
67	0xbcc40df5	-0.023932436
68	0x3cf9e643	0.030505305
69	0x3caf77f4	0.021419503
70	0x3d3ea0f7	0.046540227
71	0x3bc7b683	0.006094755
72	0x3d0aa30c	0.0338469
73	0x3db642c7	0.088994555
74	0x3c6f891d	0.014620093
75	0xbcd6cfe7	-0.026222182
76	0x3c6c0839	0.014406257
77	0xbb2a970d	-0.0026029975
78	0xbc984518	-0.018587634
79	0xbd25124e	-0.04030066
80	0xbd15492f	-0.036446746
81	0x3dc37256	0.09543292
82	0x3d15c979	0.036569092
83	0x3d6aa8fd	0.057290066
84	0xbd9a2581	-0.075266846
85	0xbd226659	-0.039648388
86	0xbcacfc3a	-0.021116365
87	0x3d7d57ba	0.06185124
88	0x3cafd63b	0.021464458
89	0x3d6a5345	0.05720832
90	0x3cb18e1f	0.021674214
91	0x3d10d095	0.03535517
92	0x3cf2f88e	0.029659536
93	0x3dca8d46	0.09890227
94	0x3d5eae60	0.054365516
95	0xbc925c99	-0.01786642
96	0x3da0356b	0.07822689
97	0xbd1d8ce3	-0.03846444
98	0x3c29efc6	0.010372108
99	0x3d90ceb9	0.07070679
100	0xbd8f8866	-0.07008438
101	0x3dbf8500	0.093515396
102	0x3d6ff746	0.058585428
103	0xb061a1f9	-8.20847e-10
104	0x3daf41f5	0.08557502
105	0xbc7045d2	-0.014665084
106	0x3d9246d7	0.07142418
107	0x3d9064bd	0.07050464
108	0xbd969211	-0.07352079
109	0x3de9e22c	0.11420092
110	0x3d58a254	0.052889183
111	0xbd1fe8fe	-0.039040558
112	0xbd811a5f	-0.06303858
113	0x3daa0858	0.08302373
114	0x3d2c5638	0.042074412
115	0x3dab27bf	0.0835719
116	0x94c8c8b3	-2.0274001e-26
117	0x3da85298	0.082188785
118	0x3d215a87	0.039392974
119	0x3dcf78ca	0.101304606

conv2.lin_root.weight f4 [120, 120]
0	0x3b9fa5f3	0.0048720776
1	0x3d3351e8	0.043779284
2	0xbdf1bcfb	-0.11803623
3	0xbccf5693	-0.025309836
4	0x3dab3ed9	0.083615966
5	0xbd3868cf	-0.04502183
6	0xbd8c4b00	-0.068502426
7	0x3d389827	0.04506698
8	0x3e1655f4	0.14681226
9	0xbca27213	-0.019829785
10	0xbd48cd2b	-0.04902379
11	0xbb15472c	-0.0022778017
12	0x3d3871d2	0.045030423
13	0x3e28c7b3	0.16482429
14	0x3dd8ebb0	0.10591829
15	0x3dcc59ba	0.099780515
16	0xbd14cbc9	-0.036327157
17	0xbd88b954	-0.066759735
18	0x3deed3f3	0.1166152
19	0x3db6b696	0.08921544
20	0xbd0199a2	-0.031640656
21	0x3d4726af	0.048620876
22	0xbd3ec5ad	-0.046575237
23	0xbd1e9140	-0.03871274
24	0xbcf1211f	-0.029434739
25	0x3d52526b	0.05134813
26	0xbd2b0e6a	-0.041761793
27	0xbbea222e	-0.007145188
28	0x3ac115cc	0.0014731227
29	0xbd3ae99f	-0.045632955
30	0xbd579588	-0.05263284
31	0xbd8a7b32	-0.06761779
32	0x3d777b31	0.06042022
33	0x3ded0cd1	0.1157471
34	0xbced9b75	-0.029004792
35	0x3c3ce72a	0.011529723
36	0x3d5517e9	0.052024756
37	0x3d5f35af	0.054494556
38	0x3cab3cde	0.020903047
39	0x3c62ed32	0.013850497
40	0x3da62dd8	0.08114213
41	0xbd77bd2a	-0.060483135
42	0x3db11daf	0.0864824
43	0xbcbd5644	-0.023112424
44	0x3d74c54e	0.059758477
45	0x3ca4ce4c	0.020117901
46	0x3de8541e	0.11344169
47	0xbd62a181	-0.055329803
48	0xbc6c9413	-0.0144396005
49	0xbd0c95e9	-0.034322653
50	0x3d923e40	0.071407795
51	0xbd797684	-0.06090404
52	0x3d8218f4	0.06352416
53	0x3e3977b2	0.18112066
54	0xbd9c76e6	-0.076398656
55	0x3d6079f0	0.05480379
56	0x3c62dabc	0.013846096
57	0x3d0bb1fa	0.03410528
58	0x3be6d425	0.0070443326
59	0xbd66bb0a	-0.056330718
60	0x3d5d7cf3	0.05407424
61	0x3d703b8c	0.05865054
62	0x3d901ac5	0.07036356
63	0x3d2ee757	0.04270109
64	0x3dbb09a1	0.09132696
65	0xbd8c30e3	-0.06845262
66	0xbd1fbfc1	-0.03900123
67	0xbc0e71e6	-0.008694148
68	0x3db42966	0.087969586
69	0xbce55c91	-0.02799824
70	0x3dab8c82	0.08376409
71	0xbda0a4c0	-0.078439236
72	0xbd8d2321	-0.06891466
73	0xbb92bdf9	-0.004478213
74	0xbd467f8d	-0.048461486
75	0xbc1b6848	-0.009485312
76	0x3b937aa2	0.004500703
77	0xbb658aa4	-0.0035025263
78	0xbd7aed81	-0.061261658
79	0xbd89e99b	-0.0673401
80	0xbca0295e	-0.019550975
81	0xbcfe33c5	-0.031030545
82	0x3c5b9b72	0.01340376
83	0x3bbc6164	0.0057489146
84	0x3d8eaab5	0.069661535
85	0xbd2e730d	-0.04259019
86	0x3e98bc8a	0.29831344
87	0x3c36c672	0.0111557115
88	0x3ddd6431	0.108101256
89	0x3d64a235	0.055818755
90	0xbc867d9e	-0.01641732
91	0x3bd13ea2	0.0063856402
92	0x3d816742	0.06318523
93	0x3ca85615	0.02054886
94	0x3d072728	0.032996327
95	0x3cc6c5c4	0.024264224
96	0x3c9afc3b	0.018919101
97	0x3ae0a02f	0.0017137582
98	0x3d2dad21	0.042401437
99	0xbe04793f	-0.12936877
100	0x34954e72	2.781049e-07
101	0xbe19e9f0	-0.15030646
102	0x3d413286	0.047167324
103	0x3e5f687f	0.21817206
104	0xbbb1b94d	-0.005423701
105	0x3c811b9c	0.015760235
106	0x3d7e700a	0.062118568
107	0xbdd8d0c3	-0.10586693
108	0x3d900682	0.07032491
109	0x3cc1fb4f	0.023679404
110	0xbd8a14ab	-0.06742223
111	0xbd8fd46e	-0.070229396
112	0x3c89ced3	0.016822254
113	0xbcaf97ba	-0.021434654
114	0xbd538235	-0.051637847
115	0xbd8e47e7	-0.06947308
116	0xbd34fce1	-0.044186477
117	0x3dac1d19	0.084039874
118	0xbd693124	-0.05693163
119	0xbda4b732	-0.08042754
120	0x3c79f10b	0.015255223
121	0x3b0379cc	0.002006161
122	0xbdcd00ce	-0.10009919
123	0xbd80061c	-0.06251165
124	0x3e4ce799	0.20010222
125	0xbd061912	-0.032738753
126	0xbc160b76	-0.009158006
127	0xbd44a735	-0.048011024
128	0x3e23da47	0.16001235
129	0x3c90a7e4	0.017658181
130	0xbd599dba	-0.053128935
131	0x3d23795d	0.039910663
132	0xbcd33920	-0.025784075
133	0x3dd0a3a8	0.10187465
134	0x3e13797c	0.14401811
135	0x3d980eea	0.0742472
136	0x3d15d8f9	0.036583874
137	0xbcd32c45	-0.025777945
138	0x3df71b98	0.1206581
139	0xbd17c8c0	-0.037056684
140	0x3cbf94d9	0.023386406
141	0xbd653e21	-0.055967454
142	0xbde0d17e	-0.109774575
143	0xbd596f01	-0.053084377
144	0x3d5289ec	0.051401064
145	0x3d9b812f	0.07592999
146	0xbdbaa6f9	-0.09113879
147	0xbb5ee84c	-0.0034012971
148	0x3b1ead36	0.0024212128
149	0x3d558007	0.05212405
150	0x3d5adf42	0.05343557
151	0x3dc86c62	0.097862974
152	0x3dc43e4b	0.09582194
153	0x3dba0ab2	0.09084071
154	0xbca83ebb	-0.020537725
155	0x3d47af99	0.048751447
156	0xbd612cf5	-0.054974515
157	0xbc173107	-0.009227998
158	0x3b9accea	0.0047241347
159	0x3d84ed36	0.06490557
160	0x3ccde8a4	0.025135346
161	0xbd9383ad	-0.072028495
162	0x3da433e5	0.080177106
163	0x3d61a9f4	0.05509372
164	0x3d6c1626	0.05763831
165	0x3dd5ae53	0.1043364
166	0xbc79e7cb	-0.015253018
167	0xba716103	-0.0009207876
168	0x3e0e5ac2	0.13901809
169	0xbd59d799	-0.053184126
170	0x3d8ef919	0.06981105
171	0xbd501d6e	-0.050809316
172	0x3b74d0e4	0.0037355954
173	0x3e32d601	0.17464449
174	0x3c3088c8	0.010774799
175	0x3d83e9e2	0.06441094
176	0x3d6da537	0.05801889
177	0x3c8ed12a	0.017433722
178	0xbdc133e2	-0.09433724
179	0xbba40a23	-0.005006091
180	0x3d8ea881	0.06965733
181	0x3d6045bc	0.054754004
182	0x3d21962a	0.03944985
183	0x3e1497d2	0.1451104
184	0x3c8163d0	0.015794665
185	0x3db72840	0.08943224
186	0x3de54e1a	0.11196537
187	0x3d0b4ff4	0.034011796
188	0x3d0957d1	0.033531014
189	0x3c1f0d37	0.0097077405
190	0x3d7b5dd8	0.061368793
191	0x3d01d186	0.031693958
192	0xbda83314	-0.082128674
193	0x3dce1807	0.100631766
194	0xbd03cfa7	-0.032180455
195	0x3d8796a6	0.06620531
196	0xbd19076f	-0.037360605
197	0xbb215185	-0.002461524
198	0xbd877212	-0.06613554
199	0x3c324808	0.010881431
200	0xbd658cce	-0.056042485
201	0xbd838885	-0.064225234
202	0xbd5f6470	-0.054539144
203	0x3d6bc889	0.057564292
204	0x3d9b3d7b	0.07580086
205	0x3c89abcc	0.016805552
206	0x3e989801	0.2980347
207	0x3d9943ff	0.07483672
208	0xbcd5ba25	-0.026089737
209	0x3e1daeda	0.15398732
210	0x3dec6b92	0.11543955
211	0xbd86d50b	-0.065836035
212	0x3c8522db	0.016251972
213	0x3db268b1	0.087113746
214	0x3d975c08	0.073906004
215	0x3c967009	0.01836397
216	0x3d35015d	0.044190753
217	0x3d7de69d	0.061987508
218	0x3e0a4e60	0.1350646
219	0xbe23dcbc	-0.16002172
220	0x35f12b44	1.7968491e-06
221	0xbd81d63f	-0.06339692
222	0x3cf6ba2d	0.030118072
223	0x3e60c404	0.21949774
224	0x3d2738bb	0.040825587
225	0xbba43a0a	-0.0050118016
226	0x3da3c244	0.079960376
227	0xbdfa4e30	-0.12221944
228	0x3cda5029	0.026649551
229	0x3ae4755a	0.0017429993
230	0x3cb2d4d9	0.02183001
231	0xbd902cff	-0.07039832
232	0x3ddad5bd	0.106852986
233	0x3db79610	0.08964169
234	0x3df476d9	0.11936731
235	0xbb8de36d	-0.00433009
236	0xbcb7ed95	-0.022452155
237	0xbc3c2885	-0.01148427
238	0xbd2457fb	-0.040122967
239	0x3d862e6b	0.06551822
240	0xb930b1c2	-0.00016850888
241	0xb880aa47	-6.135232e-05
242	0xa35ca46f	-1.1961044e-17
243	0xba8a5868	-0.0010554912
244	0xa13809b6	-6.2354477e-19
245	0xb67d3647	-3.7731531e-06
246	0x221893a9	2.0678012e-18
247	0xb974d2fd	-0.00023348253
248	0xac77d6ef	-3.5220123e-12
249	0x8000229b	-1.2414e-41
250	0x23c505e3	2.1361276e-17
251	0x22d08aa8	5.652532e-18
252	0xb9fdd74f	-0.00048416338
253	0xb4b9b5fc	-3.4591346e-07
254	0xb3138537	-3.4347263e-08
255	0xb7772493	-1.4730863e-05

conv3.lin_rel.weight f4 [120, 120]
0	0xbd25fe91	-0.040525977
1	0xbbd4a3fd	-0.0064892755
2	0x3a25ad3a	0.0006320063
3	0xbd3c7d79	-0.046018098
4	0xbd1720f3	-0.036896657
5	0x3d0b05fb	0.03394125
6	0x3d651ea7	0.055937435
7	0x3da53164	0.08066061
8	0xbd0b85bd	-0.03406309
9	0x3d1b0d9d	0.03785478
10	0x3d96ef94	0.07369915
11	0x3cb1f604	0.021723755
12	0x3dae35cd	0.085063554
13	0x3db4ad07	0.08822065
14	0x38957689	7.1269526e-05
15	0x00001be3	1.0004e-41
16	0xbd46d940	-0.04854703
17	0x3db2f093	0.08737292
18	0xbd0d304e	-0.034469895
19	0xbe0fc242	-0.14038947
20	0x3d9e8418	0.07740039
21	0x3d437381	0.047717575
22	0xbdd25cd8	-0.10271615
23	0x3dc8fdc4	0.09814027
24	0xbd7dc8b6	-0.06195899
25	0x3dca079e	0.09864734
26	0x3ce78616	0.02826218
27	0xba4f43c1	-0.00079065195
28	0xba16f600	-0.0005758703
29	0x3cf78a8e	0.030217435
30	0x3c7d6eca	0.015468309
31	0x3c1e5c85	0.009665613
32	0x3d69d4c2	0.057087667
33	0x39e44daf	0.00043545428
34	0xbc2baf93	-0.010478872
35	0x3dbdd8e2	0.09269883
36	0xb7c6e6d8	-2.3710934e-05
37	0xbc91e628	-0.017809942
38	0x3df372d3	0.11887135
39	0x3d75193e	0.059838526
40	0x3df46f61	0.11935306
41	0xbd1b0d9a	-0.03785477
42	0x3daf022e	0.085453376
43	0x3d60bac3	0.05486561
44	0x2a280e6d	1.4926402e-13
45	0xbd372fee	-0.044723444
46	0x3dbc079b	0.09181138
47	0x3d6d2325	0.057894845
48	0xbacd88c4	-0.0015681018
49	0x3d3b9de7	0.045804884
50	0x3dbc334f	0.09189474
51	0x3ccd40ee	0.025055375
52	0xbe5df4f1	-0.21675469
53	0xbd8ca710	-0.06867802
54	0x3d3f69ae	0.046731643
55	0xbd94ccf0	-0.07265651
56	0xbd0fd795	-0.035117704
57	0xbd121762	-0.03566683
58	0xbb6f154e	-0.0036481204
59	0x1b7a308f	2.0695205e-22
60	0xbc273425	-0.010205303
61	0x3de7c17c	0.11316201
62	0x3dc8419c	0.09778139
63	0xbd35c817	-0.044380274
64	0x3d0e06e0	0.034674525
65	0x3e0fac80	0.14030647
66	0x3c94c37f	0.018159626
67	0xbe0d2fd1	-0.13787772
68	0x3c3eab6a	0.011637548
69	0x3dca9e22	0.09893443
70	0x3d529ecf	0.051420983
71	0x3d254bca	0.04035548
72	0xbd68cdf9	-0.056837056
73	0x3ca582c8	0.020203963
74	0x3c4f5009	0.012653359
75	0x3c960d7e	0.01831698
76	0xbd814f02	-0.06313898
77	0x3a201132	0.0006106078
78	0xbd49dc43	-0.049282324
79	0x3dbb1056	0.09133975
80	0xbce80548	-0.02832283
81	0x3a806bd9	0.0009797766
82	0xbd2f5567	-0.042806055
83	0x3daca94e	0.0843073
84	0xbcaf60a4	-0.021408387
85	0xbd001d2c	-0.03127782
86	0x3d97c974	0.07411471
87	0x3e002dc1	0.12517454
88	0xbd537afb	-0.051630955
89	0xbd00b4a0	-0.031422257
90	0x3d4f9390	0.050677836
91	0x359b3fcf	1.1566971e-06
92	0x3d152a90	0.036417544
93	0x3d4f4fb0	0.050613105
94	0x3db53f85	0.08850006
95	0xbd83c6b8	-0.06434387
96	0xbdb8d647	-0.09025245
97	0xbc7b88ef	-0.015352472
98	0x36bb79d3	5.5872165e-06
99	0xbcf3f2d3	-0.029778874
100	0x3d957baf	0.072989814
101	0xbd646561	-0.055760745
102	0xbdee25a7	-0.11628275
103	0x00001b9c	9.904e-42
104	0x3e14dd14	0.1453746
105	0xbbbf6f2a	-0.005842109
106	0xbb93e95e	-0.0045139035
107	0xbaa9add7	-0.0012945485
108	0x3d4b646a	0.04965631
109	0x3db91d1e	0.09038757
110	0x3d0a7932	0.033806987
111	0x3d8fd0fa	0.07022281
112	0x3c2df2f4	0.010617007
113	0x3da9a55f	0.08283495
114	0xbd906e6c	-0.07052311
115	0xbdab8dc9	-0.08376653
116	0xb5a2599e	-1.2096023e-06
117	0x3cb0b1f1	0.021569224
118	0x3d36392a	0.04448811
119	0x3c9bcc9a	0.01901846
120	0x3dbad98e	0.091235265
121	0x3a5e411c	0.000847833
122	0xa2b6c55e	-4.954017e-18
123	0xbd8f3853	-0.06993165
124	0x3d1635f5	0.03667255
125	0xbb69847f	-0.0035631952
126	0x3db67531	0.08909071
127	0xbd255c6d	-0.040371347
128	0xbd11488b	-0.035469573
129	0xbd73fa02	-0.059564598
130	0xbd4c5fe8	-0.04989615
131	0x3cfbe7a9	0.030750113
132	0xbc4b76b9	-0.012418442
133	0xbce3628e	-0.027756955
134	0xb86f84cf	-5.7105728e-05
135	0x80001f00	-1.1121e-41
136	0x3dca92c6	0.09891276
137	0x3dcf8334	0.10132447
138	0xbdec769b	-0.1154606
139	0xbe13fa8f	-0.1445105
140	0x3e06425e	0.13111255
141	0x3db6eab6	0.08931486
142	0x3d0fd955	0.035119373
143	0x3da47755	0.08030573
144	0x3dcd89b4	0.100360304
145	0xbcd8021f	-0.026368199
146	0x3d882ba0	0.06648946
147	0xba02bc7b	-0.0004987192
148	0xac32326b	-2.532331e-12
149	0x3ded0428	0.11573058
150	0x3db1b9a4	0.08677986
151	0x3de13d53	0.10998025
152	0x3d858b7a	0.06520744
153	0xae82a5dc	-5.941178e-11
154	0xbd1a0c7e	-0.03760957
155	0x3b94eefa	0.00454509
156	0xb70a4586	-8.241628e-06
157	0x3ddba928	0.10725623
158	0x3da7a7d9	0.08186311
159	0x3d0fd10d	0.035111476
160	0xbc897be5	-0.01678271
161	0x3da55c4e	0.08074246
162	0x3d41d617	0.047323313
163	0x3da7e26c	0.081974834
164	0xa94a3315	-4.4897317e-14
165	0x3dfc4946	0.12318663
166	0x3e09125f	0.13385914
167	0x3d619720	0.055075765
168	0xbd07003e	-0.032959215
169	0x3db07bd6	0.0861737
170	0x3d7724b6	0.060337745
171	0x3dfc7e01	0.12328721
172	0xbe7ac0fd	-0.24487682
173	0x3d9477eb	0.07249435
174	0xbd9649c3	-0.07338288
175	0xbda68091	-0.08129991
176	0xbd819141	-0.06326533
177	0xbccea6a3	-0.025225943
178	0x3dedef15	0.11617867
179	0x9b07e6db	-1.1241532e-22
180	0x3dcd0bd7	0.10012024
181	0x3d9b9eb6	0.07598631
182	0x3dbd4d54	0.09243265
183	0x3cadd667	0.021220399
184	0xbc9d819a	-0.019226838
185	0x3d45bcd5	0.048275787
186	0x3d9bd69e	0.07609294
187	0xbe17df6b	-0.14831321
188	0xbad270e4	-0.0016055373
189	0xbcb5d875	-0.022197941
190	0xbddd76f5	-0.10813705
191	0xbd8f9013	-0.07009902
192	0x3d9b96fa	0.07597156
193	0x3ded6730	0.11591947
194	0x3c9613e2	0.018320028
195	0x3c54027c	0.012940045
196	0x3d53757a	0.051625706
197	0x3a8ef0f3	0.0010905549
198	0xbd4d9cda	-0.050198413
199	0x3b3b1ea4	0.0028552199
200	0x3c31f57a	0.010861749
201	0x3d42a5dd	0.04752146
202	0xbd5ea628	-0.054357678
203	0x3d1741f1	0.03692812
204	0xbd31de29	-0.04342476
205	0xbd32c267	-0.043642428
206	0x3d844970	0.064593196
207	0x3d466a41	0.048441175
208	0x3ce24fa4	0.027625866
209	0xbe0dbc6c	-0.13841408
210	0x3c86ce23	0.016455716
211	0x3de5fd41	0.11229945
212	0x3d066e6d	0.032820154
213	0x3c3250f0	0.010883555
214	0x3d799f70	0.060943067
215	0x3d1652d4	0.036700085
216	0xbe2a6542	-0.1664019
217	0x3d5eb6d1	0.054373566
218	0x37a3f90f	1.9547091e-05
219	0x3ccdc2df	0.025117336
220	0x3dc7f875	0.09764186
221	0x3da8893e	0.08229302
222	0xbe0458f0	-0.12924552
223	0x80001b7a	-9.857e-42
224	0x3de4d33b	0.111731015
225	0x3dbaa1ca	0.0911289
226	0xbd64ca65	-0.05585708
227	0xbd72fabe	-0.059321158
228	0xbd76b0c7	-0.06022718
229	0xb9b6134e	-0.00034728128
230	0x3e016ebb	0.12639897
231	0xbcdf3c29	-0.027250366
232	0x3dea8163	0.1145046
233	0x3d085808	0.03328708
234	0xbcc7724e	-0.024346497
235	0xbe79cc23	-0.24394278
236	0xb666347f	-3.4303227e-06
237	0xbdab2bfd	-0.083579995
238	0xbd3bd311	-0.045855585
239	0x3cdc3043	0.026878482
240	0x3be34137	0.0069352644
241	0x3dde92a7	0.108678155
242	0x3adb0e29	0.0016712594
243	0x3d6bb250	0.0575431
244	0xbd6bfdac	-0.057614967
245	0x3cb4833a	0.02203523
246	0xbcc990f9	-0.024605261
247	0x3cb1d5b2	0.021708343
248	0xbc9b3035	-0.018943885
249	0x3d4be332	0.049777217
250	0x3c67fcd0	0.014159396
251	0x3debfb6b	0.115225635
252	0x3c8ec48f	0.01742771
253	0x3c866939	0.016407596
254	0xb996d24b	-0.0002876691
255	0x00001b63	9.825e-42

conv3.lin_rel.bias f4 [120]
0	0x3d97369f	0.07383465
1	0x3d7c1f98	0.061553568
2	0x3d09ae75	0.03361364
3	0xbccb7803	-0.0248375
4	0x3d4f8661	0.050665263
5	0x3da9202e	0.08258091
6	0x3d9cf5ab	0.07664045
7	0xbd9b3dcc	-0.07580146
8	0x3d937bcd	0.072013475
9	0x3ca9d827	0.020732952
10	0xbd616f0d	-0.055037547
11	0x3d656268	0.05600205
12	0xbc5fe0cb	-0.013664435
13	0x3db2de0f	0.087337606
14	0x3d4570c9	0.048203263
15	0xbd26e6c2	-0.04074741
16	0xbd439be1	-0.04775608
17	0x3d5eaeb7	0.05436584
18	0x3b9fc98d	0.0048763216
19	0xbce756ba	-0.028239597
20	0x3d0ac1d6	0.033876263
21	0xbbd254f0	-0.0064188167
22	0x3c95e0b7	0.018295629
23	0x3da49797	0.08036726
24	0x3d78aeb6	0.060713492
25	0xbd8c5a19	-0.06853122
26	0xbdc4adf3	-0.09603491
27	0x3d2c0ca9	0.04200426
28	0x3d8daf65	0.069182195
29	0x3ce58257	0.028016252
30	0xbd8885b7	-0.06666129
31	0x3d4e7047	0.050400045
32	0x3dbb386b	0.0914162
33	0xbd965506	-0.07340436
34	0x3c96ea0c	0.01842215
35	0xbd3781f3	-0.044801664
36	0x3d008577	0.031377282
37	0x3d97a9b2	0.07405414
38	0xbcfcfe45	-0.030882964
39	0x3cd6b09b	0.026207259
40	0x3bae13ec	0.0053124335
41	0xbd44cff4	-0.048049882
42	0xbda9d897	-0.08293264
43	0x3bcbede7	0.0062234285
44	0x3d4014f4	0.046894982
45	0x3ccfe1f9	0.025376307
46	0x3bcbaca8	0.0062156506
47	0x3d4eb7c0	0.050468206
48	0x3ac74332	0.0015202521
49	0x3d9f9920	0.07792878
50	0xbd6fce35	-0.058546264
51	0x3d4f51f4	0.050615266
52	0x3d461642	0.04836107
53	0x3d5999c3	0.053125154
54	0xbd9902a5	-0.074712075
55	0x3c3b36a6	0.011426603
56	0xbd441de6	-0.047880076
57	0xbd515c6e	-0.05111354
58	0x3db432e0	0.08798766
59	0xbbeba383	-0.007191123
60	0x3d158362	0.03650225
61	0x3c8a922f	0.016915409
62	0xbd2dc53a	-0.042424418
63	0x3d972bd7	0.07381409
64	0xbd16b976	-0.036797963
65	0xbd8fa9ff	-0.07014846
66	0xbc6800b3	-0.014160323
67	0xbd676c5e	-0.05649983
68	0x3c5dc7c3	0.013536396
69	0x3d09e301	0.033663753
70	0xbd91496c	-0.07094082
71	0xbba9c50f	-0.005180962
72	0x3d11027e	0.035402767
73	0xbc58db27	-0.013235844
74	0x3ce0077f	0.027347324
75	0xbd9893ee	-0.0745009
76	0x3c9361b3	0.017990923
77	0xbd90b3e6	-0.07065563
78	0x3d8fd3b7	0.07022803
79	0xbd93d61d	-0.07218573
80	0x3da1ca03	0.07899859
81	0x3c6f3a81	0.014601351
82	0x3d27cc32	0.04096622
83	0xbd0b4155	-0.033997852
84	0x3b29cf25	0.0025910821
85	0xbc5673c7	-0.013089127
86	0xbd50080d	-0.050788928
87	0x3dc9aaf7	0.09847062
88	0xbcc255c7	-0.023722542
89	0xbc285186	-0.010273343
90	0x3b5ae422	0.0033400138
91	0xbd09256c	-0.033482954
92	0x3c413f5a	0.011794889
93	0x3d92e568	0.07172662
94	0xbd3740bf	-0.04473948
95	0x3d5200b9	0.05127022
96	0x3d9cead6	0.07661979
97	0x3cb82fc0	0.022483706
98	0x3daec45d	0.08533547
99	0xbd97f7a7	-0.07420283
100	0xbc8fe877	-0.017566903
101	0xbd01ec27	-0.031719353
102	0x3ca094cd	0.019602204
103	0xbc1e08e7	-0.009645677
104	0x3c20f677	0.009824387
105	0x3d284c24	0.04108824
106	0x3b266032	0.0025386927
107	0x3dba0ba4	0.090842515
108	0x3d07c99b	0.03315125
109	0xbd9e7f71	-0.07739151
110	0x3d1ee5f6	0.038793527
111	0x3dcb61a8	0.09930736
112	0x3bee26ae	0.0072677946
113	0x3d3cc5fa	0.046087243
114	0xbd6df034	-0.058090404
115	0xbc98bb24	-0.018643923
116	0xbc83ce7b	-0.016089668
117	0x3b2f9ecc	0.0026797531
118	0x3c2f79e5	0.010710214
119	0xbd198272	-0.037477918
