pretrained_GNN_models/GNN_272trainvalid_fold3_1832_18.58084_3.07982.pt (torch, 250927 bytes, 10 tensors)

conv1.lin_rel.weight f4 [120, 14]
00000000: cd56 463e f76c 843e 58e7 e8bd a3df 793e
00000010: 891b 0000 5080 bc3a b0c4 bdba 7fe6 6e3e
00000020: 671b 0080 761b 0080 8abe 803d 1ddb a33d
00000030: 5a07 1abe f22e 89bc dec0 a13d 1bd0 00be
00000040: 7912 a83d 5a17 4d3e ea96 98bd 5cca 20be
00000050: e600 eabd 893a 0fbe 06a3 1fbe 941b 0080
00000060: 97bd 5bbd 0606 a0be 5a2f 74be a625 973c
00000070: d041 c4bd e7df 14be 6acc d03d bf3f 1f3e
00000080: 30e8 8fbd 591b 0080 c1a3 e03d 4cfe 0f3b
00000090: 6aeb b5bb da1b 0080 66da 7f3e ce2c 7b3e
000000a0: d0e7 c1bd c3a6 843d 5733 7cbd 97be 41be
000000b0: 3f7c 52bc c9b6 853e 771b 0080 9c1b 0080
000000c0: 5b1b 0080 761b 0080 f944 ab3c 681b 0080
000000d0: 580b 66bb c87e 6a3e a4cd 11bd 51a2 093c
000000e0: db19 1f3e f919 023e 42e2 97be 7449 343e
000000f0: d23d 6e39 2ce8 96bd 3c87 303e 3859 3bbe
00000100: 9367 b23d 981b 0000 4512 afbd bda0 babd
00000110: d6ad 3f3e a5e4 5d3e 1c3c a13d 69d0 033e
00000120: 0e5d f4bd e5a9 0b3d e4cb 593e 7e8a 02be
00000130: f295 283e fb41 233d 4001 ccbc 691b 0080
00000140: 89f8 9b3a 47f3 e63c 27ab 25be 9147 83be
00000150: 8229 0bbe 9b1b 0000 931b 0080 8c1b 0000
00000160: 5d1b 0000 791b 0000 6a1b 0080 d41b 0000
00000170: 9d1b 0080 801b 0080 811b 0080 961b 0080
00000180: ab52 6dbb e8b3 bbbd 56a4 76bd 52ee a5bd
00000190: e248 9abe 23d4 4f3e 0adc 5fbd 0497 413e
000001a0: 1c59 733e 6185 f23c 4f2f 923d 741b 0000
000001b0: a1c0 3bbd 0b3f d0bd dfe4 843e deec f5bd
000001c0: e1aa ef3d b327 8cbe 9838 41be c69e 5d3d
000001d0: 5da1 183e 0800 1a3e f94a 6ebc c3a8 953d
000001e0: e82d 6b3e 6b1b 0000 75a3 0dbe 5277 b5bd
000001f0: 0deb 973d 4df6 1bbd fbf9 3bbd 1d43 983e
00000200: eb41 5abe 4fb3 4c3e 361e 7d3e e581 b43d
00000210: 6cee 7a3e 677f c0bd 4fe7 23be 841b 0000
00000220: ae96 923c 8163 5ebe 45ec 423e c102 6a3e
00000230: f4a9 323d b81d 66bd d6f4 c1bc 5b69 6f3b
00000240: fd52 63bd 4c13 84bc c17e bebc 9206 3dba
00000250: d53a 423c 8b1b 0000 3558 0c3c 0b28 2cbe
00000260: 6b9d 7e3c 209d 213d d2e0 05be 1f5b 003e
00000270: a330 053e 086a 4e3e b932 1cbe e9a0 efbd
00000280: d2fb 95bd b83b 543e 446d 0ebe 5d1b 0000
00000290: 3046 2d3d 994d 9f3d 8234 8b3e 3475 e43c
000002a0: e273 979f 8e1b 0000 a71b 0080 8d1b 0000
000002b0: 9d1b 0080 8820 0080 cebc 34b1 c91c 0080
000002c0: 151d 0000 d21b 0080 8873 4fb4 8970 d3b5
000002d0: 7b1b 0080 9a4b c0af 4e9e 96bc 2af6 5c3e
000002e0: 17e1 47be e573 1a3e a5c3 783d 4dbe 84bc
000002f0: d569 af3c 73bf c03d 5d87 3c3e 891b 0080
00000300: 5cfb 5c3e d420 bb3d 8cab d63c 7173 e2bd
00000310: 85b5 17be 931b 0080 fbf1 733d 681b 0000
00000320: 4000 373e 7f1b 0080 8d1b 0000 6f1b 0000
00000330: 6b1b 0080 961b 0080 6fc4 9abe 219e f9bd
00000340: 6f57 813e ab2d 20be 88ff a13c 60e3 cabd
00000350: c19d c63b dcd0 46be 433e 903d 7a20 483d
00000360: 98f5 0a3e 2099 8d3b 7188 8e3e 8c1b 0080
00000370: d801 0abe d405 8b3e b463 91bd 9fda 623d
00000380: 5938 f4bd 0cf1 e7bd a5a8 bfbc 1078 533e
00000390: 931b 0080 671b 0080 821b 0000 581b 0000
000003a0: 731b 0080 a71b 0080 7241 cabd 1da9 0b3e
000003b0: 8517 83bd 8fab afbd 6234 383e 98d3 ebbd
000003c0: 1a0b 60be c22c a03e 0a26 2bbe 56b1 793e
000003d0: 9f2b aabd 7c45 a83e e3eb f0bc 901b 0000
000003e0: c3ab 93bd f591 893d 0bb1 7bbd 0ad8 813e
000003f0: f5bd 9d3d 1741 623d 1ec0 56be f9e5 9fbd
0.1936905 0.25864384 -0.1137225 0.24401717 9.878e-42 0.0014381502 -0.0014478173 0.23330115
-9.83e-42 -9.851e-42 0.062863424 0.08000777 -0.15041867 -0.016746018 0.078981146 -0.12579386
0.082066484 0.20028439 -0.074506596 -0.15702194 -0.114259526 -0.13987173 -0.15589532 -9.893e-42
-0.053647604 -0.31254596 -0.23846188 0.01845057 -0.09582865 -0.14538537 0.10195239 0.15551661
-0.07026708 -9.81e-42 0.109687336 0.002197164 -0.005551745 -9.991e-42 0.24985656 0.2452881
-0.09468043 0.0647712 -0.0615724 -0.1892036 -0.012847005 0.26116017 -9.853e-42 -9.904e-42
-9.813e-42 -9.851e-42 0.020906912 -9.832e-42 -0.0035101976 0.22899926 -0.035596505 0.008400516
0.15537207 0.1270522 -0.2966481 0.17606145 0.00022720479 -0.07368502 0.17239088 -0.18295753
0.087111615 9.899e-42 -0.085484065 -0.0911269 0.18718657 0.21669252 0.07872793 0.12872471
-0.11931811 0.03409757 0.21269184 -0.12748143 0.1646345 0.039857846 -0.02490294 -9.833e-42
0.0011899631 0.028192176 -0.1617857 -0.25640538 -0.13590053 9.903e-42 -9.892e-42 9.882e-42
9.816e-42 9.855e-42 -9.834e-42 9.983e-42 -9.906e-42 -9.865e-42 -9.867e-42 -9.896e-42
-0.0036212604 -0.09165174 -0.060215317 -0.081020966 -0.3013373 0.20295767 -0.054653205 0.18905264
0.23764461 0.029604616 0.0713793 9.848e-42 -0.045838002 -0.101682745 0.25955865 -0.120080695
0.117025144 -0.27374038 -0.18869245 0.054106496 0.14905305 0.15039074 -0.014544242 0.07307579
0.2296673 9.836e-42 -0.13831885 -0.08860649 0.07417879 -0.038076688 -0.045892697 0.29738703
-0.21314208 0.19990276 0.24718556 0.08813838 0.24505013 -0.093993 -0.16006206 9.871e-42
0.017894115 -0.21717645 0.19035442 0.22852613 0.04361911 -0.056180686 -0.023676317 0.0036531303
-0.055499066 -0.016122483 -0.0232538 -0.0007210757 0.011854847 9.88e-42 0.008565952 -0.1681215
0.015540461 0.039456487 -0.13074043 0.1253476 0.13006835 0.20157635 -0.15253724 -0.11700613
-0.073234215 0.20725906 -0.13908869 9.816e-42 0.042303264 0.077784725 0.27188498 0.027887918
-6.41427e-20 9.885e-42 -9.92e-42 9.883e-42 -9.906e-42 -1.167e-41 -2.630077e-09 -1.0326e-41
1.0433e-41 -9.98e-42 -1.9320407e-07 -1.5753477e-06 -9.858e-42 -3.4978315e-10 -0.018386032 0.21578279
-0.19519459 0.15083273 0.060733456 -0.016204024 0.02141277 0.09411516 0.18411012 -9.878e-42
0.21580261 0.09137121 0.026204847 -0.11057175 -0.14815338 -9.892e-42 0.059556942 9.832e-42
0.17871189 -9.864e-42 9.883e-42 9.841e-42 -9.836e-42 -9.896e-42 -0.30227992 -0.12188364
0.2526202 -0.15642421 0.019775167 -0.099066496 0.006061286 -0.19415611 0.070431255 0.048859097
0.13570249 0.0043212324 0.27838472 -9.882e-42 -0.13477266 0.27152884 -0.07099095 0.055384275
-0.1192481 -0.11325273 -0.023395846 0.20651269 -9.892e-42 -9.83e-42 9.868e-42 9.809e-42
-9.847e-42 -9.92e-42 -0.09875764 0.1363873 -0.0640097 -0.08577644 0.17988732 -0.11514968
-0.21879235 0.31284148 -0.1671373 0.24384055 -0.08309101 0.32865512 -0.029409355 9.888e-42
-0.07210495 0.06717292 -0.06144814 0.25360137 0.07702247 0.055237856 -0.20971724 -0.07807536

conv1.lin_rel.bias f4 [120]
00000000: 8dec 3cbe e81c 7a3d ed04 8cbd 3e13 8abe
00000010: e966 06bd 3af8 e83d 9e25 07be 9c35 033e
00000020: 9c4e 363e c271 bf3d c317 9ebb 5645 1fbe
00000030: c6c4 87b4 1876 413e bacf 1abe 831c 15be
00000040: c4f9 e0bd 606b ec3d 0f73 183e 4eed 693e
00000050: b57b e23d a3b4 083e ce73 f8a5 737d 933c
00000060: d084 81be 187c 37be ff3c 05be c3c6 4a3e
00000070: 774e 80be 0fa6 c13d cb51 403e 0fea 21be
00000080: 18f2 bdbc ab0d 523e 425a d33d 3912 0ebe
00000090: 7185 08be d3a3 43bd 70a1 81be deb7 05be
000000a0: d281 36be 9bfd 69be dd1c 433e 6019 1b3d
000000b0: b44b 323d 86c5 f13d b3d9 403e bed4 21be
000000c0: 82ca e63d b826 2bbe c3f9 26be d9a1 f43d
000000d0: fd6c 863e d0d5 643d e249 22bb 7217 debc
000000e0: d81d e0bd 380a ffbd cf0a b23d 6424 1fbe
000000f0: 85c2 4cbe cdaa 21be c5b7 08bc 053b 653e
00000100: 024e 3b3e 808e 13bd efec 3dbe 3061 5d3e
00000110: 858b 783e c9dc 883d f86d 663d 14f0 5abe
00000120: 1f22 4ebe 08ae 803d 0e7d 453e da17 d13d
00000130: af60 7cbe 7f7a a83d 65e5 373b e9cd 883e
00000140: fcc5 1abe 58d5 04be 1202 82bb a69c 5ebe
00000150: 651a b8bd 6f4c 7abe 46a5 9e3d 22da 8d3d
00000160: 9af9 5bbe c53e 66bd 54fb 8b3e 3ac5 8c3d
00000170: e8ed 233d b0aa 3cbd 7687 383e 8e3e 49be
00000180: 5b7f 5e3d 2302 29bd d298 6bbe 7f94 863e
00000190: 3d5c 42be e392 933e 56c8 6ebc a29c 4bbe
000001a0: 1497 1ebc 94b3 6a3e ebae d0ba 8692 45be
000001b0: 78b0 54be d007 2ebe a080 3bbd de8c 0cbe
000001c0: 5a6a 60be 39a4 343e c896 1cbe c01c 33be
000001d0: 46a1 783d 4108 1a3e ee86 71be f241 633d
-0.18449612 0.061062723 -0.06836877 -0.26967806 -0.032812987 0.113754705 -0.13197944 0.12813419
0.17803425 0.093478695 -0.00482461 -0.15553793 -2.528888e-07 0.18892705 -0.15118304 -0.14561658
-0.10985139 0.11543918 0.14887641 0.22844431 0.110587515 0.13350157 -4.3099615e-16 0.018004155
-0.2529664 -0.17918432 -0.1301155 0.19802384 -0.25059864 0.09455501 0.18781202 -0.15811943
-0.023186728 0.20513026 0.1031995 -0.13874139 -0.13332154 -0.047763657 -0.2531848 -0.13058421
-0.1782296 -0.22850649 0.19053979 0.037865996 0.043529227 0.11805253 0.18833046 -0.15803811
0.11269094 -0.16713989 -0.16306214 0.119449325 0.26255026 0.05586797 -0.0024763276 -0.027110789
-0.10943192 -0.12453121 0.08693468 -0.15541226 -0.19996078 -0.15787812 -0.008344595 0.22385795
0.18291476 -0.03602457 -0.18547414 0.21619105 0.24271972 0.066827364 0.056257218 -0.21380645
-0.20130204 0.06283194 0.19285986 0.102096274 -0.24646257 0.08226489 0.0028060314 0.26719597
-0.15114588 -0.12972009 -0.003967532 -0.21739444 -0.08989409 -0.2444322 0.07746367 0.06926371
-0.21481934 -0.056212205 0.27340186 0.068735555 0.040021807 -0.046061218 0.18020424 -0.19652769
0.054320674 -0.041261803 -0.23007515 0.2628517 -0.18980499 0.28823003 -0.014574131 -0.1988397
-0.0096795745 0.22920066 -0.001592127 -0.19294176 -0.20770442 -0.16995168 -0.045776963 -0.13725612
-0.2191557 0.17640771 -0.15291893 -0.17491436 0.060700677 0.15042211 -0.23586628 0.055482812

conv1.lin_root.weight f4 [120, 14]
00000000: 746c 2abe a7c0 19bd eb40 45bc 2eee 9dbd
00000010: 801b 0080 6f71 993e 6b1b 0000 979d 883d
00000020: 0cb0 083e 7c1b 0080 8403 c3bd f285 dfbd
00000030: 0868 28be 1e5c b93b 08f9 6e3d 652d 893e
00000040: ade6 173d a2a5 eb3d 75fa b33c 13ba 223e
00000050: 0556 3d3e c9c6 35be e3c4 a33e 5e1b 0000
00000060: a21d 23be 681b 0080 9c60 b43d 8e8f e53d
00000070: 3995 82be 7065 903e ee32 7bbe bcf7 e6bc
00000080: 8c52 e6bc 6f1b 0080 5d3f b73d 278f 813e
00000090: 9952 873e 611b 0080 767d 433d 89fb 7f3e
000000a0: 35ab 6e3b a55e 693e c63d 223e dec2 81bc
000000b0: 320e 12bd d215 953e 931b 0080 9f1b 0080
000000c0: 791b 0000 661b 0000 871b 0000 6b1b 0080
000000d0: f678 fd3d 40aa 37be fb71 7ebe b30e 98be
000000e0: a7c7 8bbd 368a 2f3e 97e2 2cbd bc94 e9bd
000000f0: b8fc b03d 2e8e 6fbe 1635 37bd 15f4 2c3e
00000100: c309 2fbe 591b 0080 87a7 633e cd06 cfbd
00000110: dcb6 7b3e 95c0 95bd 9071 cf3d 33d0 8d3e
00000120: 4466 643e 31de 843d e749 fd3d 7cc9 ac3d
00000130: 731b 0000 9b95 1ab9 e324 1ebe ac1b 0000
00000140: 5d84 5dbe 3f60 5cbd b443 943e d3ee 4f3e
00000150: 961b 0080 651b 0080 4711 193d 991b 0000
00000160: 1f27 643e 6e1b 0000 821b 0080 6d1b 0000
00000170: 731b 0080 681b 0080 5b1b 0080 5f1c 0000
00000180: 8690 333e 85a2 5dbe a35c 40be 5692 4c3d
00000190: a577 5e3e 1fe8 983d 57d9 743e 3f6c 953c
000001a0: 8182 903c 245b cdbc a135 673d 9f1b 0000
000001b0: ac11 373e 6d61 64be f058 873d a7a5 793d
000001c0: 7edf d8bd 60a7 d03d 4320 ad3d 7eeb 2dbe
000001d0: 80ef 51be 6ec5 49bd 991b 0000 995e ce3d
000001e0: 2381 8cbe f41b 0000 779f 383b 5650 6bbd
000001f0: dbb6 e33d f3c3 b93c e08e 80bd fe14 9e3e
00000200: 8b09 523e ec91 6a3e f9e6 5fbe 011a 193e
00000210: e00a 2d3c 1820 413d 20d3 8bbd 781b 0080
00000220: 89fe 0bbe 66a3 613e 8aa6 873e bb84 043d
00000230: b133 d3bc 9fe2 34be 02d4 0ebc fac6 503e
00000240: 5e81 04bd 9995 babc 6c1b 0080 08a2 d5bb
00000250: fce7 6ebb 7c1b 0000 a72e 99bd 2c2e 88bc
00000260: f626 3ebd bf71 c7bd 5cd0 4a3e bc24 5a3d
00000270: 2d04 a13e 9440 9a3d 6f1b 0080 891b 0080
00000280: 2961 a1bd a71b 0000 879c 063e 951b 0080
00000290: 8136 71be f216 313e a7d9 82bd 42b5 1b3e
000002a0: 8a1b 0000 8b65 f8b2 7f68 4185 fc1b 0000
000002b0: c01b 0080 731b 0080 731b 0080 bf1b 0000
000002c0: ed1b 0000 801b 0080 60bc 4aab 3838 adae
000002d0: 8da5 d8ae b9ff 84aa 595a 0cbe 8f98 52be
000002e0: 5f1e 67bc f52a 443e 6219 a6bb 372e 77bd
000002f0: 841b 0000 1425 a03e fe18 8f3e 8d1b 0080
00000300: cfd9 2e3e c667 853d 020c 5dbd 7960 1f3e
00000310: ab49 a5bb a21b 0000 561c 0080 9c1b 0080
00000320: 761b 0000 901b 0080 9b66 513c 751b 0000
00000330: 921b 0000 961b 0080 5b1b 0080 991b 0080
00000340: 497e 71be 6152 79be ee5d 783e 5509 a13d
00000350: 0bec ae3d 731b 0080 1a0f 07bd 631b 0080
00000360: 9a1b 0080 c327 863d b364 c8bd 971b 0080
00000370: 1e19 aebe 98ec b9be e01f 733e cf4b bfbd
00000380: bcde 8c3d fc09 dc3d 3f03 91bc 8d1b 0000
00000390: 781b 0080 851b 0080 7b1b 0000 851b 0000
000003a0: 951b 0000 631b 0000 4d0f 923c 12a1 543e
000003b0: 2caa d93c 930e dbbd 0a44 f8bc 072d 813d
000003c0: ff85 39bd 656f 46be ff5e 8ebd 1313 e2bd
000003d0: 971b 0080 e9ac 083d b312 3e3e 5c1b 0000
000003e0: a2fb ea3d ffda 94bd bae3 3fbe f730 54be
000003f0: 2cea 543e 4713 6f3e 8383 fabd df02 2e3d
-0.16642934 -0.037537243 -0.012039403 -0.07711445 -9.865e-42 0.29969355 9.836e-42 0.06670683
0.13348407 -9.86e-42 -0.09522155 -0.1091422 -0.16445935 0.005656733 0.058342963 0.26792446
0.037085224 0.11506201 0.021970013 0.15891294 0.18489845 -0.17751612 0.3198615 9.817e-42
-0.15929273 -9.832e-42 0.08807489 0.112090215 -0.25504473 0.2820239 -0.24531147 -0.0281943
-0.028115533 -9.841e-42 0.089476325 0.2530453 0.26430205 -9.822e-42 0.04772707 0.24998297
0.0036417965 0.2279001 0.15843877 -0.01583999 -0.03565807 0.2911821 -9.892e-42 -9.909e-42
9.855e-42 9.829e-42 9.875e-42 -9.836e-42 0.12376587 -0.17936039 -0.24848168 -0.29698715
-0.0682519 0.17142567 -0.04220828 -0.11405322 0.08641952 -0.23394081 -0.04472836 0.16889985
-0.17093568 -9.81e-42 0.22231875 -0.10108719 0.24581474 -0.07312123 0.10129082 0.27697906
0.22304636 0.06487692 0.123676114 0.084368676 9.847e-42 -0.00014742317 -0.15443759 9.927e-42
-0.21632524 -0.053802725 0.28957903 0.20305948 -9.896e-42 -9.827e-42 0.037369993 9.9e-42
0.22280549 9.84e-42 -9.868e-42 9.839e-42 -9.847e-42 -9.832e-42 -9.813e-42 1.0178e-41
0.175356 -0.21644028 -0.18785338 0.049944244 0.21725328 0.074661486 0.23911034 0.018240092
0.017640354 -0.025067873 0.05644763 9.909e-42 0.17877835 -0.2230279 0.0660876 0.060948994
-0.10589503 0.10188174 0.08453419 -0.16984364 -0.20501518 -0.04926055 9.9e-42 0.10076637
-0.27442273 1.0028e-41 0.002817122 -0.05744966 0.11118861 0.022676444 -0.06277251 0.3087539
0.20511453 0.22907227 -0.21865453 0.14951326 0.010561675 0.047149748 -0.06827378 -9.854e-42
-0.13671316 0.22034988 0.26494247 0.032353144 -0.025781484 -0.17664574 -0.008717539 0.20388404
-0.032349937 -0.022776412 -9.837e-42 -0.00651956 -0.0036454191 9.86e-42 -0.07479601 -0.016623579
-0.046423875 -0.09738492 0.19806045 0.05325769 0.31448498 0.075318485 -9.841e-42 -9.878e-42
-0.0787986 9.92e-42 0.13145648 -9.895e-42 -0.23555948 0.17293909 -0.0638917 0.15205863
9.879e-42 -2.8917176e-08 -9.094009e-36 1.0039e-41 -9.955e-42 -9.847e-42 -9.847e-42 9.953e-42
1.0018e-41 -9.865e-42 -7.202624e-13 -7.8771156e-11 -9.8519505e-11 -2.3625354e-13 -0.1370634 -0.20566009
-0.014106362 0.19157012 -0.005068944 -0.06034681 9.871e-42 0.31278288 0.27948755 -9.883e-42
0.17075275 0.06513934 -0.05396653 0.15564145 -0.0050441823 9.913e-42 -1.0165e-41 -9.904e-42
9.851e-42 -9.888e-42 0.012780811 9.85e-42 9.89e-42 -9.896e-42 -9.813e-42 -9.9e-42
-0.2358333 -0.24347831 0.24254581 0.07863108 0.085411154 -9.847e-42 -0.032973386 -9.825e-42
-9.902e-42 0.06550553 -0.09784832 -9.897e-42 -0.34003538 -0.3631332 0.23742628 -0.09340631
0.06878421 0.10744092 -0.017701743 9.883e-42 -9.854e-42 -9.872e-42 9.858e-42 9.872e-42
9.895e-42 9.825e-42 0.017829562 0.20764568 0.026570402 -0.10696139 -0.030305881 0.063074164
-0.045293804 -0.19378431 -0.06951713 -0.11038794 -9.897e-42 0.033368025 0.1856182 9.815e-42
0.114737764 -0.07268333 -0.18739215 -0.20721804 0.20792454 0.23347197 -0.12232115 0.042483207

conv2.lin_rel.weight f4 [120, 120]
00000000: 0dd2 32af 98b5 283a 9b92 4e3d 40de ddb7
00000010: c916 9abb 0e8f d9b9 5f1b 0080 b655 0bba
00000020: 11f3 7bbc f564 9a3c 8221 0080 29b9 1cbd
00000030: 911b 0080 410a 5e3d 5867 d310 ab8e 783b
00000040: 171c c825 acae fabc 7924 32bd 6fea 09bd
00000050: f277 ffb9 f38b 60bb e21b 0080 d832 2bba
00000060: b41e 4d3b 9e49 f23b 6d1b 0080 02f0 4a3c
00000070: 9395 f432 c138 b63c 34b8 643b 791b 0000
00000080: e6d9 eab9 6f06 3e3d 33c8 023c fe4b 773c
00000090: dac5 e7ba 140a 1abc e36f 45bb 59c6 45bc
000000a0: 9c3b 4cbb 721b 0000 95a9 81bc 335e cbbc
000000b0: 2fa3 192f 204e 8dbd 5dcc c9bb 3e4c 08bd
000000c0: f45b 0fbd 3063 8fbd 8dbc dfb9 75b0 5abb
000000d0: fea1 5d3c 4ee4 d33a 721b 0000 9c7f 74b7
000000e0: 6c03 29bb 8bff 633b 8830 ebb9 de76 30bc
000000f0: d5fc 093b fdf8 103d 8db0 febc e4d1 3b3c
00000100: 57d5 0dbd c7f2 b3bb a7f5 2bbd 3e01 953d
00000110: b2c6 8fbc 3eec 2b3d b4ab 9c36 6548 11bc
00000120: 9c0e 43bb 46c6 0fbd ece6 6d3c e50b 53bd
00000130: 49b4 0a00 e13a 89b8 2d09 b93b 112e 49bb
00000140: d237 ac12 0aee 33bc 611b 0080 0b10 0bbc
00000150: d898 fab3 a12a 0b3c 77dd 8dbb 03b8 3337
00000160: 809d 22b9 9ae7 1a3d 661b 0000 6f80 9a3c
00000170: 9a90 1abc 86b3 383d 76ea 583d a1be 3f3b
00000180: 1a39 8e39 ef87 ee3b 9249 ed3c d993 7fbd
00000190: 861b 0080 6c1c c236 c3be 523c fa08 23bb
000001a0: 6770 3cae 7be1 f13c 6ea3 f8bc c47c 6b39
000001b0: 96f4 78b8 00d9 6abd f777 62bd d2b9 13ab
000001c0: 30f3 6a3d 1d2a 9a3c 2f6a 50bd 714c 703d
000001d0: 6b90 46bd cbf4 790b 862b 783b 487b 9abc
000001e0: 912c 34be fcbd d33c d713 9b3d c6c5 f9bc
000001f0: 3132 8f3b ea4b 543c a177 893d 61cf 443c
00000200: 02b4 16bd 2afa a83d 3263 d13d 0ecf a5bd
00000210: 751b 0080 6bbd 79bd f494 cabd 828f 9f3d
00000220: 168c 953d 60dc a6bc 76bb c3bc 9cb1 89bd
00000230: e14f 76bc b2d3 d63c de1b 0080 bcaf 70bd
00000240: d10a 51bd 98d4 99bc 8f7e d0bd a5f0 87bd
00000250: ebf0 10bd 49b8 ceba 2de8 7cbd 130a 23be
00000260: c2b5 ad3d 8867 993d 4b80 4abd 4443 12bd
00000270: ad34 fabc 0594 7abd 6a5a 38bd b01f 2e3d
00000280: c459 d53d c0a9 18bc f1ec 8d3d 2ea3 143d
00000290: 806f dd3d 8534 18ba 97fd 4bbd 74ac 8e3d
000002a0: 42df 12bd e6cb 743d a23f e739 6f82 903d
000002b0: 28c0 ae3d 0ba7 3d3d 609f eb2d d294 0bbd
000002c0: 35ad 01bc 9436 493d 446a a8bd b73c e6bd
000002d0: ecdf 91bd 1f84 7e3d f462 3c3d 7af1 0c3d
000002e0: 4cf6 853b 6f06 f53d c381 a7bd 6993 273d
000002f0: c313 bebc 3988 1c3d 060b 613d eb8d 91ba
00000300: 5425 0dbd 534c bebd 82e7 87bd 8742 9bbd
00000310: ccee 22bd af88 a2bc babd 8cbd c170 56bc
00000320: 8837 6d3e 3e81 2abd 54dd 13b9 1010 d83d
00000330: a361 86bd 91db 53bd 2f47 823d 7ae8 583d
00000340: 7aad 553e 69ee 3b3d 60a6 343e 92f5 8ebd
00000350: 4eca dbbc fa13 32bc cb5f 99bc 64b0 e53c
00000360: 943c 823d bd8b db3d d212 113c 6177 8f3c
00000370: b869 23be a660 f7bb cfcf f8bc edf1 053d
00000380: d009 c8bb 44e0 39bc b946 563d fcc2 ce3d
00000390: dce0 4b3c dc1b 623d a352 a2bd 2851 fb3d
000003a0: 3a81 3a3d caa0 d83d 7c4d a7bd 5606 093d
000003b0: bfe0 afbd 90dc fbbd a240 4e3d 2a5a d53d
000003c0: fce7 a5bd e755 1a3d b493 89bc 8c4a 7b3d
000003d0: aad8 b2bd 3b73 97bc 0fe6 203d 9603 e9bc
000003e0: f89d 97bd f75e 9f3d 4f1e dd3d 54b2 7d3d
000003f0: 7b1b 0000 10a5 88bd 9d9e 22be 1885 ee3c
-1.6263631e-10 0.0006435751 0.050432783 -2.6448746e-05 -0.0047024232 -0.0004149605 -9.819e-42 -0.0005315201
-0.015377776 0.018846968 -1.202e-41 -0.03826252 -9.889e-42 0.054208998 8.338405e-29 0.0037926834
3.4713504e-16 -0.030600868 -0.043491814 -0.03367084 -0.00048726756 -0.0034263104 -1.0002e-41 -0.00065307086
0.0031298818 0.0073940298 -9.839e-42 0.012386324 2.8473357e-08 0.02224386 0.0034899833 9.855e-42
-0.00044794305 0.046392854 0.0079823015 0.015093802 -0.0017682866 -0.009401817 -0.0030126504 -0.012071216
-0.003116346 9.846e-42 -0.015827933 -0.024825191 1.3973243e-10 -0.06899667 -0.006158395 -0.033275835
-0.034999803 -0.070013404 -0.00042674356 -0.0033369337 0.0135273915 0.0016166063 9.846e-42 -1.4573245e-05
-0.0025789393 0.0034789767 -0.00044858851 -0.010770528 0.002105524 0.035393704 -0.031090045 0.011463616
-0.034627285 -0.005491588 -0.04198232 0.072756276 -0.0175508 0.041973345 4.669151e-06 -0.008867358
-0.0029763347 -0.035101198 0.014520388 -0.051525015 9.83029e-40 -6.543636e-05 0.005646846 -0.0030697624
1.0868487e-27 -0.010982046 -9.822e-42 -0.008487712 -1.1669334e-07 0.00849405 -0.004329379 1.0712075e-05
-0.00015508197 0.03781853 9.829e-42 0.01886007 -0.00943389 0.045093082 0.052957974 0.002925791
0.00027126895 0.007279388 0.028965745 -0.062396858 -9.874e-42 5.7849593e-06 0.012862864 -0.0024877177
-4.2846084e-11 0.029526463 -0.030351367 0.00022457825 -5.9355596e-05 -0.057335854 -0.05529019 -5.248277e-13
0.057360828 0.01881891 -0.050882515 0.05866665 -0.04847757 4.8139817e-32 0.003786774 -0.018857613
-0.17595126 0.025847428 0.075721435 -0.030489814 0.004369997 0.012957552 0.067122705 0.012012334
-0.036792763 0.0825084 0.10223998 -0.08096133 -9.85e-42 -0.06097166 -0.09891692 0.07791044
0.0730211 -0.020368755 -0.0238931 -0.067233294 -0.015033693 0.026223991 -9.997e-42 -0.058761343
-0.051035706 -0.01877813 -0.10180389 -0.06637696 -0.035386007 -0.0015771474 -0.061744858 -0.15921812
0.08481933 0.0749045 -0.049438756 -0.03570868 -0.030542696 -0.06117632 -0.0450081 0.04251069
0.10417512 -0.009317815 0.069299586 0.036288433 0.108122826 -0.0005806166 -0.04980239 0.069664866
-0.035857446 0.059764765 0.00044107164 0.07056128 0.08532745 0.046301883 2.6787184e-11 -0.034077473
-0.007914831 0.049124315 -0.082233936 -0.11242049 -0.07122788 0.06213772 0.045992807 0.034409977
0.0040881988 0.11964118 -0.08179047 0.040912066 -0.023202782 0.03821585 0.054942153 -0.0011104917
-0.034459427 -0.092919014 -0.066359535 -0.075810485 -0.039778516 -0.019840566 -0.06872125 -0.013088406
0.23165715 -0.04162716 -0.00014101464 0.10549939 -0.065615915 -0.051723067 0.063612334 0.052956082
0.20866957 0.045881663 0.17641592 -0.069804326 -0.026829865 -0.010869021 -0.018722435 0.028038211
0.063592106 0.10720012 0.008854585 0.017512979 -0.15958297 -0.007549363 -0.030372528 0.03270142
-0.0061046854 -0.011344973 0.05231354 0.10095784 0.012443747 0.05520235 -0.07925918 0.12271339
0.045533396 0.10577543 -0.08169076 0.033453308 -0.08587789 -0.12297928 0.050354607 0.10417588
-0.08100888 0.03767958 -0.016794063 0.06135039 -0.08732732 -0.018487563 0.0392819 -0.028444093
-0.07403177 0.07781785 0.107967965 0.061937645 9.858e-42 -0.06672108 -0.15880819 0.029116198

conv2.lin_rel.bias f4 [120]
00000000: f901 0bbd b605 873d 72bd 36bd f208 28bd
00000010: a2d0 9ebd 9932 d63b dfe3 a03b 612b b53d
00000020: 7ea6 b93d de83 34bd 553f 493c 1148 6cb6
00000030: 875e 5b3c ae56 343d 2c5f b0ba 5bf6 173d
00000040: 4e94 cd3d 0cf5 c3bc 0ace 79bc fe44 103d
00000050: 7589 243d 60af 263d bc77 cabc 6b29 51ba
00000060: 05f3 9a3d 525a 703d c38c 9cbd 72a5 dcbc
00000070: bf0a a73d 45f7 d13b 7f30 c63d e43f 9b3b
00000080: 526b b43d 3fa5 a23d f451 43bc 0d41 963d
00000090: 8787 c6bc 9364 3fbb 61fa 67bd 804f 2cb3
000000a0: 90ba 3dbd 0068 d63d e49c 32bc 0ce5 67bc
000000b0: c865 a0bc a44b 18bb 97ff 7abb 552a b53d
000000c0: d5e8 5abd 6e5c 82bb e30e aabc 35cd 363c
000000d0: cca5 863d 7338 81bd bae9 ccbd 947c 2bbd
000000e0: 2747 913d 87fc 71bd 8db6 5bbc 88dc dc3d
000000f0: 58bd 80bd 50e3 193d 4dcd 763d 61dc 1fb7
00000100: a889 17b9 99fc 1ebc d066 19bc 840c 8dbd
00000110: 015d 453d 5e25 933d dd94 1c3b d796 433c
00000120: f80b 753d 73b2 8ebd 40b0 84ba 4bb5 babd
00000130: c311 39bd 821b 15bd 7bc0 3e3d a2e3 1d3b
00000140: 8eba 6e97 1ef1 73a3 6757 d13c a60a fbbc
00000150: d369 983c f7da 1fb7 a1fa 133d 1e97 c03b
00000160: d6c1 013d ee29 4abd 0185 84bd 6ae8 f43a
00000170: 1887 a53d e7d7 903d 7cf1 efbc f4f5 ddbc
00000180: e92c 373d 1e75 443d aa3e 31bd a905 273c
00000190: f170 33bc 2851 953d 633e caba 5336 46bd
000001a0: 1828 563b 67c4 08bc 27e9 dabc bdd3 9e3d
000001b0: b561 a2ba c870 a6bc 1add c8ba 9813 9cbd
000001c0: 84e5 ab3d 39b1 74bc 537c 5fbc a89c 393d
000001d0: 07c9 363d abcb 5fbd 72bd 4d3d 78b2 82bd
-0.03393743 0.06592886 -0.044614263 -0.041024156 -0.07754637 0.0065367934 0.004909977 0.088461645
0.09064959 -0.04407107 0.012283166 -3.5208689e-06 0.013389236 0.044027977 -0.0013456098 0.037100177
0.100380525 -0.023920558 -0.015246877 0.035222046 0.04017015 0.040694594 -0.024715297 -0.0007978889
0.075658835 0.058679886 -0.07644036 -0.02693436 0.081563465 0.0064076507 0.09677219 0.004737841
0.08809532 0.079416744 -0.011921395 0.07336626 -0.024234546 -0.0029204234 -0.056635264 -4.0119176e-08
-0.046320498 0.10469055 -0.010901663 -0.01415373 -0.019579783 -0.0023238445 -0.0038299316 0.08845965
-0.053444702 -0.0039783036 -0.020759052 0.011157324 0.06574592 -0.06309595 -0.10005517 -0.041866854
0.07093649 -0.05907872 -0.013410223 0.107842505 -0.062861145 0.037570298 0.060254384 -9.5284495e-06
-0.00014451763 -0.009703779 -0.009362891 -0.06887153 0.0481844 0.071848616 0.002389244 0.0119378185
0.059825867 -0.0696763 -0.0010123327 -0.0911661 -0.045182955 -0.036403187 0.046570282 0.0024091979
-7.7137413e-25 -1.3224115e-17 0.025554372 -0.030644726 0.018605148 -9.52812e-06 0.03612769 0.0058773896
0.031678997 -0.049356394 -0.06470681 0.0018684987 0.08082408 0.0707243 -0.029289953 -0.027094819
0.044720564 0.047963254 -0.04327265 0.010194221 -0.01095222 0.0729087 -0.001542997 -0.04839165
0.0032677706 -0.008347607 -0.026722504 0.077552296 -0.0012388738 -0.02031745 -0.0015324682 -0.07620925
0.08393386 -0.014934831 -0.013640481 0.045315415 0.04462531 -0.054637592 0.050229497 -0.063816965

conv2.lin_root.weight f4 [120, 120]
00000000: dc4a 3d18 cdd7 362e 58dc 463c 0c00 6fb8
00000010: c3f9 a23c 30b1 df36 5f1b 0000 5522 ccb4
00000020: a0b0 59bc 69db 893b 411c 0000 4ece a93c
00000030: 991b 0000 295e fe3c f085 bc32 6a22 f838
00000040: 3e46 41b7 eae6 d4bc d488 4e3c 6189 40bc
00000050: 2eb4 3c07 23c7 003b 5b1b 0000 8948 35b9
00000060: 578a cbbc b345 7eb8 981b 0080 c3e4 b8bc
00000070: 12cd 1b92 cb18 2c3c c7e1 2fb9 e122 0000
00000080: db2c 6b81 867e eb3a 313e ffbc 21d0 60ba
00000090: 54e8 3a3a ae0a e8bb cd2b 723b 6448 1abc
000000a0: 2508 5db8 811b 0000 c5aa a03c e569 913b
000000b0: 91e2 82b8 7331 543c 3147 9639 b084 cebb
000000c0: be93 afb9 c509 2a3b c20d c2b8 a938 e8b9
000000d0: 14f6 82bc 3c30 8f1c 721b 0000 41d0 77ba
000000e0: ee59 c835 456d 1037 a0ce dfb9 bb92 fdbb
000000f0: 1c88 ecb8 8627 e23b 37b4 52bd cc4a 2c38
00000100: 4df0 4abc a381 94b9 11db 88bc 1497 b43c
00000110: 2742 24bb ee54 003c 1669 8cb9 e595 273a
00000120: 4c51 103b e62f c63b bc97 a3bc 3f0f 413d
00000130: 68f2 0030 a763 c7b4 3c03 dabb 4c99 8dbb
00000140: 6f1b 0080 1518 3e3b db1f 0080 e946 3433
00000150: 0ca6 cab9 db13 063d 986a 1f34 a00b 67b2
00000160: 2603 62ad 0195 103c 581b 0080 e32c 3d3b
00000170: 4549 6bbb c394 3bbc 5dd0 d13c a9d6 863c
00000180: 9526 90ac 0853 abb8 561a 753b 27fa 4c3c
00000190: a152 ac20 b62c 0ab5 3e8a d4b9 6e69 cbaf
000001a0: 7f5e 7735 8c18 c33c f716 a73c b701 3d25
000001b0: 0ada b1ba c8fa c7bb 54b4 883c 6a1b 0000
000001c0: 918c 233d 7684 e4bb ed70 8cbc e892 06bd
000001d0: a0fa 28bc 95a8 beb4 7752 55b8 bb68 6eb9
000001e0: a07c 7dbe d04b dd3c f88f 893c 3eeb a63c
000001f0: c8b1 2f3d 1398 c73c 9823 bd3c 96a0 e13a
00000200: 4f4d e6bc 452a 2dbd 40e5 bd3d 2e5d 873a
00000210: be1b 0000 13e2 5abd fe7a 2fbe 4190 0f3d
00000220: 8fdf 823d ebbd 953d 1024 6cbd 7d61 453d
00000230: 1696 d33d 12f0 503b 7e1b 0080 a92d 69bd
00000240: c6dd c63c 4775 6b3d f3a5 9dbd efc5 2b3d
00000250: b4c0 31be cc6e 743d 93fd 2c3d 16c3 02be
00000260: 6279 cf3d e0a8 36bd 3374 2cbd 78de 8ebd
00000270: 5235 66bd 9774 023d 4f39 4b3d 3023 babc
00000280: 4c6d 233e c933 d23a 406e 80bd 1f77 f83b
00000290: bfb3 d63d 5299 af3d e813 223d 0950 4d3d
000002a0: ab10 9dbc c41b a33d 1e7c 053b 0d52 47bd
000002b0: e451 9b3d 527c b13d 9fed 071b 72d8 f63d
000002c0: 147d 8abc 8158 7abc 4af4 de3c 66a0 b3bc
000002d0: 9eab 0f3d 3f31 423d b16e cf3c d343 2abd
000002e0: 3d9a 4bbd 1e43 693d 96da c93c 089e 783b
000002f0: a50a 4c3d 6fcf 65bd 2fc9 f33c a91e 79bd
00000300: c89f c23c 1a1d de3c c41d a0bc 02bd 073c
00000310: 67bf 32be 8b58 c1bc 7575 a0bd 0f6d 9e3d
00000320: 226d 3f3e e6cb bd3b 354d 75b6 80cd 793d
00000330: 8d32 453d d769 5bbd f8f3 5c3d bf07 c43d
00000340: a260 023e 4c9c 8f3d af50 113e c31e 0b3d
00000350: de72 2bbd 13e4 663d 455c 443d d925 b73d
00000360: 9798 dd3c bb74 2cbd 8a2c 4f3d 817c 5ebc
00000370: 574c 9ebd 18fd 09be eacf 5f3c 72c1 45bd
00000380: 6a16 96bb 23c7 8dbd 551c 1b3d 60ee 053d
00000390: f3c5 89bd 2b1b 5c3d 3dd6 3a3d b056 fa3d
000003a0: 0558 163d aaf0 31bd 4b18 383d be1e 79bd
000003b0: af38 9d3d 47eb e9bd 3e9f d43d 29c4 f63c
000003c0: 3086 15be da69 cb3d 9344 e23d d903 8c3d
000003d0: 8bd5 c43c 6f18 0e3c 4124 193d fb02 fb3c
000003e0: 4eba ca3d 03ee e13c e8f1 bd3d 3bcc 0fbc
000003f0: 621b 0080 3e46 efbc 9a51 aebd 5a48 933d
2.4465472e-24 4.157368e-11 0.012137495 -5.6982084e-05 0.019894486 6.6665452e-06 9.819e-42 -3.802294e-07
-0.01328674 0.004207064 1.0136e-41 0.020728257 9.9e-42 0.031050758 2.1946988e-08 0.00011831972
-1.1520051e-05 -0.025989015 0.012605865 -0.011751504 1.4196498e-34 0.0019649945 9.813e-42 -0.00017288527
-0.024846239 -6.062323e-05 -9.899e-42 -0.02257002 -4.9162145e-28 0.010503958 -0.00016773409 1.2512e-41
-4.3194865e-38 0.0017966784 -0.031157585 -0.00085759355 0.00071299565 -0.0070813512 0.0036952377 -0.009416673
-5.269809e-05 9.867e-42 0.01961268 0.0044376724 -6.241084e-05 0.012951243 0.0002866327 -0.0063024387
-0.00033488678 0.0025945765 -9.2532035e-05 -0.00044292703 -0.01598648 9.475415e-22 9.846e-42 -0.00094533345
1.4927334e-06 8.60851e-06 -0.00042687822 -0.007738439 -0.00011278709 0.006901684 -0.051441398 4.1077656e-05
-0.012386394 -0.00028325347 -0.016706022 0.022044696 -0.0025063844 0.007832749 -0.00026781176 0.00063928805
0.0022021113 0.0060481904 -0.019969814 0.04713368 4.691061e-10 -3.7139145e-07 -0.0066532176 -0.004321253
-9.841e-42 0.0029006053 -1.1428e-41 4.197401e-08 -0.00038652157 0.03273378 1.4846808e-07 -1.3448613e-08
-1.2847312e-11 0.008824588 -9.809e-42 0.0028865866 -0.0035901826 -0.011449042 0.02561205 0.01645978
-4.0970096e-12 -8.169381e-05 0.003739973 0.012510813 2.9192613e-19 -5.147407e-07 -0.0004053879 -3.7000397e-10
9.215218e-07 0.023815416 0.020396693 1.6393718e-16 -0.0013569009 -0.0061028935 0.01668755 9.834e-42
0.039928976 -0.0069737984 -0.017143691 -0.032854944 -0.01031366 -3.5512917e-07 -5.085996e-05 -0.00022736464
-0.24754572 0.02701369 0.016792282 0.020375844 0.042894155 0.024364507 0.023088261 0.0017213996
-0.028113035 -0.04227664 0.092722416 0.0010327452 9.952e-42 -0.053438257 -0.17136762 0.03504968
0.06390297 0.073116146 -0.05765158 0.048188675 0.10331361 0.0031881374 -9.862e-42 -0.05692831
0.024275672 0.05748489 -0.07697668 0.04193681 -0.17358667 0.059675977 0.042234015 -0.12769732
0.10130574 -0.044594646 -0.042103004 -0.06976026 -0.056203194 0.03184947 0.0496152 -0.022721857
0.15959662 0.0016037162 -0.062710285 0.0075825597 0.104835026 0.085741654 0.039569765 0.050125156
-0.019172987 0.0796428 0.002036817 -0.048662234 0.07583979 0.0866629 1.1243718e-22 0.120530024
-0.016905345 -0.01527989 0.027216095 -0.02192707 0.035075776 0.047410246 0.025321336 -0.04156859
-0.04970764 0.056948774 0.024640363 0.003793599 0.04981484 -0.056106027 0.029759018 -0.060820255
0.02375783 0.027113486 -0.019545443 0.008284809 -0.17455827 -0.02360179 -0.07834903 0.07735645
0.18693975 0.005792129 -3.6552785e-06 0.060986996 0.048143912 -0.053567734 0.053943604 0.0957179
0.12732175 0.07012233 0.14190935 0.033964884 -0.041857593 0.056369852 0.047939558 0.08942766
0.0270503 -0.04210351 0.050579585 -0.013579489 -0.077294044 -0.13475454 0.01366041 -0.048280187
-0.0045803087 -0.06922748 0.037868816 0.032698035 -0.06727209 0.053736847 0.04561447 0.122235656
0.036705036 -0.043442406 0.044945043 -0.060820334 0.07676827 -0.11421829 0.103819355 0.030122833
-0.1460197 0.09932299 0.11048236 0.068366714 0.024027606 0.008672818 0.03738809 0.03064107
0.09898816 0.027579313 0.092746556 -0.00877672 -9.823e-42 -0.029208299 -0.08511658 0.07191534

conv3.lin_rel.weight f4 [120, 120]
00000000: 9a99 d6bc 0e3b ac3d dc09 32bc 4de0 1c3d
00000010: 0829 93bd c287 0b3d 5492 053d 3493 693d
00000020: 4df1 183d 875b 87bd b1ea 72bd 5b4a 9b33
00000030: 1de9 f7bc 6b30 b9bc c4c8 643a 5780 25be
00000040: da93 8ebc 1ea4 84bc cb9f 4abd 588b eabb
00000050: 3515 84bd b0a4 6abc d951 043e d0d1 ed3a
00000060: 68c9 bf3c ea4f a13d 4e1e 843d 33fe 613d
00000070: 2b42 163d 46ba b23d 1151 333e 5f4b 1bbe
00000080: 71c4 bf3d fc08 183e e313 d6bd 2cfd d43d
00000090: e7aa c93d a758 27b9 8ffd 0fbe 0f78 a62c
000000a0: d7aa b43c 891f 9e3d 0b75 d63d 392a 3d3d
000000b0: 6793 18bc 747a e03a d407 573e 39b6 da3c
000000c0: be9e b63d 2792 cd3d c4e2 9b3d 1e2c 0abd
000000d0: 284f 373d 3cfa ec3b 76a6 06be 4c7f 4aba
000000e0: 6697 de3c 713e 50bd 253b ed3d 1d4b c63d
000000f0: 290e 0fbe 7e77 dd3c b377 9b3d 9812 dab8
00000100: f060 5a37 024a 8d3d cd99 7c3d 342b 543d
00000110: 6328 ba3d 59de 97bb 2758 a43d eb16 cf3d
00000120: c6be 0dbc df5d a63d 5519 1d39 3d98 1abd
00000130: 9f49 8a3d 5ff0 db3d 8fba cf3c 5b96 91bd
00000140: 6e1b 0000 8e1b 0080 5067 91bb 3b82 2abd
00000150: a916 123d c4ff 6c2b 83fa d7bd d9d7 033d
00000160: c21b 0b3c db43 cfbd 506c 4ebd 7322 c7bc
00000170: 6a78 72bd 0c02 1e3d d2cc 093e 81f4 66bc
00000180: 3875 9ebb 1a48 44bd 0105 a13d f775 8a3d
00000190: a479 bfbd ef75 2c3e 66a9 c9ba 83ae c83d
000001a0: 3037 a4bd cb10 0ebd 93d8 94bc 4fd1 913d
000001b0: f9e2 dc3a 2663 bf3d 3179 a9ba 3c2c d73d
000001c0: bf6b 23bd 258a 9bbd 1ac4 f1bd ac0d 043d
000001d0: f9e4 213d 3944 b43b 2c35 b5bc c1a3 cfbc
000001e0: 713d 4a3c 507e 6a3d 5d97 453c cff1 21bd
000001f0: bdd3 10bd b37c f7bd 3037 e63b 25b0 aebd
00000200: 5769 a3bd 21e9 243d ef11 273b c101 9836
00000210: bf9e 9cbd c7e5 86bd 1ed1 1e38 af69 113e
00000220: 118b bcbd a08d ef3d 37e9 28bd f29e 803b
00000230: 3e2c 803d 538c 8abd 9de6 1bbe 7757 b6b7
00000240: 3f15 edbc 5800 64bc f775 9a3d 2a8c 133c
00000250: 1dbe 563d 5eb0 e2bc b34f 0cbd 9d4a 5f3e
00000260: ddce e13b 56c0 98bd afbc 5fbc 799e 8ebd
00000270: 9378 973c 974a 51b7 396f 373e 1669 d931
00000280: 8721 f0bd 6768 2d3d 751d bebd 57a0 46bc
00000290: d924 8ebd eb42 d5ba d208 5bbe 53db f1bd
000002a0: aebf 32bc 0215 c0bd 82c1 893c 57db a73d
000002b0: 8418 3fbd 664e d13b 7579 473e c744 80b9
000002c0: 2315 20ba 9612 ab3d f7a3 d63b af25 11bd
000002d0: cbd4 193e 6f89 4fbc 7c13 41bd 7373 3435
000002e0: edbf e0b8 75ac b4bd 9cff eabd cefe cabd
000002f0: af21 2ebc 0eee a8bd 83f1 67bd a082 40bd
00000300: 7733 d93d 733c a73b 4c0b 1ab9 6779 f3bd
00000310: 12e5 143d d907 1cbd 3a11 03bd d881 2fbd
00000320: 5c1b 0080 901b 0080 fd35 67bd 2fce c8bd
00000330: 9b1f 37bd 5d65 a3b2 da1c 463d 8304 e5bd
00000340: faee 4cbd d451 c23d 9e65 2e3d 41b8 d63c
00000350: 15da a4bd cee2 eabc 0056 26be cef7 173e
00000360: 0d6f d8bd 0b6b a93b 135e 953d 648a d0bb
00000370: a57e e13d 9b33 5bbe 0a6e 3b38 d28c 85bd
00000380: d331 ae3d b0e7 123c d20e 14bd 5097 13be
00000390: 04b5 9aba 80e3 c7bc b0b0 0336 5eb1 a2bd
000003a0: 4eb6 0b3d f2d4 d1bc 7bf6 013e cd99 d9bd
000003b0: e1bb 50bd e602 ccbc 7f22 d93c 0068 4cbc
000003c0: e295 bcbc 6f94 70bd b7a5 86bb 4d4b 54bd
000003d0: e75d 6fbd c8ca e5bd d60f 81bb c7cd c6bc
000003e0: f902 63bd 5ee5 ddbd 5379 a43c 69e0 ee2f
000003f0: 0399 a93b cc02 2f3d 7a86 ebb9 1b43 013e
-0.02619629 0.08409701 -0.0108666085 0.038299847 -0.071855605 0.034065016 0.032610252 0.05702515
0.037339497 -0.06609254 -0.05930585 7.231275e-08 -0.030262524 -0.022606095 0.0008727426 -0.16162239
-0.017404485 -0.016191538 -0.049468797 -0.0071577244 -0.064493574 -0.014321491 0.12921847 0.0018144194
0.023411468 0.078765705 0.06451093 0.055174064 0.036684196 0.08726935 0.17511393 -0.1516547
0.0936364 0.14847177 -0.10453012 0.10399851 0.0984705 -0.00015959387 -0.14061569 4.731333e-12
0.022054119 0.077208586 0.10471543 0.046182845 -0.009312487 0.0017126338 0.2099908 0.026698219
0.089169964 0.10037642 0.076116115 -0.03373348 0.044753224 0.0072319787 -0.13149437 -0.0007724657
0.027171802 -0.0508408 0.115835465 0.096822955 -0.13970245 0.027034517 0.0759119 -0.000103985134
1.3016383e-05 0.068988815 0.061670113 0.051799014 0.090897344 -0.00463466 0.08024626 0.10111793
-0.008651441 0.08123373 0.00014982124 -0.037742842 0.06752323 0.107392065 0.025357513 -0.07108756
9.84e-42 -9.885e-42 -0.0044373646 -0.041628104 0.03566614 8.419899e-13 -0.10545828 0.03218827
0.008490505 -0.10120364 -0.050396264 -0.024308419 -0.059196867 0.03857617 0.13457039 -0.01409638
-0.004835751 -0.047920324 0.078622825 0.06760781 -0.09349373 0.16841863 -0.0015385568 0.097989105
-0.08018339 -0.034683984 -0.018169677 0.071200006 0.0016852311 0.09345083 -0.0012929795 0.10506484
-0.039897677 -0.07594708 -0.118049815 0.0322396 0.039525006 0.005501297 -0.02212008 -0.025346639
0.01234375 0.057249367 0.012060014 -0.039537247 -0.03535818 -0.12084331 0.007025622 -0.08529691
-0.07979076 0.04026139 0.0025492867 4.530157e-06 -0.07647466 -0.06586795 3.786489e-05 0.14200471
-0.09206212 0.11696935 -0.041238036 0.0039251978 0.062584385 -0.06765046 -0.1522469 -2.173682e-05
-0.028940795 -0.013916098 0.07542031 0.009005586 0.0524274 -0.027671989 -0.034255695 0.21805806
0.006891115 -0.0745856 -0.0136558255 -0.0696382 0.018490111 -1.2474738e-05 0.17913522 6.327478e-09
-0.11725145 0.042335894 -0.09282962 -0.012123189 -0.06940622 -0.0016270553 -0.21390083 -0.11809411
-0.010909958 -0.09379007 0.016815905 0.08196133 -0.04665424 0.0063875197 0.19479926 -0.00024465306
-0.0006106665 0.08353154 0.006550308 -0.03543633 0.1502258 -0.012667044 -0.047137722 6.7223226e-07
-0.00010716901 -0.08821956 -0.11474535 -0.099118814 -0.010628148 -0.0824853 -0.056626808 -0.046999574
0.10605519 0.0051036417 -0.00014690793 -0.1188839 0.03635127 -0.03809342 -0.03199885 -0.042848438
-9.815e-42 -9.888e-42 -0.05644797 -0.098049514 -0.044707876 -1.9021792e-08 0.04836736 -0.11182501
-0.050032593 0.09488264 0.04257738 0.026210906 -0.08049408 -0.028672602 -0.16243744 0.14840624
-0.10568056 0.005170231 0.07293334 -0.0063641537 0.11010484 -0.21406405 4.4686756e-05 -0.06521
0.08505597 0.008966371 -0.036146946 -0.1441319 -0.0011803214 -0.024400473 1.9623367e-06 -0.07943986
0.034109406 -0.025614236 0.12691681 -0.10625038 -0.050960425 -0.024903726 0.026505707 -0.012475967
-0.023020688 -0.058735307 -0.00410911 -0.051829625 -0.05843916 -0.11220318 -0.0039386554 -0.024268044
-0.055422757 -0.10834764 0.020077383 4.34514e-10 0.005175711 0.042727277 -0.00044922886 0.12623255

conv3.lin_rel.bias f4 [120]
00000000: c5f2 04bd a417 2bbd 803a 703c 4ca3 cfbd
00000010: 66ca 283d 840f 37bd aa3d 82bd 8085 98bc
00000020: 8e2e bbbd 57ba 223d 74d7 5d3d 0848 903d
00000030: b6a8 ca3c c9ad a1bd 4305 93bc 1c4f 62bb
00000040: c054 4d3d 2bfe 0f3d 75b8 da3a 7ba3 4b3d
00000050: d2bf c43d a63d 273d c3c8 efbc 50d9 0eba
00000060: 58bb a33d e85a bb3c 9f42 193c ad19 3bbd
00000070: da20 f93b 3c11 763d e029 333d 1d52 7bbd
00000080: e9a2 80bd 1d33 433d db1e 71bd 2657 bc3c
00000090: 3e38 8ebd e20e bb3c b0f6 403d 70d6 b63c
000000a0: 2704 cb3c 6e23 843d a3a0 373d a14d f8bc
000000b0: c45d 003d 40ab ae3d 07e3 74bd a39d c9bd
000000c0: 072f 4fbd ee9d 29bd 66aa 9b3d 7e04 3b3d
000000d0: 9641 743d a8f5 e73c 7668 69bd dad3 733d
000000e0: ef15 13bd f1bd 5cbc cf46 9fbd 1b32 033c
000000f0: b0c4 a4bd cb8f 423c 003d 09bc d554 853d
00000100: 24f4 00bd 7492 97bd 1562 5b3d 8cbd 50bd
00000110: 2067 ea3b 47a1 26bd 97dc 30bd 085c 01bd
00000120: 8550 133d 5b41 8dbd d4da c6bd 6787 ddbc
00000130: 4a07 b13d 9e7d 8cbd 48d5 3bbc d3f4 0b3d
00000140: 826c 2b3d b8cc a3bc 1e28 8239 27ea 9a3d
00000150: 47ec 1fbd 46ee a63d 2153 83bd 9da4 ba3c
00000160: 049e 2bbd 55bb 8f3b c27c 50bc 6194 ccbd
00000170: a165 86bd 87b2 8d3d a30f 7c3d 07be 3e3d
00000180: 589e e93c e82d f23c 50c8 a93c d438 893d
00000190: 22e1 5b3d 4703 14bd 2aa6 b73d 6656 8a3d
000001a0: d456 52bd cd16 873c d290 7e3c f9c0 773d
000001b0: ffab 3c3d 51a9 aabd b1e9 c5bb e562 d8bc
000001c0: b56c a23d 9bc4 29bd b893 ba3d e386 5bbc
000001d0: 4d92 9a3d d767 6d3d 8513 933d e293 f63c
-0.032458086 -0.041770592 0.014662385 -0.10138568 0.041208647 -0.04469253 -0.06359418 -0.018618345
-0.09139739 0.03972849 0.05416055 0.07044989 0.02473865 -0.07894475 -0.017946845 -0.0034532016
0.050129652 0.035154503 0.0016687053 0.049716454 0.09606899 0.040830277 -0.029270535 -0.0005449252
0.07994717 0.022870496 0.009354263 -0.045678783 0.007602793 0.06007503 0.043741107 -0.061357606
-0.06281073 0.047656167 -0.058867317 0.022990774 -0.06944321 0.022834245 0.04711026 0.022319049
0.024782253 0.0645207 0.04483093 -0.030310454 0.031339422 0.08528757 -0.059786823 -0.0984452
-0.05058196 -0.04141038 0.0760086 0.04565858 0.05963286 0.02831538 -0.056984387 0.05952821
-0.03590959 -0.01347302 -0.077771775 0.008007552 -0.08045328 0.011875103 -0.00837636 0.06510321
-0.03148283 -0.074009806 0.053560335 -0.050962016 0.0071534067 -0.04068115 -0.04317912 -0.03158191
0.03596546 -0.06897231 -0.09709707 -0.027042104 0.086439684 -0.06859897 -0.011464424 0.03416903
0.041851528 -0.019995078 0.00024825422 0.07564192 -0.03904369 0.08150916 -0.0641234 0.022783572
-0.041898742 0.0043863454 -0.012725057 -0.099892385 -0.06562353 0.06918817 0.06153835 0.046567943
0.028517887 0.029562905 0.0207254 0.06700292 0.0536815 -0.036135938 0.0896724 0.067547604
-0.051352337 0.016490364 0.015537458 0.060486767 0.046062466 -0.08333076 -0.006039821 -0.026414344
0.079308905 -0.041447263 0.09110206 -0.013398859 0.07547436 0.057960358 0.071814574 0.030099813

conv3.lin_root.weight f4 [120, 120]
00000000: 5843 4d3b 3066 fcbc f0bf b23d 5f56 fbbc
00000010: a389 8dbd b447 913d 1cb7 a43d f8d2 d23c
00000020: 62ff e23d 206b d73b cae9 903d 27d3 862b
00000030: 0143 60bd 73df d73d 6997 4d39 67f6 12be
00000040: 8c13 e7bb ff9d 46bd 3fe9 53bd 6339 f6ba
00000050: 872e 88bd ea3e 373d 5496 f13d af82 723a
00000060: 8c13 e03d 8b95 c63d aba1 30bd c848 58bc
00000070: 8d4b e63d 2b1d 0fbc f580 753d 5037 1abe
00000080: 3cc9 3dbd 4d49 df3d cf11 ddbd c464 14bd
00000090: e69f b6bc bfff 2137 b850 0dbe 8b34 c01b
000000a0: 3e7e a7bc 716b e43d f429 b03d 69c7 49bd
000000b0: d080 71bc 2413 a73a 4df8 223e 8311 ad3d
000000c0: 8da0 3b3d 72da dc3d d5c9 e33d e675 5fbd
000000d0: 83a6 a1bb 6f7b 363c a91e 01be 8db1 69ba
000000e0: 94de 9b3c 08cf c4bd 52a4 73bd c974 443d
000000f0: d333 a33b f375 cc3d a7e2 c73d 469d 2db6
00000100: 454e 1238 76a5 50bd 1f82 c33d 65de 76bd
00000110: d6ec 033d 11a9 ac3d c714 5c3d 98b3 b33d
00000120: dcfd 83bd 4d7f 10bd c9c4 0837 4fc5 72bc
00000130: 3dc9 cabc 7e28 39bc 014d 8a3d f4fa 8fbd
00000140: ae1b 0000 771b 0000 c029 38bb ac26 a73d
00000150: a62b 8abd 9570 2a14 b7de dfbc 6f78 bc3d
00000160: 0a6c b4bc abf9 2bbe 982e f23b 23f6 8bbc
00000170: 6da9 a63d 928b bf3d 1e22 f53d 5011 c5bd
00000180: 0efd f53d 7ce6 b33d f61a bfbc ae18 9c3d
00000190: b6ba ac3a e434 bf3d a646 6cba 0dc2 813d
000001a0: d33b 8cbd d594 9c3d 15f3 d2bc 986b ee3c
000001b0: 5534 3d3a 9af6 133d 9b31 0bba f8a5 13bd
000001c0: 46ea 013e 2519 acbd 9126 76bc 15e0 f03b
000001d0: 823f b83d 11a4 dc3c 4c38 3f3c c340 34bd
000001e0: 44af 93ba d549 86ba 466b 823d 4cc3 c3bb
000001f0: cbb6 86bd 58d0 babc 26a0 32ba a0c7 6dbd
00000200: 3bb2 f43c 674c 153d 742c 1a3c 7617 bc31
00000210: 08fe ddbd 510d c83b 25ba 1935 af4c 133e
00000220: 8965 83bd caac 1d3e ab88 20bd 3f94 4e3a
00000230: 5b83 823d 20d7 803c fd69 8bbd 0726 4cb2
00000240: f54f 0bbe 0eff 31bd d88c d3bc 4884 d53c
00000250: c9b2 cc3c 9872 aabd bd2d 25be ccf8 e53d
00000260: c09a ac3c 7565 96bd dcf2 87bc a05a b4bd
00000270: 2522 73bd 0e88 c6b6 bc5f 183e 4a46 c925
00000280: 0b1f f9bd 1a94 c1bd 798f 93bd 0d19 a0bc
00000290: 841c 9bbc a0da 9cba 3490 12be 4732 813d
000002a0: 0f58 b8bd a16a 643c c0f5 363d 864f 9a3d
000002b0: 093f 433d 317a 1ebd 1883 243e 72b1 8bb9
000002c0: 9241 c4bd ae7b 373d 9725 30bd bc85 3f3d
000002d0: 50e7 293d c587 b1bd 9c02 8c3b e64b 992e
000002e0: dfd0 6fb9 a953 bcbd ed80 ebbd 97a5 e53c
000002f0: 910e 453d 6d40 2cbd e16a c4bc 1da7 c1bd
00000300: bcd7 353c 2b3a 183b 56fc d0b8 eb81 83bd
00000310: c5e6 62bd 32f8 8fbd cd2e 393d fcb0 bd3c
00000320: 7a1b 0000 711b 0000 11de f4bc 497f 563d
00000330: ad6f 1bbc 9a25 28a7 b8c9 ae3c fbc9 3fbb
00000340: ac3b 833c 9128 a73d 0b31 9bbc 3ef7 bd3c
00000350: 9e13 8a3c b225 76bd 1bc1 a5bd 0f46 7a3c
00000360: 709c 93bd f676 cabd dc3d 51bc f94a e7bd
00000370: dcea 77bd 02eb 25be 9991 f134 825d 05bd
00000380: 281c 943d b035 90bc f1ae 573d 8f9c 06bc
00000390: da54 a9b9 d962 7cbd 25ea 4033 8218 8b3c
000003a0: 8a50 14bc 6e05 42bd 2864 a43d 54ad 123d
000003b0: 47c7 5abd 098e 503d c316 663c d459 ddbc
000003c0: 1110 cbbb e29b c83c 8c3b 4539 fba3 94bc
000003d0: a293 a7bd 6f15 223d fbee 90bb f2ba e03c
000003e0: 7dae 46bd 2228 b2bd 7979 88bd 1b91 7722
000003f0: c106 efbd 3699 5a3d 54f9 5bb8 202a f83d
0.0031320658 -0.030810446 0.087280154 -0.030680833 -0.06911018 0.070937544 0.08042738 0.025735363
0.11083867 0.0065740496 0.07075842 9.579879e-13 -0.0547514 0.105406664 0.00019606728 -0.14351808
-0.0070518907 -0.04849052 -0.051736113 -0.0018785413 -0.066494994 0.044737734 0.11796251 0.0009251041
0.10941228 0.09696492 -0.04312293 -0.013200946 0.11244879 -0.0087349815 0.059937436 -0.15060163
-0.04633449 0.10902653 -0.10794412 -0.03622891 -0.022293042 9.655893e-06 -0.13800323 3.179769e-22
-0.02044594 0.11153305 0.08601752 -0.049262438 -0.014740184 0.0012746793 0.15915032 0.08450606
0.04580741 0.10783853 0.11122481 -0.054555796 -0.00493318 0.011137827 -0.12609352 -0.0008914702
0.019027032 -0.096098006 -0.05948288 0.047962938 0.004980543 0.099834345 0.097600274 -2.5870554e-06
3.4882007e-05 -0.050939046 0.09546303 -0.060270686 0.032208286 0.08430684 0.053730752 0.08774489
-0.06444904 -0.035277653 8.152049e-06 -0.01481755 -0.024754161 -0.011301158 0.067529686 -0.070302874
9.93e-42 9.853e-42 -0.0028101057 0.08161673 -0.067466065 8.6050095e-27 -0.027327878 0.092026584
-0.022024173 -0.1679446 0.0073908083 -0.01708514 0.08137784 0.09352793 0.11969398 -0.09622443
0.12011157 0.08784196 -0.023328286 0.07621895 0.0013178203 0.0933626 -0.0009013213 0.063358404
-0.06847348 0.07645575 -0.025750676 0.02910404 0.0007217576 0.03612385 -0.0005309821 -0.036046952
0.12687024 -0.084032334 -0.015023843 0.0073509314 0.08996488 0.026933702 0.011671137 -0.044007074
-0.0011267443 -0.0010245392 0.06368117 -0.005974209 -0.06577834 -0.022804424 -0.0006814025 -0.058051705
0.029870143 0.036449816 0.0094100125 5.4741873e-09 -0.10839468 0.006105103 5.726782e-07 0.14384721
-0.06415851 0.15397945 -0.039192837 0.0007880367 0.0637271 0.01572758 -0.06807325 -1.1883009e-08
-0.1360472 -0.04345613 -0.025823995 0.026064053 0.024987595 -0.08322638 -0.16130729 0.11229095
0.021069884 -0.0734357 -0.016595297 -0.08806348 -0.059358735 -5.9166987e-06 0.1488027 3.4915572e-16
-0.12164124 -0.09452076 -0.072050996 -0.019543195 -0.018934496 -0.0011967011 -0.14312822 0.06308418
-0.09001171 0.013941438 0.04466796 0.07534699 0.047667537 -0.03869075 0.16065633 -0.00026644353
-0.09582819 0.044795685 -0.0430046 0.0467584 0.041480362 -0.08668474 0.004272772 6.971117e-11
-0.00022870627 -0.091956444 -0.114992 0.028033061 0.048109595 -0.04205363 -0.023976745 -0.094557025
0.011098798 0.002322803 -9.965214e-05 -0.06421264 -0.05539586 -0.070297614 0.04521065 0.023155682
9.857e-42 9.844e-42 -0.029891046 0.052367482 -0.009487075 -2.3335067e-15 0.021336421 -0.0029264677
0.016019665 0.08162034 -0.018944284 0.023189183 0.016855057 -0.060094543 -0.080934726 0.015275492
-0.072075725 -0.09885971 -0.012771096 -0.11293597 -0.060526714 -0.1620293 4.4995684e-07 -0.03255988
0.07231933 -0.017603725 0.05265707 -0.008216037 -0.0003229741 -0.061617706 4.4916437e-08 0.01697946
-0.009052405 -0.04736846 0.08026916 0.03580983 -0.053412702 0.050916705 0.014043513 -0.027020372
-0.0061969836 0.024488393 0.00018809567 -0.018144598 -0.081824556 0.039571222 -0.00442302 0.027432892
-0.04850625 -0.08699061 -0.06663794 3.355156e-18 -0.1167121 0.05336877 -5.2445874e-05 0.1211741

lin.weight f4 [1, 120]
00000000: 31d3 f93d 03fe bdbd ab73 dbbd 3380 a1bd
00000010: 133b 93bd 0e54 113e 5999 983d 5194 a1bd
00000020: 1604 5abd b6c9 c23d f38a babd 7cf6 ba3d
00000030: 6908 043e 0cfe c63d 2a1e ca3d 67da 143e
00000040: 2dc9 143e b13c a8bd 5796 edbd dd26 a4bd
00000050: addb 9b3d ab1e dfbd 501b bd3d 0141 073e
00000060: eac5 bb3d a7a6 aebd 3b19 a33d 7be3 8c3d
00000070: 4c97 c9bd d445 f13d d93a 9dbd 2e13 f3bd
00000080: cf79 043e 9ade 99bd f953 a33d b9a5 e9bd
00000090: 2b92 ef3d 94a8 d93d 5705 023e c877 d43d
000000a0: 4280 d13d f5e7 f0bd 596c a13d e126 18be
000000b0: 53cb 033e c4c4 1bbe ede9 8dbd ea85 fcbd
000000c0: 376c 90bd c60f a0bd 9108 933d 0809 cd3d
000000d0: abe3 f9bd c344 e6bd fbdc 013e ca56 e83d
000000e0: 9100 10be 5f76 da3d 02b8 c83d 0c48 b63d
000000f0: 587b c6bd 6973 f53d f826 8ebd ca26 b83d
00000100: 322d eabd d1d3 d3bd 54d3 bbbd 3e35 1bbe
00000110: c081 1fbe 2922 b4bd 630f b6bd 9351 d63d
00000120: 1bfa 8abd 7ece 1c3e 3274 a2bd 3973 e8bd
00000130: a135 eb3d b2c2 febd 05ef 65bd 2848 fb3d
00000140: f9b0 a73d 91ad ebbd 20e3 1ebe fbd1 d2bd
00000150: 5e0d 94bd 89cc 10be 54d9 53bd b5a5 8a3d
00000160: e53a 1c3e 3e3a b43d ca85 dcbd 074f a6bd
00000170: d099 f4bd 5ae3 b0bd ea98 ce3d e03e 19be
00000180: 6d56 993d f5fa 963d 31c4 d6bd cc44 86bd
00000190: d590 c63d 0ceb f63d 520e eb3d d46c 943d
000001a0: 4bb2 003e 027a b9bd d0be 10be 675d c3bd
000001b0: 698e ed3d f70d 87bd fa55 c2bd 2895 83bd
000001c0: 1ca3 c63d ba14 f23d e073 213e b738 cd3d
000001d0: 8b9d d83d 3ae2 11be fc77 4f3d 3645 003e
0.12198485 -0.092769645 -0.10715421 -0.0788578 -0.07189002 0.1419222 0.07451124 -0.07889617
-0.053226553 0.095111296 -0.09108534 0.091290444 0.12893833 0.09716424 0.098690346 0.14536439
0.14529867 -0.08214701 -0.11600941 -0.08015225 0.07610259 -0.10894521 0.09233725 0.13208391
0.091686085 -0.0852788 0.07963797 0.06879326 -0.09843311 0.11780897 -0.0767724 -0.118688926
0.12937091 -0.07513161 0.07975001 -0.11408562 0.11697801 0.10627857 0.1269735 0.10374409
0.10229541 -0.11762992 0.07881994 -0.14858581 0.12870531 -0.15211779 -0.069293834 -0.123302296
-0.0705189 -0.078155085 0.07179368 0.10011488 -0.12201627 -0.11243584 0.12681954 0.11344679
-0.14062716 0.10667109 0.09800722 0.089004606 -0.09691495 0.11984903 -0.069410264 0.089917734
-0.114344016 -0.10343135 -0.09171167 -0.15157029 -0.1557684 -0.08795578 -0.088896535 0.10464778
-0.06785985 0.15313146 -0.07932319 -0.11350102 0.11484838 -0.12439479 -0.05613615 0.12269622
0.08188052 -0.115077145 -0.15516329 -0.10293957 -0.07229112 -0.14140524 -0.051720932 0.06769887
0.15256841 0.08800171 -0.10767706 -0.08120542 -0.119434 -0.08637114 0.1008776 -0.14965391
0.074871875 0.07372085 -0.10486639 -0.06556091 0.09695593 0.120565504 0.11477341 0.0724732
0.12568013 -0.09056474 -0.14135289 -0.095392995 0.11599428 -0.065944605 -0.09489055 -0.06424934
0.096990794 0.118203595 0.15766859 0.10020583 0.10576924 -0.14246455 0.050651535 0.12526402
