pretrained_GNN_models/GNN_272trainvalid_fold1_1804_16.99289_3.05668.pt (torch, 250927 bytes, 10 tensors)

conv1.lin_rel.weight f4 [120, 14]
000000 e1 eb d6 bd 28 a0 45 bd 7e 85 9e be c6 33 40 3d
       -0.10494209 -0.04824844 -0.3096122 0.046924375
000010 2b 2f 52 3e cf 84 13 3e 9b 87 26 be 77 6a 66 be
       0.20525806 0.14406131 -0.16262667 -0.2250155
000020 90 6b 28 be 8a 1b 00 80 f1 31 05 3e 60 51 67 3e
       -0.16447282 -9.879e-42 0.13007332 0.22589636
000030 d7 3b 13 3e 19 ad e6 3c 0a 83 37 3e e0 23 9d 3e
       0.14378296 0.028158711 0.17921081 0.30691433
000040 b3 08 2d 3e f4 6e d9 be 2c ad bc bd d3 cf a1 bd
       0.1689785 -0.42467463 -0.092127174 -0.079009674
000050 62 4a 65 3e 4a a4 8e be f4 d5 28 be 73 1b 00 80
       0.22391656 -0.27859718 -0.16487867 -9.847e-42
000060 b8 b0 a5 bc 21 1a d1 bd e3 70 07 bd 11 5c de 3c
       -0.020225868 -0.10210062 -0.03306664 0.02714351
000070 31 2d 6e be 7a d3 b4 bd 35 a7 64 be da 80 5e bc
       -0.23259427 -0.088293985 -0.2232941 -0.013580525
000080 70 1b 00 80 70 1b 00 00 24 25 94 be 5b 1b 00 80
       -9.843e-42 9.843e-42 -0.28934586 -9.813e-42
000090 d3 68 3d 3d 75 1b 00 80 e5 ec d7 3d 9a 14 d8 3d
       0.046242546 -9.85e-42 0.10543231 0.105508044
0000a0 a8 31 90 bd e7 b9 60 3c 6f a8 6a 3d e8 24 80 3e
       -0.07040721 0.013716198 0.057289537 0.25028157
0000b0 de 5c bb 3e 9e 48 86 3d e8 44 99 bd 94 0d 09 3e
       0.3659429 0.065568194 -0.07483846 0.13384086
0000c0 07 79 55 3d 38 1d 61 3e d0 f8 66 3d 8f 1b 00 80
       0.052117374 0.21983802 0.05638963 -9.886e-42
0000d0 ca 77 27 3e 16 0b 4a be 2a f8 86 3e 4c 43 30 3e
       0.1635429 -0.19730791 0.2636121 0.17213172
0000e0 f0 fa 83 3d 06 a3 0f 3e f4 be dd 3a 35 3e 59 ba
       0.06444347 0.14027032 0.001691787 -0.00082871626
0000f0 f3 ff 7f 3c 8e 6d 9f be 54 f4 4a 3e 7e cb 5f 3e
       0.015624988 -0.3113827 0.19819766 0.2185497
000100 87 c5 83 3c 59 1b 00 00 04 4b 01 bc fd b4 fe 3d
       0.0160854 9.81e-42 -0.00789142 0.124368645
000110 b7 15 87 3d 06 7d 08 3b bd b7 7d 3d a9 e6 7e bd
       0.06595939 0.0020826473 0.061942805 -0.062231693
000120 2f 12 4d be eb e9 87 3e 84 96 ce bc ca 39 19 3e
       -0.20026468 0.26545653 -0.025218256 0.14963451
000130 8e 2b 84 3e b6 7b 91 3d 58 e6 1d 3e 66 1b 00 00
       0.2581448 0.07103674 0.154199 9.829e-42
000140 1b d2 44 3e ea 63 4f be a6 53 93 3e 5d 8f 34 3e
       0.19220774 -0.20252958 0.28774756 0.17632814
000150 a7 7a 3f be e7 c8 55 3e 42 8b a1 3d 41 34 32 be
       -0.18699132 0.2087742 0.078878894 -0.17402746
000160 58 b7 e1 bd ba 55 1d be e4 fa 89 be c7 07 99 3e
       -0.11021298 -0.15364733 -0.26949227 0.29888746
000170 af 9d 3f 3e 8f 1b 00 00 dc 83 ac bd d3 8c 2e 3d
       0.18712495 9.886e-42 -0.08423588 0.04261477
000180 3c 9c 1e 3e 8e 64 f4 bd 73 8a 84 3e 4b 98 08 3d
       0.15489286 -0.11933242 0.25886878 0.033348363
000190 80 eb b3 bd 6b 0b 20 3e 45 c2 bf 3d 60 3f 14 be
       -0.087851524 0.15629356 0.09363226 -0.144773
0001a0 c4 5b 39 3e 0b aa 05 bd 30 41 96 3e 75 1b 00 80
       0.18101412 -0.03263287 0.2934661 -9.85e-42
0001b0 71 1a a7 3d 47 95 7e 3e 5b 91 ae bd 0b d5 4f 3e
       0.0815934 0.24861632 -0.08523818 0.20296113
0001c0 fd 5e 39 be 27 d1 08 be 33 dd 48 3e 22 6e 2e be
       -0.18102641 -0.13361035 0.19615631 -0.170342
0001d0 d4 2f c5 bc 99 1b 00 80 dc 68 71 3e 8a 1b 00 80
       -0.024070658 -9.9e-42 0.23575157 -9.879e-42
0001e0 7e 1b 00 00 68 1b 00 80 25 af b9 bd df 61 9a 3e
       9.862e-42 -9.832e-42 -0.09066609 0.30152795
0001f0 84 45 71 3d c2 0a 43 3e 47 cb 82 3e 12 07 f5 bc
       0.058904186 0.19047073 0.25545713 -0.029910598
000200 2c 59 a1 bd c0 80 d0 bd e2 ef 1e bd 1d e1 88 bd
       -0.07878336 -0.10180807 -0.03880299 -0.06683562
000210 61 04 e3 bc e6 9b 8b bd 99 51 d1 3d 7f 1b 00 00
       -0.027712049 -0.06816845 0.10220642 9.864e-42
000220 3b cd ca 3d 04 a7 53 be 73 58 10 3d 63 01 5f 3e
       0.09902426 -0.2066918 0.0352406 0.21777873
000230 8a f4 7e 3e c4 c3 81 3e bc a9 fa bd f5 f2 7f 3e
       0.24897972 0.2534467 -0.122394055 0.24995025
000240 55 a3 b4 3c 53 16 4d be 27 8d 76 3d b7 93 85 3e
       0.022050539 -0.20028047 0.060193207 0.2608926
000250 80 35 c7 3d 59 1b 00 80 ab 17 42 3d 20 a6 5c be
       0.09727001 -9.81e-42 0.047385853 -0.21547747
000260 e0 67 e8 bd c4 11 3d 3e 95 e6 a3 3c 62 1b 00 80
       -0.113479376 0.18463808 0.020007411 -9.823e-42
000270 61 1b 00 80 bb 22 00 00 54 9d 2e 3e 58 1b 00 00
       -9.822e-42 1.2459e-41 0.17052203 9.809e-42
000280 10 5d 56 3d 5b 1b 00 80 ad 1b 00 00 6d 1b 00 80
       0.052334845 -9.813e-42 9.928e-42 -9.839e-42
000290 ed 00 3e be 15 65 d0 bd e0 e3 10 bd d5 30 ea bd
       -0.1855504 -0.1017553 -0.03537357 -0.11435095
0002a0 18 f6 a1 bd b2 f3 93 3c 9e d5 86 3e b2 3b 76 3e
       -0.07908267 0.018060539 0.26334852 0.2404621
0002b0 7f 1b 00 80 65 1b 00 00 59 1b 00 00 79 1b 00 00
       -9.864e-42 9.827e-42 9.81e-42 9.855e-42
0002c0 5d 1b 00 80 75 1b 00 00 1d c9 34 3e 78 4b 2c be
       -9.816e-42 9.85e-42 0.17654844 -0.16825664
0002d0 ea 2a e6 bc ab 89 61 3e bb 11 15 be 56 a8 c6 bb
       -0.028096635 0.22025172 -0.14557545 -0.0060625477
0002e0 b1 56 1b be d2 6d 8d 3c 64 1b 00 80 aa d2 ed 3d
       -0.15169789 0.01726428 -9.826e-42 0.116124466
0002f0 f9 47 c2 3d 6b 1b 00 80 aa d9 8f 3e 98 1b 00 00
       0.09486384 -9.836e-42 0.28095752 9.899e-42
000300 b3 57 89 bd 28 83 1e 3e ee 90 7f bc 24 44 82 bd
       -0.067061804 0.1547972 -0.015598519 -0.06360653
000310 d3 07 16 3d 9b 1b 00 00 59 b0 fe bb 98 1b 00 00
       0.036628556 9.903e-42 -0.007772487 9.899e-42
000320 7d 1b 00 00 92 df 57 3d a3 ac b9 3d 8e 1b 00 00
       9.861e-42 0.052703448 0.09066131 9.885e-42
000330 91 1b 00 80 89 1b 00 00 24 ea 5b 3d 7e a1 2d 3e
       -9.889e-42 9.878e-42 0.05369009 0.16956136
000340 03 92 75 be f8 bf 8f 3d 84 66 18 3e 86 b1 ba bd
       -0.2398148 0.07019037 0.14882857 -0.09115891
000350 3f 53 84 be e7 ce 25 be d9 e1 80 3d 4b 15 7b bd
       -0.25844762 -0.16192208 0.06293077 -0.061299603
000360 47 78 96 bd 26 0c 8e 3b 75 1c 81 3e 6d 1b 00 80
       -0.0734716 0.0043349443 0.25217023 -9.839e-42
000370 fa 18 00 3e 1c 05 18 3e f7 74 50 be c1 a4 43 3e
       0.12509528 0.14845699 -0.20357119 0.19105817
000380 a8 31 e1 bd 13 95 ab 3d 94 4c ee 3d d7 57 89 be
       -0.10995799 0.08378043 0.116357 -0.2682483
000390 9e 98 63 3e 63 31 23 be 91 74 b8 3b 66 f2 8b bb
       0.22226188 -0.15936808 0.00562913 -0.0042708395
0003a0 17 47 89 3e 62 1b 00 00 75 b7 38 3e 66 73 15 be
       0.2681205 9.823e-42 0.18038733 -0.14594802
0003b0 57 59 51 be cc 93 04 3e 09 c1 13 3e 7f 80 7c bd
       -0.20444237 0.12947005 0.14429106 -0.06164598
0003c0 b1 ea 5f bd d4 95 7e be fc bf cd 3c e2 2b 94 be
       -0.05466718 -0.24861842 0.02511596 -0.2893973
0003d0 ad a0 1d bd ea f5 39 be 1f 8d 8e 3e 65 1b 00 00
       -0.03848331 -0.18160215 0.27842042 9.827e-42
0003e0 0b bb 91 bd 72 29 43 be 91 aa 13 be 33 1b 5c 3d
       -0.07115754 -0.19058779 -0.14420535 0.053736877
0003f0 48 95 bf bd eb 77 22 3e 0b 7e ac be 3d fe 40 3d
       -0.09354645 0.15866058 -0.33689913 0.04711746

conv1.lin_rel.bias f4 [120]
000000 07 f6 83 3e 61 78 88 bc 17 c3 38 3e b1 71 89 bd
       0.2577364 -0.016658964 0.18043171 -0.06711138
000010 fd 66 79 3e 10 d3 82 be 0b c8 49 3e 24 7b 84 3e
       0.24355693 -0.25551653 0.19705217 0.258752
000020 f3 bb 9b bc f9 23 fc bc 51 a6 9e 3d c0 db 85 bd
       -0.01901052 -0.030778872 0.07746566 -0.065360546
000030 a5 48 69 be 5c d4 89 3e d0 15 a4 be aa e4 82 3d
       -0.22781618 0.2691983 -0.32047892 0.063912705
000040 51 1a 49 3e b0 c5 73 3e 26 c5 04 be ab 24 34 3e
       0.19638945 0.2380588 -0.12965831 0.17592113
000050 8c c3 92 3c c6 aa 30 3e 86 35 1b 3e f2 a2 80 3e
       0.01791551 0.17252645 0.15157136 0.25124317
000060 39 2b 30 be 76 25 00 be ca 7b fb 3d 82 0b 44 bd
       -0.17203988 -0.1251429 0.1227947 -0.047862537
000070 ac b2 d1 b9 f8 a3 f8 bb e6 0e 4d bd f3 89 4d bb
       -0.00039996707 -0.007587906 -0.050063036 -0.0031362742
000080 b9 03 88 3e c0 80 92 3e 77 6e 46 bd e9 5d 70 be
       0.2656534 0.28613853 -0.04844519 -0.23473324
000090 62 6c 1c bd 5a 36 15 3d 12 b5 aa bd f6 6a f9 3d
       -0.0381893 0.036428787 -0.08335318 0.12178604
0000a0 a0 ad 11 3a d4 50 c7 bc c7 19 13 3d 14 95 bc bb
       0.0005557183 -0.024330534 0.035913255 -0.005755076
0000b0 0b 93 94 3c cd 14 42 3e c0 a1 c8 bd 96 f6 5c 3e
       0.018136522 0.18953247 -0.09796476 0.2157844
0000c0 e4 61 81 3e a6 31 ac b9 24 05 c3 ba 92 ce 58 3b
       0.25269997 -0.00032843387 -0.0014878851 0.003308211
0000d0 d8 84 91 3e b4 9f ed bd ed a4 b1 3c 61 ab 45 be
       0.28421664 -0.116027266 0.021685088 -0.19303657
0000e0 d2 95 ee b9 dc ef 5f bd 06 18 87 3e 50 5a 88 bd
       -0.00045506522 -0.054672107 0.26385516 -0.06657851
0000f0 be 36 84 3d 5e bf f3 3d 39 90 30 be 6a 96 a3 be
       0.06455754 0.11901735 -0.17242517 -0.31950694
000100 11 25 71 be 4e 5b af 3b a2 1d 63 be 42 dc 86 be
       -0.23549296 0.0053514605 -0.22179273 -0.26339918
000110 5d 25 3d 3d 63 f2 4f 3e da ff 4a b9 6e f8 5d 3e
       0.04617821 0.20307307 -0.00019359533 0.216768
000120 e1 bb 20 be 80 5c 87 3e 35 58 20 b9 35 d3 c2 bd
       -0.1569667 0.2643776 -0.00015291649 -0.09512941
000130 e0 c6 d4 bd f4 8d 35 be e0 74 67 3e 42 5c 91 3d
       -0.10389495 -0.17729932 0.22603178 0.07097675
000140 9d e9 6c 3e 04 5d 9e bd 40 2e 97 bd 47 5b 11 be
       0.23135991 -0.07732585 -0.07381868 -0.14194976
000150 1a bb ca bd 94 9e 61 be 6a 12 28 3e 9a 46 8b 3e
       -0.09898968 -0.22033149 0.16413274 0.27202302
000160 38 8f dd 3d 85 35 b6 bd f9 c2 1a be 23 6c 4a bd
       0.108183324 -0.08896927 -0.15113439 -0.049419533
000170 6a 8a 1f 3c 49 ae 4b 3e 59 70 21 bd bc 8c 14 3d
       0.00973759 0.19890703 -0.039413784 0.036267027
000180 2e 27 83 3e a3 04 eb bd 2d bd 61 3e 8f bb 2f be
       0.2561583 -0.11475494 0.22044821 -0.17161392
000190 f3 43 4e be f2 09 2d 3e 9c 73 ca bd 46 38 c2 bd
       -0.20143108 0.16898325 -0.09885332 -0.094833896
0001a0 22 e8 0d 3e 4c b5 4c be 80 da f0 3d 83 60 dc 3c
       0.13858083 -0.19991034 0.117604256 0.02690149
0001b0 21 cc 07 3e 91 08 57 be 8d 38 83 3d f7 40 12 be
       0.13261463 -0.20999362 0.064072706 -0.14282595
0001c0 72 94 1a be 7c 7d 30 3e b8 f9 ec bd ce 6d 55 3d
       -0.1509569 0.17235368 -0.115710676 0.05210667
0001d0 16 72 25 3e cd aa 28 be 55 71 51 3e d4 36 0b 3d
       0.16156802 -0.16471405 0.20453389 0.033987835

conv1.lin_root.weight f4 [120, 14]
000000 5b 9d e5 3d 1e 26 56 be 0b 03 82 bd c6 c3 f9 bd
       0.11211654 -0.20912978 -0.06348237 -0.12195544
000010 fa ea 23 be 08 08 ae ba 72 1b 00 00 41 b8 69 3e
       -0.16007605 -0.001327754 9.846e-42 0.22824194
000020 b6 6b 93 3e 98 1b 00 00 5b f8 38 be f0 6b da bd
       0.28793114 9.899e-42 -0.1806349 -0.10665119
000030 66 e9 21 3e e9 a3 07 be c6 d7 f4 bd 6d 39 19 be
       0.1581169 -0.1324612 -0.11955218 -0.14963312
000040 22 6c af bc 8e 5d 80 be bb 58 2e be 2b 2a 3d be
       -0.021413866 -0.25071377 -0.17026035 -0.18473117
000050 82 50 2f 39 ba f5 15 be b9 79 b1 3d 97 1b 00 00
       0.00016719292 -0.14644518 0.08665795 9.897e-42
000060 4d df 50 be 5b dc dd 3d f9 51 20 3e 84 50 31 3e
       -0.20397682 0.10833045 0.1565627 0.1731587
000070 d2 70 54 be c4 77 83 3e ea 22 3d 3e 84 c7 b4 3b
       -0.20746163 0.2567731 0.1847035 0.005516948
000080 c4 10 91 3e 92 1b 00 00 7a 1b 00 00 79 1b 00 00
       0.28333104 9.89e-42 9.857e-42 9.855e-42
000090 69 7f 0f be 6b 1b 00 80 52 8a cc 3d 7a ed 87 3e
       -0.14013447 -9.836e-42 0.0998732 0.26548368
0000a0 ae e2 87 bd 5b 38 65 3d fa 7f 0c be 93 d0 af 3e
       -0.066350326 0.055961948 -0.13720694 0.34338817
0000b0 21 d3 8b 3d f0 8f 59 be 07 df 43 3e 49 f0 0f be
       0.06827379 -0.21246314 0.19128047 -0.14056505
0000c0 a7 12 c8 3c 72 9f b2 bd 0a 06 f1 3d 69 1b 00 80
       0.024422957 -0.08721818 0.1176873 -9.833e-42
0000d0 63 7f 11 3e 60 ab 3d 3e 0e ad 43 3e 7d 74 9f 3d
       0.1420875 0.18522406 0.19108984 0.0778589
0000e0 bd 52 3e 3d 51 1e d7 bc d6 bf 86 3e 46 a9 fc bd
       0.046465624 -0.026259573 0.26318234 -0.12336974
0000f0 be 25 76 3e 71 06 67 bd 54 e4 fc 3d 34 39 22 3e
       0.24037835 -0.056402627 0.12348238 0.15842134
000100 09 d2 8c bd 6c 1b 00 00 c1 e1 6f 3d 14 53 e9 bc
       -0.068759985 9.837e-42 0.058564905 -0.028481998
000110 0d 42 87 bd b0 db b2 bc 6e 5a b7 3b 98 ec e6 3c
       -0.06604395 -0.02183327 0.005595497 0.028188989
000120 a1 70 ee bd 80 8d 17 3e 0e fb 27 bd 5e cb 60 3d
       -0.11642576 0.14800072 -0.04101091 0.054881446
000130 7f 1b 00 00 62 1b 00 80 92 1b 00 00 5a 1b 00 00
       9.864e-42 -9.823e-42 9.89e-42 9.812e-42
000140 e3 d0 a4 bc e3 c2 c0 bd 6b a2 cc bd f9 fd 48 be
       -0.020119136 -0.09412172 -0.09991916 -0.19628133
000150 2e 4f 79 bc 84 03 d3 3d e5 31 01 3e 7d 1b 00 00
       -0.015216632 0.10303405 0.1261669 9.861e-42
000160 a3 bc 89 3e 60 1b 00 80 39 6e 84 3d e1 7c 2b bd
       0.2690173 -9.82e-42 0.06466336 -0.04186714
000170 b5 1b e5 3c 9d 1b 00 00 f3 8e 9e be 7f ab eb bd
       0.027967313 9.906e-42 -0.30968437 -0.1150732
000180 a9 e7 d5 3d d1 95 64 3d f5 b2 81 be f3 11 c1 bd
       0.10444576 0.05580694 -0.25331846 -0.09427252
000190 a8 41 92 bc 86 e3 7d 3e ea 61 4d be 1e 11 41 3e
       -0.017853573 0.24793825 -0.20056883 0.18854186
0001a0 9d fb 5b bb b4 c2 1a be 33 24 80 bc 7f 1b 00 80
       -0.0033566721 -0.15113336 -0.015642261 -9.864e-42
0001b0 16 f9 11 3c 82 a8 11 be d8 43 f6 3d fe 54 78 be
       0.008909484 -0.14224437 0.12024659 -0.24251172
0001c0 06 7f 52 be b3 da ba bd 6f 86 94 be a5 b3 c2 bd
       -0.20556268 -0.09123745 -0.29008815 -0.09506921
0001d0 5c 07 0e bd 58 1b 00 80 9b 44 32 be 6f 1b 00 00
       -0.034674987 -9.809e-42 -0.17408983 9.841e-42
0001e0 59 78 96 3e 73 1b 00 00 7f a8 73 bd b5 46 6f be
       0.29388693 9.847e-42 -0.059486862 -0.23366816
0001f0 85 55 cb bd 09 b3 03 3d aa ce 5a 3d 12 27 1a 3e
       -0.09928421 0.032153163 0.053419746 0.15053967
000200 b5 d7 86 3e 23 e7 21 3d 71 fd 56 be 4a 55 be bd
       0.26336446 0.03952707 -0.20995118 -0.09293611
000210 7e 1b 00 80 66 db 33 be 73 84 1d be 81 1b 00 80
       -9.862e-42 -0.17564163 -0.15382557 -9.867e-42
000220 94 85 14 be ac e7 1e 3e e4 a0 eb bd d7 e6 7d be
       -0.14504081 0.15518063 -0.11505297 -0.2479509
000230 c0 9b 5d 3e 3b 69 e7 bd 4e e3 50 3e 55 86 16 3d
       0.21641445 -0.11299368 0.2039921 0.036749203
000240 62 51 44 be e9 51 01 bc f7 5e 83 3d 8f 35 33 be
       -0.1917167 -0.007893064 0.064145975 -0.175009
000250 42 59 1a be ab 1b 00 80 00 d7 2b 3d 04 50 2e 3e
       -0.15073112 -9.925e-42 0.041953087 0.17022711
000260 e9 6c 08 be 62 1f f4 3d ad c5 6a be 3a d5 12 bd
       -0.13322796 0.11920048 -0.2292697 -0.03584788
000270 1a a8 88 3e 74 1b 00 80 19 9a 8a bd 76 1b 00 80
       0.2669075 -9.848e-42 -0.06767673 -9.851e-42
000280 9d 1b 00 00 ed f1 99 3e 6f b5 81 bc 69 1b 00 80
       9.906e-42 0.30067387 -0.015833585 -9.833e-42
000290 6c 1b 00 80 75 1b 00 00 dd a4 91 3e a3 17 7f bd
       -9.837e-42 9.85e-42 0.28446093 -0.0622784
0002a0 d9 e7 04 be 0a 05 0a 3e ae 77 13 be 73 c9 21 be
       -0.12979068 0.13478485 -0.14401123 -0.15799503
0002b0 67 1b 00 00 6b 1b 00 80 b1 3e 3f 3e 64 1b 00 00
       9.83e-42 -9.836e-42 0.18676259 9.826e-42
0002c0 96 1b 00 00 96 1b 00 00 d5 8a 58 3d 1e e4 61 3e
       9.896e-42 9.896e-42 0.052866776 0.22059676
0002d0 f0 df 1f bd 5d f9 3e be ba 75 30 be a4 f0 02 3e
       -0.039031923 -0.18649812 -0.17232409 0.1278711
0002e0 e6 62 11 3e 1b 7d 54 3e 8a 51 da bc 61 1b 00 80
       0.14197883 0.20750849 -0.026650209 -9.822e-42
0002f0 90 1b 00 00 14 9e 13 be f1 66 06 bd 9e 1b 00 80
       9.888e-42 -0.14415771 -0.032813016 -9.907e-42
000300 c5 9c 7d 3e 6c ad 3b 3d a8 cc 60 3e 7b e1 89 3b
       0.24766834 0.045819685 0.2195307 0.0042077876
000310 f9 27 e5 3d 8b 1b 00 00 a4 8d 8b 3d 63 1b 00 80
       0.11189265 9.88e-42 0.06814125 -9.825e-42
000320 95 1b 00 80 8e 1b 00 00 78 1b 00 00 78 1b 00 00
       -9.895e-42 9.885e-42 9.854e-42 9.854e-42
000330 87 1b 00 80 8c 1b 00 80 cb e6 4e be 9c 18 64 be
       -9.875e-42 -9.882e-42 -0.20205228 -0.22275013
000340 3c 2e 2a 3e 73 08 09 be 2b cd bd 3d 44 5e 82 3e
       0.166192 -0.1338213 0.09267648 0.25462544
000350 c1 5e 41 3e aa 24 02 be cc 87 63 be 93 0e 91 bd
       0.18883802 -0.12709299 -0.22219771 -0.07082858
000360 58 1b 00 80 e9 4b 4e 3e 25 09 48 3e 74 1b 00 80
       -9.809e-42 0.20146145 0.19534738 -9.848e-42
000370 a9 36 4a 3e 15 ae 92 bc d5 83 76 3d 49 b6 27 bd
       0.19747414 -0.017905274 0.06018432 -0.040945325
000380 0a d7 3f 3e 7f 05 9d ba 04 20 a1 3d fc 4d c4 3d
       0.18734375 -0.0011979787 0.078674346 0.09585187
000390 c1 61 80 3e b3 6b 11 37 4d 9c 59 bd e3 26 46 be
       0.2507458 8.667749e-06 -0.053127576 -0.19350772
0003a0 c8 8e 81 be 80 1b 00 00 22 b1 e2 3d 15 b9 02 3e
       -0.25304246 9.865e-42 0.11068942 0.12765916
0003b0 6c da 63 3e 5b 6b 7a bb 22 11 d5 3d a6 32 68 3e
       0.2225129 -0.0038210962 0.104036584 0.22675571
0003c0 18 93 be 3d 5c 6d f1 3d 62 e2 18 bc c6 96 29 be
       0.093054 0.11788437 -0.009331318 -0.16561422
0003d0 56 09 d3 bb 42 b0 0f 3e 20 ee e7 bd 99 1b 00 80
       -0.006440322 0.14032081 -0.113247156 -9.9e-42
0003e0 bb ab 36 3e b4 eb 67 3e e6 03 8d bd 0f ad be 3d
       0.17838947 0.22648507 -0.06885509 0.09310352
0003f0 f9 55 a0 bc 64 1b 00 80 81 1b 00 00 83 1b 00 80
       -0.019572245 -9.826e-42 9.867e-42 -9.87e-42

conv2.lin_rel.weight f4 [120, 120]
000000 3d 49 9b 3d 15 4a 9a bd 21 90 6b bc e1 1c ed 3d
       0.075823285 -0.07533661 -0.014377625 0.11577774
000010 e6 ab 01 bb fe 47 26 3d 98 36 31 bd ab ab 54 bd
       -0.0019786297 0.040596 -0.043264955 -0.051921528
000020 5b f7 8c be f0 c0 a1 3d d4 80 b4 ba 69 64 8f 3d
       -0.27532467 0.07898128 -0.0013771304 0.070015736
000030 95 6a 04 be 28 6d 79 3b 78 48 4a 3e 81 9a 1a bc
       -0.12931283 0.0038059447 0.19754207 -0.009436251
000040 de 07 09 3d 18 32 b3 3c a2 32 d7 3d 28 bf af 3d
       0.03345477 0.021874472 0.10507704 0.08581382
000050 f8 07 40 3d 8d 57 8e 3d bb c1 ba 3d 6f 75 5b bd
       0.0468826 0.06950293 0.091189824 -0.05357879
000060 77 40 94 3e 00 95 37 3d 63 d1 20 3d b0 7c b9 3c
       0.28955433 0.04481983 0.039262187 0.022642463
000070 7f 6d 33 bc 1c 96 67 ba ef b4 3e bd 5b fb 22 3b
       -0.010951399 -0.0008834319 -0.04655927 0.0024869058
000080 ef d1 8f 3d c2 c2 50 bd 38 e4 d2 bc c9 ff 35 3d
       0.070224635 -0.050966986 -0.025743589 0.04443339
000090 bc 23 e0 3d 21 34 4f 3d 1a 6b f3 bc c3 f0 40 3d
       0.10944316 0.050586823 -0.029714156 0.04710461
0000a0 6d e2 a8 3d 9f 18 62 bd 71 ec 76 3c e9 9d d1 3d
       0.08246312 -0.05519926 0.01507102 0.10235197
0000b0 31 d9 46 3b e4 53 9a 3d c8 7d 98 3c a3 5b bb 3d
       0.0030341859 0.07535532 0.018614665 0.09148338
0000c0 0a ff ae be ec 6a 80 3d 37 8d 88 24 48 a6 24 3d
       -0.34178954 0.06270394 5.9219825e-17 0.04019764
0000d0 ed e1 da bc f6 8a ae 3d 2a e5 44 be f9 51 3d bd
       -0.026719058 0.085225984 -0.19228044 -0.046220753
0000e0 2e 50 ed 3a 84 a0 83 3d 25 85 14 be 4a 90 b4 3d
       0.001810556 0.064271 -0.14503916 0.088165835
0000f0 f4 32 f4 bb 5e e1 6e bd a6 c3 44 bd 6e 4d af 3c
       -0.007452363 -0.058320396 -0.048038147 0.021399226
000100 94 04 87 3c 9e 14 35 3d cd 8d 0a 3c 49 62 b1 3d
       0.016481675 0.044209115 0.0084566595 0.086613245
000110 9e 5c fa bd 64 0e 0a bd 76 79 12 36 f0 8f 70 bd
       -0.122246966 -0.03370513 2.1826395e-06 -0.05873102
000120 56 6a 4e be 45 84 81 3b 42 b1 0c 3d 22 a4 b7 bd
       -0.20157751 0.0039525353 0.034348734 -0.08966853
000130 98 50 1d bd 1a 4a a1 bd 8c 7b 8b 3d 7c 17 37 3d
       -0.03840694 -0.07875462 0.06810674 0.04470013
000140 70 6f 10 3d b8 f6 d2 bd 85 f6 a9 3c 75 b4 4f bd
       0.035262525 -0.10300964 0.020747432 -0.050709207
000150 48 8f 05 bb 69 14 15 bd d8 a2 e9 3c e6 48 ac 3d
       -0.0020379592 -0.036396418 0.028520033 0.08412342
000160 1e 2f 13 3d 1b e1 ad 3c 34 2b b0 3d 72 ce 9c bd
       0.035933606 0.021225503 0.0860199 -0.07656564
000170 c1 19 32 3b 0a 98 60 3d a9 40 2c bd 22 ae cb 3c
       0.0027175995 0.054832496 -0.042053852 0.024863306
000180 c6 3e 2f 3d 46 96 59 3c b8 2f a2 3d 13 79 62 3e
       0.042784475 0.013280457 0.07919258 0.22116499
000190 85 76 5c 3d ef 36 87 3d 43 f7 6b bc a3 00 41 bd
       0.053823967 0.066022746 -0.0144022135 -0.047119748
0001a0 69 08 82 bd d2 ab 00 3e f3 e6 94 3d b2 a4 0d bd
       -0.0634926 0.12565544 0.072706126 -0.034580894
0001b0 6e 34 d2 3d da c8 bd 3d d5 ff 30 be 47 8e 5a 3d
       0.102639064 0.09266825 -0.17285092 0.053358342
0001c0 78 52 3f 3e 54 4f 23 bd c5 74 f0 bc a5 e2 29 3e
       0.18683803 -0.039870575 -0.029352555 0.16590364
0001d0 99 2c 48 bc ae f7 90 bd a0 d6 5c 3d ef 71 94 bd
       -0.012217664 -0.07078491 0.05391562 -0.072482936
0001e0 f8 40 85 bc 9a ef 86 3d 5f 4c 71 3d f0 ea a4 bd
       -0.016266331 0.06588669 0.058910724 -0.08052623
0001f0 de a0 9d 3d bf 2f 52 3d 8e d5 cb 3d f9 c8 1a bd
       0.076966986 0.051315065 0.09952842 -0.03778932
000200 5b a6 9f 3e a6 4f c3 3c 0b 3c bd bc 09 d1 3f 3d
       0.31181607 0.02384169 -0.02309992 0.04683021
000210 14 a8 24 3d 62 9a 14 bd a6 55 8d be 9a 9c cb 3d
       0.040199354 -0.036280043 -0.27604407 0.09941979
000220 75 53 37 3d 12 8b 63 3d 04 37 3c be 5e 77 a4 bd
       0.044757325 0.05555255 -0.18380362 -0.0803058
000230 ff 81 87 3d 6d 3d 85 3c a4 bf ac bd 6d 2e 55 3d
       0.06616592 0.016264642 -0.0843499 0.05204623
000240 11 2a 9c be dd bb 52 bb 02 06 82 bd e0 01 0d 3d
       -0.30500844 -0.0032155432 -0.06348802 0.034425616
000250 36 b0 51 3d 47 60 db bc 71 af bb bd 8b a2 28 bb
       0.05119344 -0.026779307 -0.09164322 -0.0025731649
000260 3c 07 ac bd 9c 3f ab bd 05 96 c1 3d c2 63 d6 3d
       -0.08399817 -0.08361742 0.09452442 0.10468246
000270 c4 b8 a0 bd 81 4d af 3d e3 32 58 3d 28 75 cf bd
       -0.07847741 0.085597046 0.052782904 -0.10129768
000280 0b 5f 82 3d ca 7f 78 bc d5 37 54 3d 3b 0f 39 bd
       0.06365784 -0.015167186 0.051811058 -0.04518054
000290 13 10 c5 3d 6a 32 31 3d b9 e1 5d bc 96 68 e5 3c
       0.096222065 0.04326097 -0.013542586 0.028003972
0002a0 b8 a9 c1 3e 67 0c 1f be ce 5b 06 21 ec c9 a7 3d
       0.37824798 -0.15532075 4.552247e-19 0.081928104
0002b0 e5 de 31 3d 35 f4 29 bd 65 43 22 3e 18 0f 4c 3d
       0.04342546 -0.04149266 0.15846021 0.049819082
0002c0 ce 69 d1 b9 25 26 33 bb 16 4a 27 3e 24 ee ce bd
       -0.00039942417 -0.0027335968 0.16336855 -0.101040155
0002d0 8d 33 70 bd 9f ee 1a 3c 1e 6b 7e bd 1a 12 b7 bc
       -0.058642913 0.009456306 -0.062113874 -0.022347499
0002e0 e3 a4 d2 bd 9c 36 f6 3c 12 f7 0b 3d 66 6e b1 bd
       -0.10285356 0.030055337 0.03417117 -0.08663635
0002f0 7f 72 97 3d 7f ee 83 bc 18 01 16 35 61 d4 3c 3c
       0.07394885 -0.016104935 5.5880946e-07 0.011525244
000300 3e da 40 3e b0 91 a1 bc 36 fe 18 bd 66 4e 17 3e
       0.18833253 -0.01972279 -0.03735181 0.14776
000310 56 c6 24 3d 48 d2 c7 bb 8f cd 78 3d 1e 46 98 3d
       0.04022821 -0.0060980655 0.06074291 0.07435249
000320 26 fc 02 3d 6f f2 9d 3d 72 89 3c 3d 0c 9b 5e 3d
       0.03197875 0.07712256 0.046029516 0.054347083
000330 45 8f 55 3c 19 c3 48 3d aa 37 32 bd 1e a9 c2 3d
       0.013034646 0.049014185 -0.043510117 0.09504913
000340 e6 71 cc 3d 07 29 50 3d b0 04 1c be a3 cc d3 3d
       0.09982662 0.050820377 -0.15236163 0.10341766
000350 d2 43 41 bd ca 6b 34 3c 83 5c 96 3c 58 14 81 3d
       -0.04718382 0.011012027 0.01835466 0.063027084
000360 bb 97 81 bc 70 5d 02 bd 8d 9e d7 3d 7e bf 79 be
       -0.015819421 -0.03182739 0.10528288 -0.24389455
000370 3e 87 29 bd 02 cb 22 3d 56 6c 50 bc 43 30 c0 bd
       -0.041388743 0.039744385 -0.012721142 -0.09384205
000380 eb a2 d8 bb 33 41 32 3d 59 77 83 3d 56 09 a3 3c
       -0.006611218 0.04351921 0.06419248 0.019901913
000390 12 fc 15 3d a6 08 d2 bd c5 27 26 3e e5 00 43 3d
       0.036617346 -0.10255556 0.16226108 0.047608275
0003a0 e3 74 69 bd da 22 b0 3c 48 7b 4c ba 53 fe 14 be
       -0.056996237 0.021500994 -0.0007800353 -0.14550142
0003b0 0b 1f 24 3d a6 c6 a5 3c 80 3a a4 bd 9f fd 0e 3d
       0.040068667 0.020236325 -0.080189705 0.03490984
0003c0 60 3c 8a 3d 0d 95 ff 3c 4a a0 90 3d da 22 44 3d
       0.06749797 0.031199003 0.07061823 0.0478848
0003d0 df 75 ba bd 68 34 3c 3d 4e 2e c7 3d a1 c8 b4 bd
       -0.091045134 0.045948416 0.09725629 -0.088273294
0003e0 95 33 ad 3e 63 78 a1 3d 57 7e 45 3d e9 cb 74 3d
       0.33828416 0.0788429 0.04821619 0.059764776
0003f0 5a b5 09 3e b9 d1 12 3d 09 87 90 be b1 1f 52 bd
       0.13448086 0.03584454 -0.28228024 -0.051299755

conv2.lin_rel.bias f4 [120]
000000 73 00 9e bd e8 d3 8a 3d b8 32 68 bd 0c e2 60 9b
       -0.077149294 0.06778699 -0.056688994 -1.8601885e-22
000010 2b 37 60 bd 43 67 81 bd 7f 20 01 bd 4a 62 47 ba
       -0.054740112 -0.06318524 -0.03152513 -0.0007605894
000020 6b ef c3 3c db 06 74 3d 15 6e 11 bd ad c1 df bc
       0.023917874 0.05957685 -0.035505373 -0.027314031
000030 48 25 aa bd c7 c1 4f b9 d7 14 1d bb 7e 91 a3 3d
       -0.08307892 -0.00019813246 -0.002396872 0.07986735
000040 69 70 75 3c 4f 78 a4 3c a4 ee 8e bd 09 52 00 b8
       0.014980414 0.020076899 -0.06979111 -3.059398e-05
000050 dc 3a d8 3c ca 9c 34 3d b2 04 ac 3d 54 2f 0c 3d
       0.026395254 0.04409484 0.08399333 0.034224823
000060 c3 ba 0d b3 d5 38 62 bb 45 bb 4b 3d 94 80 97 bd
       -3.299898e-08 -0.0034518738 0.04973914 -0.07397571
000070 45 00 91 3c d9 56 ad 3c 0e bf 28 3d 68 86 92 3d
       0.017700324 0.021159576 0.04119783 0.07154542
000080 b2 54 ec 3c 60 9e ca 3b c0 e3 b4 3d 7b 3d e6 3d
       0.02884898 0.0061834306 0.08832502 0.11242195
000090 15 0e 0f 39 53 b6 3b bd ce b0 93 bb d1 70 55 bd
       0.00013642789 -0.045828175 -0.0045071607 -0.052109543
0000a0 15 9f 63 3d d3 b2 9b 3c 8a 3c 37 b9 d2 76 a9 9a
       0.055571634 0.019006168 -0.00017474793 -7.0088726e-23
0000b0 dd a6 9c ba 27 68 9a 3c 61 9e 41 a9 49 bd f9 3c
       -0.0011951585 0.018848492 -4.299198e-14 0.030485766
0000c0 00 a2 c7 3b 87 71 32 ae 4f 95 34 3c 62 54 85 3d
       0.00609231 -4.0573347e-11 0.011021926 0.06510235
0000d0 f0 3c 9d bd 89 6e e2 3d 4c 57 0a ad f9 b9 ea ba
       -0.076776385 0.11056239 -7.863776e-12 -0.0017908207
0000e0 a0 89 83 3d 86 24 bf 3c 34 68 74 3d 01 69 bc 3c
       0.06422734 0.023332845 0.05966969 0.022999289
0000f0 eb f7 63 3c 10 bf e9 3a 4f de 77 b9 88 35 ab 3d
       0.013914089 0.001783343 -0.00023638572 0.0835982
000100 3f c8 28 3d 45 cd 16 3d 24 a6 ea 3d 8e 31 8e bd
       0.041206595 0.036816854 0.1145747 -0.069430456
000110 a4 44 88 3d 18 e7 2f bd 9e ad 18 bd 5a bb 69 3d
       0.06653717 -0.042944998 -0.03727495 0.057063438
000120 23 cc fc 3c 7a d2 d7 3d 83 c3 99 3d c7 31 b8 3d
       0.030859059 0.10538192 0.07507994 0.08993869
000130 ec 2f 69 bd de 7c 08 bb 41 be e3 3d 6d c5 5c 9d
       -0.056930467 -0.002082638 0.111202724 -2.9218824e-21
000140 a0 f4 c4 3c 63 e7 71 3d 72 74 8d 3d 02 a3 89 3d
       0.024042428 0.05905856 0.06906976 0.067205444
000150 12 f4 3f 3d c9 7a 54 bd 15 02 f1 3c 65 7b 7f 3d
       0.046863623 -0.05187491 0.029419938 0.062373538
000160 e7 e6 30 bd 9c ca 06 3c 27 f9 1a 3d 99 de a7 bd
       -0.043188956 0.008227017 0.037835266 -0.08196754
000170 ea ce 65 3c 58 ab 0d 3d 0a c6 20 3c 8e 0f 42 3c
       0.014026383 0.034587234 0.009812841 0.011844529
000180 98 3c cc 3c 6b 29 07 bb b3 d0 b1 3d 2a f6 4f 3d
       0.024931237 -0.0020624052 0.08682384 0.05077187
000190 98 e5 d6 3d 6a 10 08 3d eb 46 40 3d 95 1b 00 80
       0.1049301 0.03321878 0.046942633 -9.895e-42
0001a0 e5 7d 9b 3d 12 56 db 3d 57 ea d1 bc 90 be 73 bc
       0.07592372 0.10709776 -0.025624437 -0.014876977
0001b0 95 08 04 bb b9 28 ab 3d ab 39 e2 3c 0e c5 82 3d
       -0.0020146717 0.083573766 0.027615389 0.063852414
0001c0 ea 29 83 bd da e7 86 bd 97 94 9b bb c4 01 92 ba
       -0.06404479 -0.06587191 -0.004747938 -0.0011139442
0001d0 ae e9 42 3d f6 6b d5 bc f5 8f 80 bb 05 7b a3 3d
       0.047586136 -0.026052456 -0.003923411 0.079824485

conv2.lin_root.weight f4 [120, 120]
000000 32 6b bf 3b 5b 21 9e bd f9 e6 82 b9 53 9a 80 bc
       0.005841636 -0.07721206 -0.0002496762 -0.015698588
000010 4f 34 d8 3c 22 db dd bc 26 ab 12 3d ec 18 22 3c
       0.02639213 -0.02708203 0.03580775 0.009893637
000020 2d ef 96 be bb 11 8e bd 5e 29 92 3d 7d 34 8c bd
       -0.29479352 -0.069369756 0.071367964 -0.06845949
000030 72 bc 5f 3c 69 df 31 bd 11 59 41 3e 72 6c 5e 3c
       0.013655769 -0.04342595 0.18881632 0.01357566
000040 9a b4 6b bd b4 8a 4d 3c 10 74 b0 3d f1 fa 55 bd
       -0.057545282 0.012545276 0.08615887 -0.05224127
000050 1f 20 f7 3b c6 75 94 3d b6 80 86 bd 83 40 46 3d
       0.007541671 0.07249026 -0.065675184 0.048401367
000060 20 6f 87 3e cb 62 02 bd fe 27 84 bd 02 18 6f 3d
       0.2645197 -0.031832498 -0.064529404 0.058372505
000070 4c 3c a6 bd 28 94 9c bd 4c 6d 09 bd fc a1 06 3b
       -0.081169695 -0.07645446 -0.0335515 0.0020543328
000080 42 7c be 3d ad 46 d9 bb 6a 0f 01 be 1e b7 e6 3d
       0.09301044 -0.0066307397 -0.12603536 0.112653956
000090 07 b8 8a 3b 1f 47 84 3d 32 c0 f8 bc 7a cf 9c 3d
       0.0042333636 0.06458878 -0.030365083 0.076567605
0000a0 80 db 25 3d 06 35 90 bd e5 62 5b bc aa 2f 2b 3e
       0.040492535 -0.070413634 -0.0133902775 0.16717401
0000b0 27 c6 f8 bd 93 86 32 3d 90 ae 81 b9 66 77 67 bd
       -0.121471696 0.04358537 -0.00024734857 -0.05651035
0000c0 58 a3 a0 be 5f 96 65 3e 33 e8 ba 87 ef 2e 76 bd
       -0.3137462 0.22420643 -2.8122644e-34 -0.060103353
0000d0 4b 9d fc 3d 6c c6 16 3c ca 98 a8 be af bb 47 bd
       0.12334689 0.009202581 -0.3292907 -0.048762973
0000e0 bb 79 9f 3a 09 ca 56 3c c9 ce b7 bd 80 02 b5 3d
       0.0012167016 0.013109692 -0.08974988 0.088383675
0000f0 50 e4 e4 3c b4 27 6f bc 05 a0 d6 bb 8b 5f 6f 3d
       0.0279409 -0.014596868 -0.0065498375 0.058440726
000100 b3 c1 54 3d 93 a4 68 3d 5f 2e c2 3d 26 0b 34 bc
       0.05194254 0.056797575 0.09481501 -0.010988986
000110 b7 b3 d7 bc 82 c8 89 3d e1 4d 31 33 7b 75 38 bb
       -0.026330812 0.06727697 4.1281854e-08 -0.0028146196
000120 e5 14 55 be 45 8c c6 3d 2e 85 0c bd 5e 94 6e 3c
       -0.20808752 0.09694723 -0.034306698 0.014561741
000130 68 8f b7 3d b7 44 84 bd fc e9 34 bd 63 2e 95 bc
       0.089628994 -0.06458419 -0.044168457 -0.018210595
000140 bd e8 1d 3d 36 c0 f1 3c 10 f9 cb 3d b8 fa bb bd
       0.038552035 0.029510599 0.09959614 -0.0917868
000150 a8 71 80 3c ad c4 a0 bc 65 7a 9d 3d 3a 7e 7c 3d
       0.015679196 -0.019625032 0.076893605 0.061643817
000160 cb 3f f9 bc f9 61 bb bd ce 79 1a 3e c1 08 90 bd
       -0.030425927 -0.09149546 0.15085527 -0.0703292
000170 45 f2 74 3d 7d f4 69 3c f1 c0 c7 3d 7a 5d 85 bc
       0.05980136 0.014279482 0.097535975 -0.016279925
000180 8d 0f ba bb 40 ca e7 3d fa a8 a4 3b fd 1a e9 3d
       -0.0056781233 0.11317873 0.0050250264 0.11382101
000190 fd bc 5b 3d 4c f2 28 bd 18 19 b3 3c 5f ec 42 3d
       0.05364703 -0.041246697 0.021862552 0.047588702
0001a0 b9 2a b6 bd 52 6f 99 3d cc b9 84 bc 3a fd 62 3d
       -0.088948674 0.07491936 -0.016201876 0.055417277
0001b0 0f e3 8c 3d 29 a9 a5 3d 42 ae 5c be 87 e9 d1 3d
       0.068792455 0.08088905 -0.21550849 0.1024962
0001c0 eb 26 0a 3e d1 04 f3 bd 2e 6c c6 3c 05 46 fd 3d
       0.13491409 -0.11866153 0.024221506 0.12366871
0001d0 84 fe 7f bd 9e bb 76 3c 79 f6 02 bd a7 78 4c 3c
       -0.062498584 0.01505938 -0.031973336 0.012479938
0001e0 7b da aa 3c 40 f4 1e 3c a0 e8 d4 3d 4e 25 63 bb
       0.020856133 0.009701788 0.10395932 -0.0034659686
0001f0 5f d5 c1 3d 76 c3 73 3d e4 f3 10 3e fe a5 8a 3d
       0.094645254 0.059512578 0.14155537 0.06769942
000200 be 1b 79 3e 50 33 ba bd ad 3e ff bb 8f 00 85 3d
       0.24326989 -0.09091818 -0.007789454 0.06494247
000210 8f f3 1f 3e cf 16 5d 3b c4 b9 84 be 14 34 a1 3d
       0.15620254 0.0033735519 -0.25922978 0.07871261
000220 b0 ea 91 3d d9 8e 64 3d 28 76 0b be b6 01 64 3b
       0.07124841 0.055800293 -0.13619292 0.003479106
000230 4b 7a f8 3d 8d 25 c3 3c 77 43 8f 3d 90 54 56 bd
       0.121327005 0.023821617 0.0699529 -0.05232674
000240 84 97 92 be 1e 7b ac bd 9e 4e 9d 3c af b4 36 3d
       -0.28631222 -0.0842192 0.019202527 0.044605907
000250 c2 df 32 3c f1 3b 00 3e 27 67 82 3c 95 05 0e bb
       0.010917606 0.12522866 0.015918327 -0.0021670808
000260 bf 00 81 bd 82 c0 08 bd 3c b2 1c 3e 3b c7 35 bd
       -0.062989704 -0.033386715 0.15302366 -0.044379454
000270 5e 31 70 bd 6b 7f 5d 3d 94 7a 8f 3d 55 f1 0d 3d
       -0.05864083 0.054076593 0.07005802 0.03465398
000280 75 be a9 3c ce 71 32 3d 1a 81 d4 bc 9a 55 d1 bd
       0.0207207 0.043565564 -0.025940467 -0.10221405
000290 99 85 3f 3e 3f 2d 52 3d b6 d3 88 bd e5 68 e4 3b
       0.18703307 0.05131268 -0.06681006 0.006970512
0002a0 91 11 9c 3e b5 03 27 be 33 d5 05 80 58 02 e7 bd
       0.30482152 -0.16310008 -5.35659e-40 -0.11279744
0002b0 ed 55 e3 3c 0b 65 55 3d fe 32 aa 3e 9b 02 79 3d
       0.027750934 0.052098315 0.3324203 0.0607935
0002c0 04 39 ee b9 d5 86 a8 bd 56 5e 8f 3d 26 b3 9f bd
       -0.00045437377 -0.08228842 0.07000415 -0.07797842
0002d0 bb 94 d4 3d 23 e6 c2 bc 33 a1 cf 3c da 61 2d 3d
       0.103799306 -0.023791378 0.02534542 0.042329647
0002e0 64 b6 1b bd 90 7b a0 bd c6 db a2 bd cc 50 84 3c
       -0.038015738 -0.07836068 -0.07952075 0.016151808
0002f0 53 9e f4 3d 49 89 97 3d 7b a5 23 b4 00 68 c3 bb
       0.119442604 0.07399232 -1.524076e-07 -0.0059633255
000300 61 e2 6f 3e 29 9b 7c bd f6 31 c0 3c e6 7e e6 3d
       0.234262 -0.06167141 0.023461323 0.11254673
000310 21 f5 a9 bd 0c ef 82 3d 75 58 48 bd ca 26 13 3d
       -0.08298708 0.06393251 -0.048912484 0.035925664
000320 c5 2d 3d 3d b7 8d ef 3c 86 7e ab 3d 83 80 83 bd
       0.046186227 0.02924238 0.08373742 -0.06420996
000330 c3 6d 10 bc b2 50 ba 3d 1a 13 4a 3d 03 c7 cc bc
       -0.008815232 0.09097423 0.049334623 -0.02499724
000340 65 b5 14 3d 94 b3 bf 3d 9e 08 12 bd 7c 91 13 bd
       0.036305804 0.09360424 -0.03565275 -0.036027417
000350 af 6b 86 bd e6 de a5 3c ac 0b 5a bc c2 63 82 bc
       -0.06563508 0.020247888 -0.013308447 -0.015916709
000360 95 55 93 3b cc 25 31 bd 63 6b 86 3d 12 3f 04 be
       0.004496286 -0.043248937 0.06563451 -0.12914684
000370 c2 67 b9 3d a2 56 73 3d 27 61 68 3b e9 f6 a0 3d
       0.09052993 0.05940879 0.0035458298 0.078595944
000380 50 e6 84 3c 09 75 45 bd bc c3 35 bd 3d 1f 90 bd
       0.016223103 -0.048207317 -0.04437612 -0.07037208
000390 96 4a 0c 3b b1 01 bf 3d f5 4a 1b 3e 11 d7 42 3d
       0.0021406761 0.093264945 0.15165313 0.047568385
0003a0 4c 29 6b bd e0 ed d8 3b 05 52 9b 3d c8 68 32 be
       -0.05741243 0.006620154 0.07584003 -0.17422783
0003b0 1c f4 ba bc 87 b9 8a bd df 54 83 3d c0 23 e9 bc
       -0.022821479 -0.06773668 0.06412672 -0.02845943
0003c0 fa 91 c7 3b 3c 01 6b 3d 64 90 95 bd f5 db 8e 3d
       0.0060904 0.057374224 -0.07302931 0.06975547
0003d0 b8 fe 93 bd 10 15 a1 bd d2 dc ff 3d 4c a7 3d 3d
       -0.07226318 -0.078653455 0.1249329 0.046302125
0003e0 c2 2b 9e 3e fa d0 9e bd 17 3a 3e 3d 3d 65 f1 3d
       0.3089276 -0.07754703 0.046442118 0.11786888
0003f0 ef 54 c9 3b 61 d2 58 bd 76 7e 7e be 4b 7d 58 3d
       0.006144158 -0.052935008 -0.24852929 0.052853864

conv3.lin_rel.weight f4 [120, 120]
000000 09 96 8d bb db 03 4e bd 70 4f 19 3d 7b 1b 00 80
       -0.004320864 -0.050296646 0.037429273 -9.858e-42
000010 cb 64 80 bd 77 2e a9 bd a1 33 ec bd 1a 5f 5d 3d
       -0.06269225 -0.082608156 -0.11533285 0.054045774
000020 69 f2 1d bc ab 0d e2 bc ec ea 07 3e b6 48 df 3c
       -0.009640315 -0.027594408 0.1327321 0.027256351
000030 96 72 64 bd 6b ee 83 39 c1 01 77 3e a1 d7 b8 3c
       -0.05577334 0.00025163902 0.24121763 0.022563757
000040 61 20 d4 bd 77 78 b3 3d 9d 12 a4 bd e1 c8 02 39
       -0.10357738 0.08763211 -0.08011363 0.000124726
000050 bc c4 9a bd c1 b3 34 bd 78 3b f1 3c ca 46 05 bd
       -0.07557055 -0.04411674 0.029447302 -0.032538213
000060 36 b2 11 b5 58 c2 59 3d a2 78 0f 3e 1f b9 b6 3d
       -5.427604e-07 0.053163856 0.14010862 0.08922028
000070 78 cb f9 3c dc c1 ba bd fa 63 06 3e 5c 0f 3f bd
       0.03049253 -0.09119007 0.13124076 -0.046645507
000080 49 01 30 bc 34 b8 03 3d 95 83 4e 3c 32 93 35 bc
       -0.010742494 0.03215809 0.012604614 -0.011082457
000090 e8 f1 25 be 35 80 51 be d2 06 df bc 0f 79 f9 3b
       -0.16205561 -0.20459063 -0.027224932 0.0076133083
0000a0 18 54 d8 bd d5 a4 80 bd a8 40 c3 ba 2a 0c 00 80
       -0.105629146 -0.06281439 -0.0014896588 -4.364e-42
0000b0 77 b0 ae b3 80 69 85 bd 6b 1b 00 00 0d 60 2a 3d
       -8.134605e-08 -0.06514263 9.836e-42 0.041595507
0000c0 3a a7 86 bd 7c e8 67 33 35 06 bf 3c 37 b8 a0 bc
       -0.06574865 5.3995322e-08 0.02331839 -0.01961909
0000d0 cb 0e 53 bd a8 65 00 be c5 29 e3 2d fc 45 6d ba
       -0.05152778 -0.12538779 2.5825462e-11 -0.0009051261
0000e0 4a 14 bb ba cd 66 de bd 94 47 d9 3c 4c d3 eb 3d
       -0.0014273014 -0.108594514 0.026523389 0.11514911
0000f0 73 0d ac bd db 43 25 3d 2f ba 4f 36 a7 62 b5 bd
       -0.08401003 0.040347915 3.0953777e-06 -0.08856707
000100 4f 2d a1 3c e5 a9 70 3d cc 1f cb bd 77 43 a7 3d
       0.019674925 0.058755774 -0.09918174 0.08167165
000110 2e b0 d3 bd 9e ea 32 b9 e4 c6 53 bc a9 8d 2b bd
       -0.10336338 -0.00017062805 -0.012925837 -0.041883145
000120 68 77 b8 3c 7d ee ca 3c be b4 b1 bd 97 73 63 3d
       0.022517875 0.024771923 -0.08677052 0.055530157
000130 5d 78 5e 3d c8 c9 76 3d 4e fd 5c bd 4e 1f c9 b6
       0.054314006 0.060251027 -0.053952508 -5.993911e-06
000140 7a 12 a3 bc 2d 79 74 3c 62 6d 2d be ed 8a c1 3c
       -0.019906271 0.014921469 -0.16936257 0.023625815
000150 bb 25 0c be 43 6d 11 3b 72 01 1b 3d 5d de 01 bd
       -0.13686268 0.002219037 0.037843175 -0.031706203
000160 a6 99 00 3d 6d ce b6 bd b9 42 78 3c 30 70 e2 bd
       0.03139653 -0.08926091 0.015152627 -0.11056554
000170 9d 3f a0 3c e1 dc af bc 51 96 2c bd 41 08 93 3d
       0.019561583 -0.021467628 -0.04213554 0.07179309
000180 62 b0 67 3d e1 d6 3d 3a 05 8e 1a 3d 4b a2 a5 bd
       0.056564696 0.0007241797 0.037733097 -0.080875956
000190 08 81 af bd 1c 41 28 bd 53 3a d7 bd eb 31 0a 19
       -0.08569533 -0.04107772 -0.10509171 7.144514e-24
0001a0 80 1c 79 bd 1d 4a 71 bd a4 d7 c8 3a 20 63 32 3d
       -0.060818195 -0.05890857 0.0015323055 0.043551564
0001b0 13 64 20 bb 6c 1a 28 bd 01 df 9d bd cc fd 3d bd
       -0.0024473711 -0.041040823 -0.0770855 -0.046384618
0001c0 d8 51 97 bd 8c e4 db 3c 4d 43 7c 3e 38 75 e8 38
       -0.07388657 0.026842378 0.24635048 0.00011084456
0001d0 50 c4 b0 bb 11 d4 2e 3d 45 88 3b 3d a7 81 fa bd
       -0.005394496 0.04268271 0.045784254 -0.122317605
0001e0 2b e0 ae bc e9 bc 58 bd 72 de 89 ba ae 1b 00 00
       -0.021347126 -0.052914534 -0.0010518564 9.93e-42
0001f0 00 e7 a4 bd f3 b6 89 3d 41 93 ec bb a6 22 da bd
       -0.08051872 0.06724348 -0.0072197025 -0.1065114
000200 a6 c0 57 bd 65 cc 0f ba c8 dd 16 bc 2d af bf 3d
       -0.05267396 -0.0005485474 -0.00920815 0.09359584
000210 8e 88 4b bd 30 7e 4c 39 d7 f9 48 3e 6f 43 3a bd
       -0.049690776 0.00019501965 0.19626556 -0.045474466
000220 69 0e 97 bd 1b e6 df 3c 51 77 b0 bd eb 31 1b 2d
       -0.073757954 0.027331403 -0.08616508 8.821814e-12
000230 63 83 b2 bd fb 58 98 3d b5 45 53 bd d9 92 72 3d
       -0.08716466 0.07438847 -0.05158015 0.059222076
000240 9e 1b 00 80 68 17 7b 3c df 8a 87 3e 70 e6 15 bd
       -9.907e-42 0.015325405 0.26473138 -0.036596715
000250 b6 09 67 bd 5a 70 87 bd 37 5d cd 3d 9e 02 4e bb
       -0.056405745 -0.06613226 0.10027545 -0.0031434665
000260 40 2d 24 bd 1f fa 82 3c 2a 4f 89 3c 93 a7 0d 3a
       -0.040082216 0.015988408 0.016761381 0.00054036936
000270 6e c9 40 be 61 d5 45 be 9c 6e a9 bd f1 4c 07 be
       -0.1882684 -0.19319679 -0.0827305 -0.13212945
000280 5c dd 02 be ae 24 34 3d 63 f5 94 39 7b 1b 00 80
       -0.12779754 0.043980293 0.00028411587 -9.858e-42
000290 a4 d8 51 b4 2f 75 93 3d 94 1b 00 00 83 73 99 3d
       -1.9543455e-07 0.07200085 9.893e-42 0.07492735
0002a0 50 81 8c bd 90 9d 00 32 56 b8 97 bd 6a c2 9f bd
       -0.06860602 7.486406e-09 -0.07408206 -0.078007534
0002b0 c4 b9 ad bd b7 8c 02 be fe c1 46 0b 15 4f 89 ba
       -0.084826976 -0.12748991 3.8279356e-32 -0.0010475839
0002c0 aa 27 83 3d a3 bc 17 be e2 89 02 be a3 b2 0d 3e
       0.0640405 -0.14818053 -0.1274791 0.13837676
0002d0 45 7f ae bd 8e a7 4a 3d 23 9c 5b 35 90 b9 b6 bc
       -0.085203685 0.0494762 8.1811066e-07 -0.02230528
0002e0 e3 ce f0 bc b1 6a cf bd 09 7c d3 bd 5b 6c 26 3e
       -0.029395526 -0.10127772 -0.10326392 0.16252272
0002f0 8b 16 26 3d 62 47 c9 37 29 ba bb bc 49 a1 4f bd
       0.040548842 2.3994307e-05 -0.022915917 -0.050690923
000300 f0 47 c4 bc b1 e5 14 bd 65 2d a1 bd 4a 90 7c bd
       -0.023960084 -0.036351863 -0.078699864 -0.061661042
000310 36 70 26 3d d5 68 23 bb 3e 09 d9 bd 68 f4 c9 ab
       0.040634356 -0.002493431 -0.10597466 -1.4349745e-12
000320 8d e8 b3 3c 72 45 d1 bd 02 2a 36 be 1d c2 c3 bd
       0.021961475 -0.10218324 -0.17789462 -0.095585085
000330 c2 4d b1 bd d3 70 cd bc de 90 b6 bd f5 f7 05 be
       -0.08657409 -0.025078213 -0.0891435 -0.1308287
000340 15 c0 5a 3d 54 96 97 3b a5 79 d9 bd f8 a0 d5 bb
       0.05340584 0.004626075 -0.10618905 -0.006519433
000350 42 5d 69 bd bb 0a e4 3a 20 9f eb bd 6d 90 46 3d
       -0.056973703 0.0017398217 -0.1150496 0.04847758
000360 e3 9f ff 3c ec d8 ea b9 f6 16 59 3d d2 e6 8a bd
       0.03120417 -0.00044793577 0.053000413 -0.06782307
000370 30 28 6b bc 8b f3 5d 3d 20 48 d9 bd 2a df 02 80
       -0.014352843 0.05418734 -0.1060946 -2.63727e-40
000380 d9 c7 cc 3c 6e 22 49 3c d4 63 b0 bd ba a2 a7 bd
       0.024997639 0.012276275 -0.08612791 -0.081853345
000390 dc b9 a4 bd a9 fa 84 bd 75 14 c2 bc b9 d1 1d 3d
       -0.08043262 -0.06493122 -0.023691395 0.038530085
0003a0 8c f5 2c 3c 0d c4 d8 bc 07 c7 31 3e 4d 0f 3e 37
       0.01055659 -0.026460672 0.17361079 1.1328445e-05
0003b0 f2 bb 0b 3d 48 b6 01 3b 74 a0 d2 bd 5a 8a 16 be
       0.034114785 0.0019792486 -0.1028451 -0.14701214
0003c0 91 dd 4e 3d 9a c4 83 bd 32 a3 b8 bd 83 1b 00 80
       0.05050427 -0.06433983 -0.09015502 -9.87e-42
0003d0 62 6b c7 bd 9f 61 cc bd f1 fb 85 bc dc be 03 be
       -0.097372785 -0.09979557 -0.016355487 -0.12865776
0003e0 35 ed 6e bd d4 ca dc bd 6e 79 25 3d f3 a5 19 3d
       -0.058331687 -0.10780874 0.040399007 0.037511777
0003f0 65 ce 40 3d 92 b2 0b 38 b8 f4 3a 3e fe 4e 00 3d
       0.047071833 3.330649e-05 0.18257415 0.031325333

conv3.lin_rel.bias f4 [120]
000000 56 ab f7 bc 79 96 cd bc 5b 5e 0b bd 3f 8a c1 3c
       -0.030233067 -0.025096165 -0.03402553 0.023625491
000010 3b 56 20 3d e8 7e 92 bc 30 07 d0 3c 1a 58 82 bb
       0.039144736 -0.01788278 0.025394052 -0.0039777877
000020 e8 09 cc 3c 0e 0b ba 3d 02 31 a7 3d 5e 6f de bc
       0.024907067 0.0908414 0.081636444 -0.027152713
000030 75 4a 3c 3d 6e 61 d0 3c 50 07 35 bd 64 0e fa 3c
       0.045969445 0.025437083 -0.044196427 0.03052444
000040 4d 32 57 3d fc a3 8b bd e8 10 d1 bc b0 a5 b1 bd
       0.052538205 -0.06818387 -0.025520757 -0.086741805
000050 d0 c9 70 3d 84 3e 22 3d 2a f2 a8 39 b5 44 89 bd
       0.058786213 0.0396104 0.00032223883 -0.06702558
000060 cd d3 53 3d 2d ae 38 3d 5d 5e 18 bd 82 62 98 3d
       0.05171566 0.045087982 -0.037199367 0.07440664
000070 37 63 a2 3d 0c b2 b2 bd 2f 41 de 3c e6 6b 2a 3d
       0.0792908 -0.08725366 0.027130691 0.041606806
000080 c7 83 37 3d 11 17 92 bd ce 25 19 bd 63 af 9f 3c
       0.044803407 -0.07133306 -0.03738957 0.01949281
000090 94 d0 8c bd 50 41 7f bd d3 e8 61 bd e3 c5 93 bd
       -0.068757206 -0.062318146 -0.05515368 -0.07215478
0000a0 21 c9 d9 bb 22 b2 0a bd 0e cb 81 bd 59 95 76 3c
       -0.006646291 -0.033861287 -0.06337558 0.015050256
0000b0 3e 8d 6e 3d 8a 4d a1 3d c0 5f 29 bd 8c b2 61 3d
       0.058240168 0.078761175 -0.04135108 0.055101916
0000c0 00 ae 27 3d 64 61 02 bd 88 71 73 bd 52 a4 e2 bc
       0.040937424 -0.03183116 -0.059434444 -0.027666245
0000d0 08 7a d5 bc f5 89 64 bd 20 57 73 bd 2d 13 43 3d
       -0.026059166 -0.05579563 -0.05940926 0.04762571
0000e0 08 3c 81 3d 9a 98 8a bc 2b 5b 18 bd 40 b8 16 3c
       0.06310278 -0.01691847 -0.03719632 0.009199202
0000f0 7c 6a 17 3d 58 d3 99 bd 21 6f b7 bb e8 50 90 3c
       0.036966786 -0.07511014 -0.0055979644 0.017616704
000100 f7 63 9e 3d 74 cf 8e bd 55 88 cf 3d 1b e6 a3 3d
       0.077339105 -0.06973162 0.10133425 0.080028735
000110 4d 6b 7a bd 16 cd ea 3a f5 a9 30 bc f8 8a 8d bd
       -0.061137486 0.0017913904 -0.010782708 -0.06911272
000120 08 d0 b5 3c 4c 09 33 3c ed 96 bd 3c 0b 2a 23 3d
       0.022193924 0.0109275095 0.023143256 0.039835017
000130 81 03 2c bd 28 cc 35 3d 8c 22 a2 3d b7 00 ad bc
       -0.04199553 0.04438415 0.079167455 -0.021118505
000140 19 c6 5c bd e7 05 48 bd b4 9e a7 bd ee e2 96 bd
       -0.05389986 -0.048833754 -0.08184567 -0.07367502
000150 2f 54 a7 3d d9 32 a7 bd 91 8c f7 bc 24 e5 63 bd
       0.081703536 -0.08163995 -0.030218394 -0.055638447
000160 2f 87 9f 3d 21 46 a8 bd 3a ec 94 bd 82 77 98 bb
       0.07789456 -0.08216501 -0.07271619 -0.0046529183
000170 83 78 3c bd f6 ea c6 3d 4a 83 b8 bb bc 70 10 3d
       -0.046013366 0.09712784 -0.0056308853 0.035263762
000180 70 8e 98 3c 3d f5 8a 3d 63 50 98 3d 9e 14 8a 3c
       0.018622607 0.06785057 0.074372075 0.016855534
000190 f6 18 2e bd ae 00 8c 3c 80 25 3f 3d 46 e6 ae 3d
       -0.042504273 0.017090168 0.046666622 0.08540015
0001a0 52 24 85 3d 55 be 0b bd c6 94 41 bc 61 1f c9 bc
       0.06501068 -0.03411706 -0.0118152555 -0.024551095
0001b0 35 3b 36 3d 98 a4 96 3d 9b 5b 4c bc 4a 02 8c bd
       0.044490058 0.073556125 -0.012473012 -0.06836374
0001c0 46 69 c6 3c b2 da f0 b9 0c 8b a1 3d f7 04 89 bd
       0.02422012 -0.00045939308 0.07887849 -0.066904
0001d0 92 37 c6 3c 71 99 e0 bc d7 52 da 3c 3c ce 99 bd
       0.02419642 -0.027416917 0.02665083 -0.07510039
