pretrained_GNN_models/GNN_272trainvalid_fold0_1452_20.77485_3.17891.pt (torch, 250927 bytes, 10 tensors)

conv1.lin_rel.weight f4 [120, 14]
0	0x3e603238	0.21894157
1	0xbd4847e0	-0.04889667
2	0x3e1fe555	0.15614827
3	0xbe4216e1	-0.1895404
4	0x3e5f7890	0.21823335
5	0xbe9131b1	-0.28358224
6	0xbe2f48f3	-0.17117672
7	0xbdbae952	-0.091265336
8	0xbdf66c20	-0.12032342
9	0x00001ba0	9.91e-42
10	0xbda0f7a4	-0.07859734
11	0x3d9e4651	0.077282555
12	0x3c07924f	0.008274629
13	0xbc6cce28	-0.014453448
14	0xbdcc58ab	-0.099778496
15	0xbe3a7af7	-0.1821097
16	0xbe5c747e	-0.21528813
17	0x3d982d76	0.07430546
18	0xbd4fa0ed	-0.05069058
19	0xbdb24061	-0.087036856
20	0x3df666e7	0.12031346
21	0xbd9e2585	-0.07722
22	0xbd976068	-0.07391435
23	0x80001b5c	-9.815e-42
24	0xbe671522	-0.22566655
25	0x3dffcf0c	0.12490663
26	0xbd6f4d22	-0.05842317
27	0x3e3209b5	0.17386515
28	0x3afc0d75	0.0019230085
29	0x3d4557f0	0.048179567
30	0xbe58f665	-0.21187742
31	0x3caf378b	0.02138879
32	0xbd842949	-0.06453187
33	0xbdedc8e6	-0.11610584
34	0xbd86c5b9	-0.06580681
35	0x3c9acb7e	0.01889586
36	0xbe27534d	-0.1634037
37	0x00001c09	1.0057e-41
38	0x3e36dc95	0.17857583
39	0x3d45c4f1	0.04828352
40	0x3e80d17a	0.25159818
41	0x3df8b1eb	0.1214331
42	0xbe9721cc	-0.29517972
43	0xbd101c48	-0.03518322
44	0xbd1e0072	-0.038574643
45	0x3dd4370f	0.10362064
46	0x80001bf8	-1.0033e-41
47	0x3e850a97	0.25984642
48	0x80001b86	-9.874e-42
49	0x80001b8e	-9.885e-42
50	0x80001b7d	-9.861e-42
51	0x80001b98	-9.899e-42
52	0xbdbe80e4	-0.09301928
53	0x3ba524db	0.005039794
54	0xbc185f93	-0.00930013
55	0xbe90bc85	-0.2826883
56	0xbe66563f	-0.22493838
57	0x3db91be8	0.09038526
58	0xbe61e103	-0.22058491
59	0xbcd37934	-0.02581463
60	0xbd12dd7d	-0.03585576
61	0x3e9452be	0.28969377
62	0x3cde909a	0.02716856
63	0x80001b65	-9.827e-42
64	0x3d9fd213	0.0780374
65	0x00001b64	9.826e-42
66	0x3d367f25	0.04455485
67	0x3d688923	0.05677141
68	0x3da6326b	0.08115085
69	0x3df220da	0.11822672
70	0x3e345309	0.176098
71	0x3d027ce1	0.031857375
72	0x3cdc7c15	0.026914636
73	0xbdc535a6	-0.09629373
74	0xbe110787	-0.14163028
75	0xbdc22987	-0.09480577
76	0x3e991c08	0.299042
77	0xbe1706cc	-0.14748687
78	0xbda763f2	-0.0817336
79	0x8083f48f	-1.2118181e-38
80	0xbb5528ad	-0.0032525465
81	0xbe74ccc5	-0.23906238
82	0xbe007594	-0.12544852
83	0x3e8af119	0.27137068
84	0x3dfc5484	0.123208076
85	0x3e2ac4eb	0.1667668
86	0x3ce8691f	0.028370438
87	0xbe85fe9d	-0.26170817
88	0xbe115022	-0.14190724
89	0xbe7dbc16	-0.2477878
90	0xbe198088	-0.14990437
91	0x3dc8276c	0.09773144
92	0xbd721e6a	-0.059111036
93	0x8001549f	-1.22192e-40
94	0xbe46be27	-0.19408475
95	0xbe71f676	-0.23629174
96	0x3e8794dc	0.26480758
97	0xbe6c2579	-0.2306117
98	0x3e808576	0.25101823
99	0x3e161cae	0.14659378
100	0xbe705d57	-0.23473106
101	0x3e9ae3c6	0.30251902
102	0xbd6c2de6	-0.05766096
103	0xbdf2bfb9	-0.118529744
104	0xbe20ddd7	-0.15709625
105	0xbe1ee1d8	-0.1551584
106	0x3e0d5d91	0.13805224
107	0x80031b75	-2.85356e-40
108	0x3dde14d8	0.108438194
109	0xbd5886e0	-0.052863
110	0x3e0133be	0.12617394
111	0xbd41fb07	-0.04735854
112	0x3dc33730	0.095320106
113	0x3ce7ac5e	0.028280433
114	0x3daace52	0.08340134
115	0x3b4dd2bb	0.0031406123
116	0xbe4875c4	-0.19576174
117	0xbd0a5974	-0.033776715
118	0xbe045cca	-0.12926021
119	0xbd899e97	-0.06719702
120	0xbe5ad0ff	-0.21368788
121	0x00001b8a	9.879e-42
122	0xbe35a33c	-0.1773805
123	0x3e5f69c7	0.21817695
124	0x3e4d1523	0.20027594
125	0x3cabbef0	0.02096507
126	0x3e5b0ac2	0.21390823
127	0x3e7beea7	0.24602757
128	0xbe89d9d0	-0.2692399
129	0x3cb878ab	0.022518476
130	0xbd543804	-0.051811233
131	0xbe40f19a	-0.18842164
132	0x3dfdb95e	0.123888716
133	0xbd4e8b2a	-0.050425686
134	0xbd3193ce	-0.04335385
135	0x80001fa6	-1.1353e-41
136	0xbe502f16	-0.20330462
137	0x3e5bc495	0.21461709
138	0x3e36d306	0.17853937
139	0x3e8346fc	0.25640094
140	0xbd3fd9de	-0.046838634
141	0x3e1859ba	0.14877978
142	0xbd1e7767	-0.03868809
143	0xbd2c2e2a	-0.042036213
144	0x3e0defce	0.1386101
145	0xbd59b6e2	-0.053152926
146	0xbdae29ba	-0.085040525
147	0xbdc7e150	-0.09759772
148	0xbe239453	-0.1597455
149	0x00001c09	1.0057e-41
150	0x3c80b2e4	0.015710302
151	0xbd4eaa19	-0.050455187
152	0x3e4e0b7a	0.20121565
153	0x3c5d7dfd	0.0135188075
154	0xbd602e7e	-0.05473184
155	0xbe0c9e60	-0.1373229
156	0xbe1de91a	-0.15420952
157	0xbd72415f	-0.059144374
158	0xbe24c9e1	-0.16092636
159	0xbe540e0f	-0.20708488
160	0xbd191af9	-0.03737924
161	0xbd17cf6a	-0.03706304
162	0xbe2b970c	-0.16756839
163	0x00001b8b	9.88e-42
164	0x3e6e437f	0.23267935
165	0xbe342ac7	-0.17594443
166	0x3de37839	0.11106915
167	0xbe0537eb	-0.13009612
168	0xbd3bea11	-0.04587752
169	0x3e9ba224	0.3039714
170	0x3db444e6	0.08802204
171	0xbe7614f9	-0.24031438
172	0x3e8180a6	0.25293463
173	0xbd025d9f	-0.031827565
174	0xbdfb47dd	-0.12269566
175	0x80001b70	-9.843e-42
176	0x3e7b80e6	0.2456089
177	0x80001c3b	-1.0127e-41
178	0x3e1f758c	0.15572184
179	0x3e3a75bb	0.18208973
180	0xbdc471c1	-0.09592009
181	0x3ced862b	0.02899464
182	0xbe227afe	-0.1586723
183	0x3e7b0b66	0.24516067
184	0xbe7484b0	-0.23878741
185	0x3e9db53d	0.30802336
186	0x80001b8a	-9.879e-42
187	0x3e053264	0.13007504
188	0xbe3d9530	-0.18513942
189	0x00001bac	9.927e-42
190	0x3e61acaa	0.22038522
191	0x80001b60	-9.82e-42
192	0xbc31f712	-0.010862129
193	0x3df4b5f4	0.11948767
194	0xbe395b9f	-0.18101357
195	0xbd39b7b3	-0.045341205
196	0x3df4f246	0.119602725
197	0x3e7be337	0.24598394
198	0x3eaa601d	0.33276454
199	0x3c7d8036	0.015472462
200	0x3cfc3dd1	0.030791195
201	0xbe297169	-0.16547169
202	0x3beb53a3	0.007181601
203	0x3ad92dc1	0.0016569422
204	0x3e882f5e	0.26598638
205	0x00001b76	9.851e-42
206	0x3dae66ee	0.08515726
207	0x3e02935f	0.1275153
208	0x3d99da0d	0.07512293
209	0x3c7836b9	0.015149766
210	0x3d70e7a2	0.058814652
211	0x80001b98	-9.899e-42
212	0x80001b90	-9.888e-42
213	0x00001b5c	9.815e-42
214	0x80001b79	-9.855e-42
215	0x00001b93	9.892e-42
216	0x80001b6d	-9.839e-42
217	0x80001b99	-9.9e-42
218	0x00011b8f	1.01722e-40
219	0x80001b73	-9.847e-42
220	0xbcb2208d	-0.021744037
221	0xbddb4a62	-0.10707547
222	0x3bf542fe	0.0074847927
223	0xbdac1c33	-0.08403816
224	0x3e6d8dc4	0.2319861
225	0xbdf4066f	-0.119152896
226	0x3e4b6f12	0.19866589
227	0x3e92d3dd	0.28677264
228	0xbe1eceab	-0.15508525
229	0x3e59e490	0.21278596
230	0xbd024ea4	-0.03181328
231	0x3e925fb8	0.28588653
232	0x3e268d19	0.16264762
233	0x00007bd8	4.4427e-41
234	0x3d3c1e36	0.04592725
235	0x3dc27f12	0.09496893
236	0xbd946054	-0.07244936
237	0x3e629a51	0.2212918
238	0xbe2cf72f	-0.16891168
239	0x3d4b6367	0.049655344
240	0x3ef02ba7	0.46908304
241	0x3e539560	0.20662451
242	0x3da85dfa	0.082210496
243	0xbd40a9df	-0.047037
244	0xbdb07b12	-0.08617224
245	0x3d209812	0.039207526
246	0x3d9f5ded	0.07781587
247	0x00001b6c	9.837e-42
248	0x3dffd8c0	0.12492514
249	0x3c18fc6f	0.009337529
250	0x3ea6a652	0.32548767
251	0x3e826d77	0.2547414
252	0xbdce1020	-0.10061669
253	0xbd83afce	-0.064300165
254	0xbd91ee43	-0.07125523
255	0x3e69faef	0.2284963

conv1.lin_rel.bias f4 [120]
0	0x3db43deb	0.088008724
1	0x3c870a4c	0.016484402
2	0x3d355541	0.044270758
3	0x3ddfcec9	0.10928113
4	0xbe55cb13	-0.20878248
5	0xbe59adce	-0.21257707
6	0xbd42668e	-0.047461085
7	0x3e4a01f5	0.19727309
8	0x3e18b198	0.14911497
9	0xbe854a4b	-0.26033244
10	0xbd85d3c8	-0.06534535
11	0xbc4909cf	-0.012270405
12	0x3dec28de	0.11531232
13	0x3e786aea	0.24259534
14	0xbbf4d374	-0.0074714962
15	0xbdd2c380	-0.10291195
16	0x3c7c0b6e	0.015383584
17	0xbd72fea7	-0.059324887
18	0xbe19c03f	-0.15014742
19	0x3e1ecc1a	0.15507546
20	0x3d2350f7	0.039872136
21	0x3e2f6cdf	0.17131375
22	0x3e5ea2a2	0.21741727
23	0x3db5f57a	0.088847116
24	0x3e2bf2f3	0.16791897
25	0xbddf9946	-0.109179065
26	0x3e21001c	0.15722698
27	0x3caac8bb	0.020847669
28	0x3e46400b	0.19360368
29	0x3e828f47	0.25499937
30	0xbe44e385	-0.19227417
31	0x3e898d00	0.26865387
32	0x3e7397e4	0.2378841
33	0xbe48fd10	-0.19627786
34	0x3d76b06e	0.06022685
35	0xbe458410	-0.19288659
36	0x3de563a6	0.11200647
37	0x3d6141f6	0.054994546
38	0xbe8e5363	-0.27797994
39	0x3de5b40a	0.1121598
40	0xbc2a58f6	-0.0103971865
41	0x3e8cc2f7	0.27492496
42	0x3e95f777	0.29290363
43	0x3de67193	0.11252131
44	0x3e761ca9	0.2403437
45	0x3dedfdaf	0.11620652
46	0x3e908b9c	0.28231514
47	0xbcce574b	-0.025188109
48	0x3d8d6a4e	0.06905042
49	0xbccce3dd	-0.025010997
50	0x3b93fb0f	0.0045160125
51	0xbe07d461	-0.1326461
52	0xbdf04c65	-0.11733321
53	0x3e2e8836	0.17044148
54	0x3dfa6732	0.12226714
55	0xbdc32a7c	-0.095295876
56	0xbb3dcfe1	-0.0028963017
57	0x3e1db082	0.15399364
58	0xbe4c17f3	-0.19931011
59	0xbc48a79d	-0.012246993
60	0xbe646e8f	-0.223078
61	0x3e7b18ed	0.24521227
62	0x3e64dfae	0.22350952
63	0xbe366184	-0.17810637
64	0xbb441d1a	-0.0029924572
65	0xbe2af170	-0.16693664
66	0x3d957016	0.07296769
67	0xbe006d40	-0.12541676
68	0xbd72805e	-0.05920445
69	0x3cd84004	0.026397713
70	0x3d66dc9d	0.056362737
71	0xbdf7c27f	-0.12097644
72	0x3e05106a	0.12994543
73	0xbe2946f9	-0.1653098
74	0x3cd91284	0.026498087
75	0x3e86f2b2	0.26357037
76	0xbde38158	-0.11108655
77	0x3e69e988	0.22842991
78	0x3dce4b20	0.10072923
79	0xbd6f1c47	-0.058376577
80	0x3ddf2e9f	0.10897564
81	0xbe2f7b87	-0.17136966
82	0x3d56122f	0.052263435
83	0x3de7e859	0.11323614
84	0x3e80c94e	0.25153583
85	0xbb94d942	-0.0045425007
86	0x3cbf454f	0.023348479
87	0xbe01db5b	-0.12681334
88	0xbe89955c	-0.26871765
89	0x3da61f1f	0.08111405
90	0xbe5ecc3f	-0.21757601
91	0xbd63d7d1	-0.05562574
92	0xbdc79a5d	-0.09746239
93	0x3d52b838	0.051445216
94	0x3e07fa23	0.13279013
95	0xbe498e94	-0.19683295
96	0xbd7beb3b	-0.06150363
97	0xbc633d8b	-0.013869653
98	0xbe0c371b	-0.13692896
99	0x3db9094a	0.09034975
100	0x3e17b544	0.14815241
101	0xbdfd732e	-0.123754844
102	0x3e71cd41	0.23613454
103	0x3e4759db	0.19467871
104	0xbd1b4cd9	-0.037915085
105	0x3d5b9bda	0.05361543
106	0x3d0f8e88	0.035048038
107	0xbce88717	-0.028384728
108	0xbe1d4675	-0.15358908
109	0x3e936372	0.28786808
110	0x3e1662f2	0.14686182
111	0xbe513d7f	-0.20433615
112	0xbe495ad9	-0.19663562
113	0x3e874fa1	0.2642794
114	0x3d7bf446	0.061512254
115	0xbbc258ae	-0.0059309816
116	0x3e5f8fb6	0.21832165
117	0x3e02064a	0.12697712
118	0x3dd178ef	0.102281444
119	0x3e5f7239	0.21820916

conv1.lin_root.weight f4 [120, 14]
0	0xbd0e9060	-0.034805655
1	0x3eadfba9	0.33981064
2	0xbe6109dd	-0.21976419
3	0xbe9c49cc	-0.30525053
4	0x3e2c33d2	0.16816643
5	0xbd8d914b	-0.06912478
6	0x3e37c120	0.17944765
7	0x3cdf92f7	0.027291758
8	0x3dd5d97e	0.10441874
9	0x80001b96	-9.896e-42
10	0x3e3cb783	0.18429379
11	0xbc930b49	-0.017949717
12	0x3c7538ba	0.014967138
13	0x3e5bf837	0.21481405
14	0x3e9019a5	0.28144565
15	0x3e928cc2	0.28623015
16	0xbe8b4e71	-0.27208284
17	0xbe18c3bc	-0.14918417
18	0xbd03c5d9	-0.032171104
19	0x80001b60	-9.82e-42
20	0x00001b92	9.89e-42
21	0x3e2941ab	0.16528957
22	0x3c6392b5	0.013889958
23	0x80001bf5	-1.0029e-41
24	0x3da36160	0.07977557
25	0x3e7f2a91	0.24918582
26	0x3e297310	0.16547799
27	0xbddc9246	-0.10770087
28	0xbe0f27ae	-0.1397998
29	0x3e206a1c	0.15665478
30	0xbcdfd685	-0.02732397
31	0xbe95c557	-0.2925212
32	0xbe2797c8	-0.16366494
33	0x3c446b59	0.011988484
34	0xbda1aa4e	-0.07893811
35	0xbe05449a	-0.1301445
36	0x3dc54fbc	0.09634349
37	0x800124d2	-1.05044e-40
38	0x3e5a0cd0	0.2129395
39	0x3e17fd49	0.14842714
40	0xbe401c3b	-0.18760769
41	0x3e27dbe7	0.1639248
42	0x3e1f61c5	0.1556464
43	0x80001b89	-9.878e-42
44	0x00001b9f	9.909e-42
45	0x80001ef8	-1.111e-41
46	0x80001b83	-9.87e-42
47	0x00001ba2	9.913e-42
48	0x00001bac	9.927e-42
49	0x00001b67	9.83e-42
50	0x81008d87	-2.3611428e-38
51	0x00001b8d	9.883e-42
52	0xbe37df1c	-0.17956203
53	0x80001b5d	-9.816e-42
54	0x3e00b921	0.12570621
55	0xbe44d554	-0.19222003
56	0x3e9b7ef3	0.30370292
57	0x0000044b	1.54e-42
58	0x00001b61	9.822e-42
59	0x80001b81	-9.867e-42
60	0x80001b90	-9.888e-42
61	0x00001b5e	9.817e-42
62	0x00001b77	9.853e-42
63	0x80001b6a	-9.834e-42
64	0x80001b78	-9.854e-42
65	0x00001bee	1.0019e-41
66	0x3d0fc0c4	0.035095945
67	0x3d64419a	0.055726625
68	0xbe55d129	-0.2088057
69	0xbdee259a	-0.11628266
70	0x3d40f93e	0.047112696
71	0x3eca0c48	0.39462495
72	0xbe1d8bfe	-0.15385434
73	0x3dd92ccf	0.1060425
74	0x3d254302	0.040347107
75	0xbe09a0ef	-0.13440298
76	0x000036a3	1.96e-41
77	0x3e509b80	0.20371819
78	0x3e1ef2a7	0.15522252
79	0x00001b85	9.872e-42
80	0xbd98cbda	-0.074607566
81	0xbe32c82c	-0.17459172
82	0x3e8b9dd8	0.27268863
83	0xbd5b4cbc	-0.053539976
84	0x3e376324	0.17908913
85	0x3e6aae47	0.22918044
86	0x3dbd6d57	0.092493705
87	0xbe115f23	-0.14196448
88	0xbe16ae73	-0.14714985
89	0x3dbe59a4	0.09294441
90	0x3d7669e5	0.060159583
91	0x3e48d5d5	0.1961282
92	0xbe551b7d	-0.20811267
93	0x80001b6d	-9.839e-42
94	0x3e50b590	0.2038176
95	0x3dc8da10	0.09807217
96	0x3e846732	0.25859982
97	0x3e59f9a2	0.21286634
98	0xbd5f711d	-0.054551233
99	0xbdc8431b	-0.09778424
100	0xbe2a65dc	-0.16640419
101	0xbbcfdc32	-0.006343388
102	0xbd8bca99	-0.06825752
103	0xbb78cfb3	-0.0037965595
104	0x80001b74	-9.848e-42
105	0x3e5c45ea	0.21511045
106	0x3e78e6af	0.24306749
107	0x00001b87	9.875e-42
108	0x3bd05540	0.006357819
109	0x3e21f641	0.15816595
110	0xbdd7547f	-0.10514163
111	0xbdb7e6ae	-0.089795455
112	0xbd2351c1	-0.03987289
113	0xbdf77cc6	-0.120843455
114	0x3e75d781	0.2400799
115	0x3e14333d	0.14472671
116	0x3df517e7	0.1196745
117	0xbd7a662e	-0.061132602
118	0xba12f1cf	-0.00056054903
119	0xbdaedf80	-0.08538723
120	0x3cc8685f	0.02446383
121	0x80001b62	-9.823e-42
122	0xbe11ba52	-0.14231232
123	0x3e4a9a26	0.19785365
124	0xbe673aca	-0.2258102
125	0x3cd8d73d	0.026469821
126	0x3d0faa52	0.03507454
127	0xbe2b11c5	-0.16705997
128	0x3cbd9028	0.023140028
129	0xbd088f29	-0.033339653
130	0x3e533d7d	0.20628925
131	0x3cf04ba1	0.029332938
132	0x3e6e6daf	0.23284028
133	0x3d94dacc	0.07268295
134	0x3e37824b	0.17920797
135	0x80001b8f	-9.886e-42
136	0xbe5f3e06	-0.21801004
137	0xbd830f36	-0.06399386
138	0xbe411e2a	-0.18859163
139	0x3e5e37c9	0.21700968
140	0x3e120c92	0.14262608
141	0xbc25723c	-0.010098036
142	0xbcddd648	-0.027079716
143	0x3d9b3b03	0.07579615
144	0xbdbef34a	-0.093237475
145	0x80001b71	-9.844e-42
146	0x3df0208d	0.117249586
147	0x3d14fb6c	0.036372587
148	0x00001baa	9.924e-42
149	0x00001b75	9.85e-42
150	0x3d86b82d	0.065780975
151	0xbe94bad2	-0.29048783
152	0x3e303d3b	0.17210858
153	0xbe462643	-0.19350533
154	0x3e233ac9	0.15940394
155	0x3e70a031	0.23498608
156	0x3da6b771	0.081404574
157	0x80001fff	-1.1478e-41
158	0xbd1dd30f	-0.03853136
159	0x80001b5c	-9.815e-42
160	0xbd3bb1ad	-0.04582374
161	0xbd98e4c1	-0.07465506
162	0x3e92f43b	0.28701958
163	0x80001b74	-9.848e-42
164	0x3de2ba78	0.11070722
165	0xbe7b1831	-0.24520947
166	0x3e23e48e	0.16005155
167	0x3e703d78	0.23460948
168	0xbe3014cb	-0.17195432
169	0xbd65adec	-0.056074068
170	0x3e14f459	0.14546336
171	0xbe80c8ff	-0.25153348
172	0xbe1a3ee1	-0.15063049
173	0x3d066e7c	0.03282021
174	0x3e746d46	0.2386981
175	0xbd2871e2	-0.041124232
176	0x3cbe7622	0.02324969
177	0x00003ca3	2.1752e-41
178	0xbe7b7db6	-0.24559674
179	0x3e781207	0.24225627
180	0x3e84f6e3	0.2596961
181	0xbd414453	-0.0471843
182	0xbdd31e45	-0.10308508
183	0x3c81bbf0	0.015836686
184	0x3e2d17aa	0.16903558
185	0xbe127d2a	-0.14305559
186	0xbe08132f	-0.13288568
187	0x00001b66	9.829e-42
188	0x80001b95	-9.895e-42
189	0x3d0eafe8	0.034835726
190	0x3e676a39	0.22599114
191	0x80001b8b	-9.88e-42
192	0xbe7f631e	-0.24940154
193	0x3e754a47	0.23954116
194	0x3e7c6f2b	0.24651782
195	0x3dc6ea6b	0.097126804
196	0x3dd02b68	0.10164529
197	0x3e7c4ced	0.2463872
198	0x3e333f72	0.17504671
199	0xbec43e98	-0.38329005
200	0xbda4f818	-0.08055133
201	0xbd7c5355	-0.06160291
202	0xbd537515	-0.05162533
203	0xbe48f949	-0.19626345
204	0xbe4d583a	-0.20053187
205	0x80001b88	-9.876e-42
206	0xbdae7544	-0.085184604
207	0x3e3c5adb	0.18394034
208	0x3e3ce924	0.18448311
209	0x3da57a8e	0.08080016
210	0x80001b70	-9.843e-42
211	0x3d3e1efc	0.046416268
212	0xbc91003c	-0.017700307
213	0x80001b77	-9.853e-42
214	0x3caa2301	0.020768644
215	0x00001b73	9.847e-42
216	0x00001b89	9.878e-42
217	0x00001b6d	9.839e-42
218	0x3e470e3b	0.19439022
219	0x00001bc3	9.959e-42
220	0xbd83af85	-0.06429962
221	0x3d7e211d	0.062043298
222	0x3e4b7ceb	0.19871871
223	0xbe6cba60	-0.23117971
224	0xbe1e4b3c	-0.15458387
225	0x3e08f441	0.13374425
226	0xbe3e6eaa	-0.18596902
227	0x3e3a1aaf	0.18174241
228	0xbe026e5b	-0.1273741
229	0xbd87e6ae	-0.066357955
230	0xbd5f7c46	-0.054561876
231	0x3e8531d7	0.26014587
232	0xbdbd1653	-0.09232774
233	0x80001b6b	-9.836e-42
234	0x3e1d6391	0.15370013
235	0xbe42e546	-0.19032773
236	0xbb979e3f	-0.0046270187
237	0xbe4b2e4b	-0.19841878
238	0xbe3e9fa0	-0.1861558
239	0xbdab98ce	-0.083787546
240	0x3d525719	0.051352594
241	0x3d8f12b0	0.06985986
242	0xbe0c72bd	-0.13715644
243	0x3d19139c	0.037372217
244	0x3dee2c46	0.11629538
245	0x3c845381	0.016153099
246	0x3e690060	0.2275405
247	0x80001b75	-9.85e-42
248	0xbd736723	-0.05942453
249	0x3d3f6d9f	0.046735402
250	0xbe340c9c	-0.17582935
251	0x3e6a177b	0.2286052
252	0xbe7a6714	-0.24453384
253	0x3e3ecb33	0.18632202
254	0x3d292d61	0.041303042
255	0x3da5db29	0.08098442

conv2.lin_rel.weight f4 [120, 120]
0	0xbdab5dde	-0.08367513
1	0xbd9ab27b	-0.07553574
2	0x3d4b0c4d	0.049572278
3	0x3d10b50c	0.03532891
4	0xbddc622a	-0.10760911
5	0x3cf2717d	0.029595131
6	0xbcd57fc6	-0.026061904
7	0xbd106cbd	-0.03525995
8	0xbd94dd53	-0.07268777
9	0xbc870193	-0.016480243
10	0x3d7ede56	0.062223755
11	0x3d15120a	0.036394157
12	0x3d988163	0.074465536
13	0x3dcdd205	0.10049824
14	0x3d9211f7	0.07132333
15	0x3dc39eda	0.09551783
16	0xbd502790	-0.05081898
17	0xbdc94dee	-0.09829317
18	0x3d70a4f2	0.058751054
19	0xbdb851b4	-0.08999959
20	0xbc784197	-0.015152357
21	0x3dc7b640	0.09751558
22	0xbb3b4dde	-0.0028580348
23	0x3dba914d	0.09109745
24	0x3d049fc4	0.032378927
25	0x3db95d84	0.0905104
26	0x3c7f21f0	0.015572056
27	0x3c0f7e25	0.008758103
28	0x3d0f8a90	0.035044253
29	0xbd556764	-0.052100554
30	0xbd66bc83	-0.056332123
31	0x3da0bdca	0.078486994
32	0xbafa75ed	-0.0019108631
33	0xbde49c3f	-0.11162614
34	0x3ce865f7	0.028368933
35	0x3dc462f6	0.09589188
36	0x3d047f27	0.032347824
37	0x3cb98fe1	0.022651615
38	0xbd9f940a	-0.07791908
39	0x3d199540	0.03749585
40	0x3dc8ec40	0.09810686
41	0xbac2344f	-0.0014816615
42	0xbd1c2b94	-0.038127497
43	0x3da7a32f	0.08185422
44	0x3c843131	0.016136738
45	0xb964b4f5	-0.00021811186
46	0xbd34f5f5	-0.044179875
47	0xbd7f20c8	-0.062287122
48	0x3d6b34e6	0.057423495
49	0x3d8ca771	0.068678744
50	0x3d63b53f	0.05559277
51	0x3d2dd9f8	0.0424442
52	0xbc302365	-0.010750626
53	0x3ddf05d6	0.10889785
54	0x3db39b2d	0.08769832
55	0x3de2ea4f	0.11079847
56	0xbb0f0793	-0.0021824583
57	0x3d6609f1	0.056161825
58	0x3e034112	0.12817791
59	0xbc96a258	-0.018387958
60	0x3c2bc76b	0.010484557
61	0x3da89bbc	0.08232829
62	0xbd6ea47c	-0.058262333
63	0x3e0fc139	0.14038552
64	0x338245ad	6.066271e-08
65	0xbc2797ce	-0.010229064
66	0xbd4a1fd5	-0.049346764
67	0x3d9ab7b5	0.075545706
68	0x3c5781bc	0.01315349
69	0xbe480647	-0.19533645
70	0xbd776b00	-0.060404778
71	0x3cd0d7ba	0.025493491
72	0x3d017de0	0.031614184
73	0xbdad52d6	-0.08463065
74	0x3ca1351d	0.019678647
75	0x3dc768fc	0.09736821
76	0x3dad29a3	0.08455207
77	0x3b67d4b3	0.0035374581
78	0x3bc07d2b	0.005874296
79	0x3c786c23	0.015162501
80	0xbd067542	-0.03282667
81	0xbd273bd0	-0.040828526
82	0x3d530442	0.051517732
83	0x3d49a5b7	0.049230304
84	0xbc770815	-0.0150776105
85	0x80001b7f	-9.864e-42
86	0x3e49e418	0.19715917
87	0xbd123e8a	-0.035704173
88	0x3c71ea3c	0.0147653185
89	0x3dad3211	0.08456815
90	0xbe2547a3	-0.16140608
91	0xbd187e44	-0.03722979
92	0xbdc74995	-0.097308315
93	0xbd89fbcc	-0.067374796
94	0xbdfe160d	-0.124065496
95	0xbe06074d	-0.13088723
96	0xbde92383	-0.113837264
97	0x3da29af0	0.07939708
98	0xbda6dbf6	-0.08147423
99	0x3d17e99b	0.037088018
100	0x3e0a6405	0.13514717
101	0x3d4ce1d7	0.050020065
102	0x3c341b52	0.010992842
103	0xbdb32f2c	-0.08749232
104	0x3cbb7157	0.022881193
105	0x3dc5f5ef	0.09666049
106	0xbcdeb9ed	-0.027188266
107	0xbb27bb2a	-0.0025593736
108	0x3d8641b0	0.06555498
109	0x3e257c03	0.16160588
110	0x3db56ae2	0.08858277
111	0x3e4aca71	0.19803788
112	0x3cef3dd3	0.029204285
113	0x3d4b5149	0.049638066
114	0xbd91ef17	-0.07125681
115	0x3dc82bba	0.09773965
116	0x3de7beef	0.113157146
117	0xbd9406d3	-0.07227864
118	0xbaaf8ff4	-0.0013394342
119	0x3b183319	0.0023223816
120	0xbcf9e37b	-0.030503979
121	0xbade77dd	-0.0016972978
122	0x3db4e7dd	0.08833287
123	0x3d5eac07	0.054363277
124	0xbc92d907	-0.017925752
125	0x3b36a42c	0.002786885
126	0x3c979880	0.018505335
127	0xbd84b26a	-0.06479342
128	0xbdbcdf43	-0.09222271
129	0x3c571817	0.013128302
130	0xbcaa5257	-0.020791216
131	0x3d85a7ce	0.06526147
132	0xbbf04e03	-0.0073335185
133	0xbcbf29c8	-0.023335353
134	0x3d500bdb	0.050792556
135	0x3c29abc3	0.010355893
136	0xbc90e033	-0.017685032
137	0x3d133cd7	0.035946693
138	0x3d361240	0.044451
139	0xbd9e428b	-0.07727536
140	0x3de6fe9c	0.11279032
141	0xbd951ec5	-0.072812594
142	0xbc873a0e	-0.016507175
143	0x3c232b3b	0.009959037
144	0x3d8e858d	0.069590665
145	0x3d1812bc	0.03712724
146	0x3dbe614d	0.092959024
147	0xbd70bf7a	-0.058776356
148	0x3d828b67	0.06374245
149	0x3c9799fd	0.018506045
150	0xbcd1a26d	-0.025590146
151	0xbd61af70	-0.05509895
152	0x3d8e274c	0.06941089
153	0xbd56ec8b	-0.05247168
154	0x3a2c4412	0.00065714226
155	0xbda8de93	-0.08245578
156	0x3da2af3a	0.07943578
157	0xbd8fc667	-0.07020264
158	0x3da73713	0.081648014
159	0x3c8890c8	0.0166706
160	0xbcc8a2e0	-0.024491727
161	0xbc4bff61	-0.012451024
162	0x3ce25db8	0.02763258
163	0x3da520b1	0.08062876
164	0xb8c8e820	-9.57998e-05
165	0x3cc1b2f9	0.023644911
166	0xbc6122e7	-0.0137412315
167	0x3da0bf5c	0.07848999
168	0xbd62cdf0	-0.05537218
169	0xbcd8a1ab	-0.026444277
170	0xbd9a4a0c	-0.075336546
171	0x3d869399	0.06571121
172	0xbd804b23	-0.06264331
173	0xbcd6f96e	-0.026241984
174	0x3cae8a2b	0.021306118
175	0x3c6fb82d	0.014631313
176	0x3a63edfb	0.00086948246
177	0x3c814a74	0.015782572
178	0xbdc70473	-0.097176455
179	0xbde96da0	-0.113978624
180	0xbd446b2f	-0.04795378
181	0xbd5e4900	-0.054268837
182	0xbd567e0a	-0.052366294
183	0xbd81492b	-0.06312784
184	0xb5718d47	-8.998508e-07
185	0xbd86e8ef	-0.06587397
186	0xbcf6194e	-0.030041363
187	0x3ceea231	0.029130073
188	0xbd95686e	-0.07295309
189	0x3dca5dc9	0.09881169
190	0x3d8b114a	0.06790407
191	0xbc181ed9	-0.009284698
192	0x3d98676b	0.074416004
193	0xbdcb9a26	-0.09941511
194	0xbd1c7445	-0.03819682
195	0xbd6b240a	-0.057407416
196	0xbcdd268e	-0.026995923
197	0xbd12effb	-0.035873394
198	0x3d3532a3	0.044237744
199	0x3cf8853c	0.030336969
200	0xbc52160d	-0.01282264
201	0xbccd54bc	-0.025064819
202	0x3d84d5b6	0.064860746
203	0xbd83dbba	-0.06438394
204	0xbd8b72d3	-0.0680901
205	0x80001b9a	-9.902e-42
206	0xbd79b215	-0.060960848
207	0x19ace4dc	1.7876819e-23
208	0xbd5a2b3b	-0.053263884
209	0xbb8d693e	-0.0043155244
210	0xbc1811d8	-0.009281598
211	0x3c4c8285	0.01248229
212	0x3d046e31	0.03233165
213	0x3d9b179b	0.07572862
214	0x3caa80d1	0.020813378
215	0x3dc86971	0.09785736
216	0x3d3a6793	0.045508932
217	0x3d153499	0.036427114
218	0x3d218720	0.039435506
219	0xbcbcd393	-0.023050105
220	0xbd0d2eb0	-0.034468353
221	0x3d5cd324	0.053912297
222	0xbc41d133	-0.011829662
223	0x3d38f9b7	0.04516002
224	0xbd793acf	-0.0608471
225	0xbd8da6e8	-0.069166005
226	0xbd7775e1	-0.060415152
227	0x3d2a7f2b	0.041625183
228	0xbd70f327	-0.05882564
229	0xbda63098	-0.08114737
230	0xbdc880cd	-0.09790192
231	0x3da36d2d	0.07979808
232	0x3d9b57f6	0.075851366
233	0xbd443115	-0.04789837
234	0xbda1a8b7	-0.07893508
235	0xbd23c9a8	-0.039987236
236	0xbc8171c8	-0.015801325
237	0xbd49e99e	-0.04929506
238	0xbdba801b	-0.091064654
239	0x3bf686ef	0.0075234096
240	0xbc71d7d5	-0.014760931
241	0x3c25b468	0.010113813
242	0x3cfda911	0.030964406
243	0xbe01aed6	-0.12664351
244	0xbe0a983e	-0.13534638
245	0x3d464e2a	0.048414387
246	0xbd52b4f1	-0.05144209
247	0x3d5f193c	0.054467425
248	0xbd5d0a2d	-0.053964783
249	0x3c425ba1	0.011862666
250	0xbca28035	-0.019836525
251	0xbceab93f	-0.028652785
252	0x3d02fbaa	0.031978287
253	0x3de6f141	0.11276484
254	0x3b971f27	0.004611868
255	0x3dd25121	0.1026938

conv2.lin_rel.bias f4 [120]
0	0xbb970b15	-0.0046094754
1	0x3d74af3b	0.059737425
2	0x3d1e80bf	0.038697
3	0xbcb2ae2e	-0.021811571
4	0x3d68a961	0.056802157
5	0xb23382b6	-1.04488915e-08
6	0x3d76683e	0.060158007
7	0xb8a6c2bb	-7.951768e-05
8	0x3c83a449	0.016069548
9	0xbd2fe8fe	-0.042946808
10	0xbb20a3aa	-0.0024511614
11	0xbd617c2a	-0.055050053
12	0xbbb72200	-0.00558877
13	0xbb591c2a	-0.003312836
14	0x3ac52114	0.0015039765
15	0xbd10f335	-0.03538819
16	0x3ca09b00	0.01960516
17	0x3ab6547b	0.0013910675
18	0xbd648ff4	-0.055801347
19	0xbb59ba1a	-0.0033222497
20	0x3d718411	0.05896384
21	0xbc8be4b8	-0.017076835
22	0x3d65253a	0.055943705
23	0xbcafdbc5	-0.021467099
24	0x3d8f98ec	0.070115894
25	0xbd0b15a8	-0.0339562
26	0xbd87288e	-0.06599532
27	0x3d5b61e2	0.053560145
28	0x3dc31be3	0.09526803
29	0x3dba1710	0.0908643
30	0x3d449aef	0.04799932
31	0x3d3a90e1	0.045548324
32	0xbd5489c2	-0.05188919
33	0x3d632a21	0.0554601
34	0xbd86905e	-0.065705046
35	0xbd7dec55	-0.061992962
36	0xb9c2f98d	-0.00037188493
37	0xbb323979	-0.00271949
38	0x3d6e55bb	0.058187228
39	0xbd0f1583	-0.034932625
40	0x3cd18931	0.025578113
41	0xb08174d2	-9.419188e-10
42	0x3c616e1b	0.013759161
43	0xbcd5fbde	-0.026121076
44	0xbcfb4e94	-0.030677117
45	0xbd29abb6	-0.041423522
46	0x3bd0b514	0.0063692424
47	0x3d232660	0.03983152
48	0xbcd60fa8	-0.026130512
49	0x3d9fc0da	0.078004554
50	0x3bd555af	0.0065104584
51	0xbcfd2822	-0.030902926
52	0xbd702b21	-0.05863488
53	0x3cf32774	0.029681899
54	0xbd854126	-0.06506567
55	0x3dbb3c28	0.09142333
56	0x3d3aed01	0.04563618
57	0xbbdd3653	-0.0067508607
58	0xbc53e584	-0.012933139
59	0x3da89784	0.08232024
60	0x3dd461f5	0.10370246
61	0xbd81c036	-0.063354895
62	0xbbcce58f	-0.0062529515
63	0xbb5f5ba5	-0.0034081724
64	0xbd1f5994	-0.038903788
65	0xbd7a2ace	-0.061075978
66	0xbcc5e66a	-0.024157722
67	0x3c9939ad	0.01870426
68	0x3d514760	0.05109346
69	0x3d217221	0.039415482
70	0x3c9130e7	0.017723514
71	0xbdab53a6	-0.08365564
72	0x3d3a1a4f	0.045435246
73	0x3ddfe18f	0.10931694
74	0x3d51700b	0.051132243
75	0xbaedb9be	-0.001813702
76	0x3d2a23b7	0.041537967
77	0x3d2a5b2a	0.041590847
78	0x3d867c29	0.065666504
79	0xb154ca48	-3.0965044e-09
80	0xbdb3358a	-0.08750446
81	0x3cf619c7	0.030041588
82	0x3cce4eec	0.025184117
83	0x3d7013fe	0.058612816
84	0xbb89b087	-0.004201952
85	0xbc84c5c8	-0.01620759
86	0xbd60d91c	-0.05489455
87	0x3bcfb384	0.0063385386
88	0xbce497f5	-0.02790449
89	0xbd85eca8	-0.06539279
90	0xb9944da8	-0.00028286618
91	0x3b8a5cc2	0.0042224834
92	0x3daf565a	0.08561392
93	0xbcced8b4	-0.025249816
94	0xbbaf7f91	-0.0053557833
95	0xbd22eeda	-0.039778568
96	0x3e02420e	0.1272051
97	0x3d762bbd	0.060100306
98	0xbd45b52b	-0.04826848
99	0x3c4b81be	0.01242107
100	0xbd605822	-0.05477155
101	0x3d564d61	0.052319888
102	0xbbd61b05	-0.0065339827
103	0xba7e5bf3	-0.00097030326
104	0xbcaf50f0	-0.021400899
105	0x3d98df47	0.07464462
106	0xbd5c3c4d	-0.053768445
107	0xbc869105	-0.016426573
108	0x3d8e46a5	0.06947068
109	0x3ddc04a7	0.10743075
110	0x3d968e33	0.07351341
111	0x3c0e94bc	0.008702453
112	0xbc9bff6b	-0.019042691
113	0xbcc2bea0	-0.023772538
114	0x3ddd1246	0.10794501
115	0x3d8f917c	0.07010171
116	0x3dcdea96	0.10054509
117	0xbd7fbdc0	-0.06243682
118	0x3dab1523	0.08353641
119	0xb7119f79	-8.679804e-06

conv2.lin_root.weight f4 [120, 120]
0	0xbd67097f	-0.05640554
1	0x3d008167	0.031373408
2	0xbd51a4cb	-0.05118255
3	0x3d3ebfc6	0.04656961
4	0xbd133a22	-0.03594411
5	0x3d2b8bb8	0.041881293
6	0x3d6b0842	0.057380922
7	0xbda61ae1	-0.081105955
8	0x3d69a77b	0.057044487
9	0x3d99676d	0.0749043
10	0x3c23bb62	0.009993406
11	0xbd8a6783	-0.067580245
12	0x3db83ded	0.089961864
13	0xbc9b00cc	-0.018921278
14	0x3d3a3f46	0.0454705
15	0x3dee0f70	0.11624038
16	0x3d61529b	0.05501042
17	0xbc6eddc9	-0.014579245
18	0xbc4c78c1	-0.012479962
19	0xbda35062	-0.07974316
20	0xbc0c2f5d	-0.008556214
21	0x3d87af73	0.06625261
22	0xbd1b223a	-0.037874438
23	0x3de23e82	0.11047079
24	0x3dc68298	0.096928775
25	0xbc61a955	-0.013773282
26	0x3bf5dd8c	0.007503217
27	0xbd27701a	-0.040878393
28	0x3d9c8080	0.07641697
29	0x3c215d65	0.009848927
30	0x3a88e6ae	0.0010444724
31	0x3cb19ed3	0.021682179
32	0xbcebd11e	-0.028786238
33	0xbdb3a678	-0.08771986
34	0x3d52a683	0.05142833
35	0xbd4c646d	-0.04990046
36	0xbcf0b20f	-0.02938178
37	0xbdaefbdf	-0.08544134
38	0xbcb2bf12	-0.021819625
39	0xbb2dcd76	-0.002652017
40	0x3a155e9b	0.0005697996
41	0x3da17b16	0.07884805
42	0xbd85be60	-0.06530452
43	0xbd7af43d	-0.06126808
44	0x3d87c658	0.06629628
45	0x3cf95663	0.0304367
46	0xbd92ee75	-0.07174388
47	0x3d96316a	0.07333644
48	0xbd27a923	-0.040932786
49	0xbc7f0a4d	-0.015566421
50	0x3dc40866	0.095719144
51	0xbc98273d	-0.018573398
52	0x3d6e634a	0.05820016
53	0x3d2256c1	0.039633516
54	0x3b9f20a5	0.0048561865
55	0x3bd4413c	0.006477503
56	0xbad39e21	-0.0016145149
57	0x3d80b5ef	0.06284701
58	0x3e102565	0.14076765
59	0x3d37bfa5	0.0448605
60	0x3d8361b2	0.06415118
61	0xbc93cc17	-0.018041654
62	0xbcfe78e7	-0.03106351
63	0x3debe366	0.11517982
64	0x3492a6dd	2.7316028e-07
65	0x3da8deb8	0.08245605
66	0x3d89ee56	0.06734912
67	0xbd8b2873	-0.067948245
68	0x3d525be3	0.05135716
69	0xbe45d860	-0.19320822
70	0x3d87f791	0.066390164
71	0xbb44bba9	-0.003001908
72	0x3dbafa8f	0.091298215
73	0xbcceb500	-0.025232792
74	0x3dda1566	0.10648613
75	0x3dc2b826	0.0950778
76	0x3dde72be	0.10861729
77	0x3d89ef31	0.06735075
78	0x3c29605e	0.010337917
79	0xbd93d530	-0.07218397
80	0x3c939b34	0.018018343
81	0xbd2943e8	-0.041324526
82	0xbcf8b489	-0.030359523
83	0x3d7ffc0e	0.062496237
84	0x3cb17bc9	0.02166547
85	0x00001b7e	9.862e-42
86	0x3e416332	0.18885496
87	0xbb128846	-0.0022359057
88	0x3c6ae0b1	0.014335797
89	0x3d0537ba	0.032523848
90	0xbc919525	-0.017771313
91	0x3d7b2a61	0.061319713
92	0x3d135e4c	0.0359786
93	0xbc715e13	-0.014731902
94	0xbd61ea90	-0.055155337
95	0xbe317e6f	-0.17333387
96	0xbde14add	-0.11000607
97	0xbdbbc188	-0.091677725
98	0x3dcefdda	0.10107012
99	0xbd9bb8bc	-0.07603595
100	0x3db9ece0	0.090783834
101	0xbcaa0e68	-0.020758823
102	0x3dbd8b5c	0.09255096
103	0x3cf8ef55	0.03038756
104	0xbc81cc07	-0.015844358
105	0xbb37bf1b	-0.0028037492
106	0xbc89f888	-0.016842142
107	0x3d2f4a3f	0.042795416
108	0x3b94b54f	0.004538215
109	0x3dddfdae	0.10839401
110	0x3d379ff3	0.044830274
111	0x3e31bdd4	0.1735757
112	0xbd21a6ad	-0.039465595
113	0x3d8161f2	0.0631751
114	0x3b72c4ef	0.003704365
115	0x3cd12f23	0.025535172
116	0x3dcb69fd	0.09932325
117	0x3ca214fc	0.019785397
118	0xbd2d5ccb	-0.042324822
119	0xbd920927	-0.07130652
120	0xbd87cf3d	-0.066313244
121	0xbd69bac7	-0.05706289
122	0x3dae307c	0.085053414
123	0xbbd68cff	-0.0065475698
124	0xbc2dd1cd	-0.010609102
125	0x3d96500a	0.07339485
126	0xbba62657	-0.0050704884
127	0x3b0f5d45	0.0021875661
128	0x3d595bfc	0.05306624
129	0x3d9cfdd8	0.07665604
130	0x3c58e650	0.0132385045
131	0x3cf7c2d9	0.030244278
132	0xbc83b9a8	-0.016079739
133	0xbe045e3b	-0.12926571
134	0x3bad589d	0.0052901045
135	0xbd1a26bf	-0.037634607
136	0x3d79fd46	0.061032556
137	0xbd51fbca	-0.051265515
138	0xbc8f3294	-0.017480172
139	0x3da41ecb	0.08013686
140	0x80001b9b	-9.903e-42
141	0xbdf4de2b	-0.11956438
142	0xbce64ceb	-0.02811285
143	0xbc060697	-0.008180282
144	0xbdaca74b	-0.08430346
145	0xbbd09685	-0.0063655996
146	0xbd3ff87c	-0.046867833
147	0x3c190c3a	0.009341294
148	0x3d3c8003	0.04602052
149	0x3d04dfeb	0.032440107
150	0x3cf7f280	0.030267
151	0xbc9d646f	-0.01921293
152	0xbd5e2d19	-0.054242227
153	0xbcb5890c	-0.022160076
154	0x3d632d7a	0.05546329
155	0x3d93b051	0.07211364
156	0xbda79fff	-0.08184814
157	0xbcb6f7d7	-0.022334976
158	0xbda8a3d2	-0.08234371
159	0xbda38e0e	-0.07986079
160	0xbd5f1ba7	-0.05446973
161	0xbcc01d94	-0.023451604
162	0xbd1442d1	-0.036196534
163	0x3c869fbf	0.016433595
164	0xbd837289	-0.0641833
165	0x3d1ab7dd	0.037773002
166	0x3c2a0348	0.010376759
167	0x3c6f51c0	0.014606893
168	0xbb86a7cb	-0.004109358
169	0xbd180b40	-0.037120104
170	0xbbc31ff5	-0.0059547373
171	0x3bd4c2c1	0.006492943
172	0xbcf020c9	-0.029312508
173	0x3d6e8466	0.058231734
174	0x3d71ce3e	0.05903458
175	0x3c0937c5	0.008375113
176	0x39cbc614	0.00038866757
177	0xbd1f63da	-0.038913585
178	0xbcc929f2	-0.024556134
179	0xbcb4151e	-0.021982726
180	0xb9c6118c	-0.00037778576
181	0x3cdb0b96	0.026738923
182	0xbd9618d6	-0.07328956
183	0xbcd382ac	-0.025819145
184	0x94908078	-1.4590956e-26
185	0x3d9e8fc2	0.077422634
186	0x3cfa4d10	0.030554324
187	0x3aec82a8	0.001804431
188	0xbd6672f9	-0.05626199
189	0xba9a6fdb	-0.0011782603
190	0x3c218339	0.009857946
191	0xbd79b2ce	-0.060961537
192	0xbd3d2a82	-0.046183117
193	0x3d8a1532	0.06742324
194	0x3c0e4904	0.0086844005
195	0x3d1d5673	0.038412523
196	0xbce68842	-0.028141145
197	0xbcf9d7bc	-0.030498378
198	0x3c518a20	0.012789279
199	0xbae000eb	-0.0017090117
200	0x3dad5021	0.08462549
201	0xba7c5e05	-0.0009627047
202	0xbd2b8c36	-0.041881762
203	0xbd48cd5f	-0.049023982
204	0xbd19f2e4	-0.037585154
205	0x80001b71	-9.844e-42
206	0xbc55cf4d	-0.013049913
207	0xb68a294b	-4.1175276e-06
208	0x3cddeb36	0.027089696
209	0x3d334369	0.04376546
210	0xbae77bf4	-0.0017660842
211	0xbd7878ab	-0.060661953
212	0xbd447338	-0.047961444
213	0xbc729e0b	-0.014808188
214	0x3d08fb6c	0.0334429
215	0x3ca232e3	0.019799655
216	0xb88c7a29	-6.698474e-05
217	0x3d979735	0.07401887
218	0xbd59c9fe	-0.05317115
219	0x3ddb120f	0.10696804
220	0xbd7b197c	-0.0613036
221	0xbd8c3fe4	-0.06848124
222	0x3cffeccb	0.031240841
223	0x3d938126	0.072023675
224	0x3daa3ddd	0.08312581
225	0x3cb7df27	0.022445275
226	0x3da0a9f3	0.07844915
227	0xbb89e81b	-0.0042085773
228	0xbd25247f	-0.04031801
229	0xbe27d976	-0.16391549
230	0x3c7a67a0	0.015283495
231	0x3d71ae8a	0.059004344
232	0x3ca3eb8e	0.020009782
233	0xbd92cf28	-0.07168418
234	0xbc8c3e52	-0.01711956
235	0xbc81798f	-0.015805034
236	0x3b93c6a7	0.004509765
237	0xbcfed24f	-0.031106142
238	0xbcb4cc8e	-0.022070196
239	0x3d257a67	0.040399935
240	0xb9367335	-0.0001739979
241	0x3d38c6e7	0.045111563
242	0xbd8b61e3	-0.0680578
243	0xbb6a1266	-0.0035716533
244	0xbe141501	-0.14461137
245	0xbda348c9	-0.07972867
246	0x3cb45ee1	0.022017898
247	0x3bf519af	0.0074798684
248	0x3c34506d	0.011005503
249	0xbdae91ee	-0.08523928
250	0xbcadad57	-0.021200819
251	0x3dcbc2c0	0.09949255
252	0x3d90901a	0.07058735
253	0x3da265f8	0.07929605
254	0x3dbc08ab	0.09181341
255	0x3decb450	0.115578294

conv3.lin_rel.weight f4 [120, 120]
0	0xbcd58056	-0.026062172
1	0xbde87297	-0.11349981
2	0x3d97be89	0.074093886
3	0x3cc59cab	0.024122557
4	0xbd9c17c7	-0.07621723
5	0xb627381c	-2.49176e-06
6	0x3d8c19d6	0.06840865
7	0x2d885e59	1.5503309e-11
8	0x3ce5bac8	0.028043166
9	0x3d1b2941	0.03788114
10	0x3de57b8b	0.112052046
11	0x3e634848	0.22195542
12	0xbe036ead	-0.12835188
13	0xbde25c5a	-0.11052771
14	0xbda69b09	-0.08135039
15	0x3cbf55c8	0.023356333
16	0x3d3dd0e8	0.046341807
17	0x3db7b81e	0.089706644
18	0x3dd49790	0.10380471
19	0x39f8a525	0.00047425288
20	0x3ceff3e9	0.02929111
21	0xbdd34ee6	-0.10317783
22	0xbde96a8c	-0.11397275
23	0xbc80c099	-0.015716838
24	0xbe309f13	-0.17248182
25	0xbdf32b40	-0.11873484
26	0xbd3d6525	-0.046239037
27	0xbdcf56a6	-0.10123949
28	0xbd569ad6	-0.052393757
29	0x3d0199df	0.031640884
30	0x3db80146	0.08984618
31	0xbce084ab	-0.027407011
32	0x3d56835b	0.052371364
33	0x3ddf87c1	0.10914565
34	0x3d0674c9	0.03282622
35	0xbc1668f4	-0.009180296
36	0xb7c9130d	-2.3969938e-05
37	0xbb035427	-0.0020039172
38	0x3d98e81c	0.07466146
39	0xbe2a2b34	-0.16618043
40	0xbe0f7d80	-0.14012718
41	0xab98ce84	-1.0857569e-12
42	0xbc0c05dc	-0.008546319
43	0x3d4c0f87	0.049819496
44	0x3d14ddee	0.03634446
45	0x3dada389	0.084784575
46	0xbb8e1f1f	-0.004337206
47	0xbd7559bc	-0.05990003
48	0x3d42fb38	0.047602862
49	0x3d81e6ba	0.06342836
50	0x3baa21b9	0.0051920083
51	0xbd940afd	-0.07228658
52	0x3e4488ea	0.19192854
53	0x3d801f0e	0.06255923
54	0x3d5cd3f5	0.053913075
55	0xbd87d3ac	-0.0663217
56	0xbdaf82e1	-0.08569885
57	0x3df1388e	0.11778365
58	0xb9982c65	-0.00029024776
59	0xbd220523	-0.03955568
60	0x3d10df32	0.035369106
61	0x3bdb399a	0.0066902163
62	0x3ddf3261	0.10898281
63	0x3b236dec	0.0024937345
64	0x3da120d1	0.07867587
65	0x3dd3066a	0.10303958
66	0x3d8c0501	0.06836892
67	0xbd0850c1	-0.033280138
68	0x3d0fc291	0.035097662
69	0x3dc73df7	0.09728616
70	0x3dbab36f	0.091162555
71	0x3e0b146a	0.13582006
72	0x3c825533	0.015909767
73	0x3c0a205e	0.0084305685
74	0x3db43f15	0.088010944
75	0x3b35a782	0.002771825
76	0xbe330cfa	-0.17485419
77	0x3db99b4a	0.09062822
78	0x3dd61bcf	0.10454523
79	0xaeb93e22	-8.423863e-11
80	0x3cff24d3	0.031145489
81	0x3d8fa0fe	0.07013129
82	0x3d367b63	0.044551264
83	0x3c571798	0.013128184
84	0xbcb5ed68	-0.02220793
85	0xbd13e699	-0.036108587
86	0x3dc5a1b8	0.09649986
87	0xbd70de2c	-0.05880563
88	0x3d9be583	0.07612135
89	0xbe486ef7	-0.1957358
90	0xb489629d	-2.558999e-07
91	0x3ce886c8	0.028384581
92	0xbd9ac35b	-0.07556792
93	0x3aeaa0cd	0.0017900706
94	0xbbf973dd	-0.007612689
95	0x3dbc20d2	0.091859475
96	0x3d9bdf53	0.07610955
97	0x3d96b112	0.07357992
98	0xbe06eb28	-0.13175642
99	0x3bbfe8de	0.0058566174
100	0xbd60002a	-0.054687656
101	0x3cae4282	0.021271948
102	0xbd1a3697	-0.037649717
103	0x3a8e2130	0.0010843631
104	0x3d8a81bf	0.06763028
105	0x3d48cabd	0.04902147
106	0x3c0d3152	0.008617716
107	0x3de43dc2	0.11144592
108	0xbc579bbe	-0.01315969
109	0x3d80ea07	0.06294637
110	0xbc559bb5	-0.013037612
111	0xbdaa4f85	-0.083159484
112	0xbd7e226b	-0.062044542
113	0x3d404128	0.046937138
114	0x3d93637a	0.07196708
115	0x3cbbf1f7	0.022942526
116	0xbcfcc75f	-0.030856786
117	0x39e68255	0.00043966123
118	0x3d76681b	0.060157876
119	0x8e07e0ee	-1.6748334e-30
120	0x3da84173	0.082156084
121	0xbd53a3a7	-0.051669743
122	0x3defeaa7	0.11714678
123	0xbd7a5684	-0.061117664
124	0xbe21a2d7	-0.15784775
125	0xb76c5b52	-1.4087958e-05
126	0x3d538bf8	0.051647156
127	0x357cc390	9.4161896e-07
128	0xbd494a91	-0.049143378
129	0x3dc18c6a	0.0945061
130	0x3c9937a0	0.018703282
131	0x3e38da48	0.18052018
132	0xbe009bb7	-0.125594
133	0xbdb7c3db	-0.08972903
134	0x3c5945ac	0.01326124
135	0x3d43d00b	0.047805827
136	0x3dae2a35	0.08504144
137	0x3d6c3de4	0.05767621
138	0x3deaa674	0.1145753
139	0x3b1d3527	0.002398798
140	0x3dd153bf	0.102210514
141	0xbe2ddbf2	-0.16978434
142	0xbd2ff5d6	-0.042959057
143	0x3dbf164a	0.09330423
144	0xbdb4ad0e	-0.0882207
145	0xbe0f2566	-0.1397911
146	0xbe1be5d3	-0.1522439
147	0xbd5af3ac	-0.05345504
148	0x3d75e080	0.060028553
149	0xbcfb9b5b	-0.030713728
150	0xbd2e5c74	-0.04256864
151	0x3d083614	0.033254698
152	0xbd7e65e0	-0.062108874
153	0xbba64bc4	-0.00507495
154	0x3d9bfc37	0.076164655
155	0x3b3e62f3	0.0029050678
156	0x35409cc1	7.175368e-07
157	0x3a35c4e5	0.00069339416
158	0x3c98353b	0.01858007
159	0xbdd72729	-0.10505516
160	0xbe7b27e0	-0.2452693
161	0xa990b563	-6.42635e-14
162	0x3d950b92	0.072775975
163	0xbc91e538	-0.017809495
164	0x3de2e63b	0.11079069
165	0x3de93bfa	0.11388393
166	0xbd09d821	-0.033653382
167	0x3c0649a6	0.00819627
168	0xbd075aae	-0.033045463
169	0x3d2b1b82	0.04177428
170	0xbd9d8f0c	-0.076933
171	0x3dc3462b	0.09534868
172	0x3e4bc008	0.19897473
173	0xbd8c5391	-0.068518765
174	0x3b779c5e	0.003778241
175	0x3dd11f35	0.102110304
176	0x3d89ccdb	0.06728526
177	0xbd03a6ce	-0.0321415
178	0xbb4c935f	-0.003121577
179	0xbe048f86	-0.12945375
180	0xbc9a812b	-0.01886042
181	0xbc43c07a	-0.011947745
182	0xbc9d92e8	-0.01923509
183	0x3b1f53d4	0.002431144
184	0x3db5f6a7	0.08884936
185	0xbd45bb5a	-0.048274375
186	0xbd650d79	-0.05592105
187	0x3d910c5f	0.07082438
188	0x3d3aa815	0.04557045
189	0x3dd89443	0.10575154
190	0xbb0d0d78	-0.002152292
191	0x3dfcfcd0	0.12352908
192	0xbd90c34e	-0.070685014
193	0x3d747ded	0.059690405
194	0x3c90cdc1	0.017676236
195	0x3b0f97d5	0.0021910567
196	0xbdb77d5f	-0.089594595
197	0xbd297f81	-0.041381363
198	0x3d81c57a	0.06336494
199	0x2f3b60c3	1.7041928e-10
200	0xbd3255e7	-0.043538954
201	0x3bd6b843	0.0065527274
202	0x3d2880ae	0.041138344
203	0x3cba8e9b	0.022773078
204	0xbd4606b2	-0.04834623
205	0xbc4859d3	-0.012228447
206	0x3e0eb34b	0.13935582
207	0xbd141845	-0.036155958
208	0x3d005964	0.03133525
209	0xbe11d612	-0.14241818
210	0xb6e506bb	-6.8255154e-06
211	0x3bacafd0	0.005269982
212	0xbd42f504	-0.047596946
213	0x3a987af1	0.0011633319
214	0x3d4ee544	0.050511613
215	0x3de379c3	0.111072086
216	0x3d856f4a	0.06515367
217	0xbcad1fa2	-0.021133248
218	0xbdf77468	-0.120827496
219	0x3d8fecf9	0.07027621
220	0x3c23a067	0.009986973
221	0x3d373d90	0.044736445
222	0xbca30bec	-0.019903146
223	0x3b0eceee	0.002179082
224	0x3d014d23	0.031567704
225	0xbd0d8278	-0.034548253
226	0x3d9a8b01	0.07546044
227	0x3ddc86f1	0.107679255
228	0x3d1877d9	0.03722367
229	0x3e076872	0.13223436
230	0x3d973aa2	0.0738423
231	0xbe378404	-0.17921454
232	0xbc46abec	-0.01212595
233	0x3cdd4700	0.027011395
234	0x3d8720c9	0.0659805
235	0xbcbb4edc	-0.022864752
236	0xbd11509e	-0.035477273
237	0x3c83fd15	0.01611189
238	0x3da9b8af	0.08287179
239	0xa225fce2	-2.2495545e-18
240	0xbd5e142b	-0.054218452
241	0xbcc37040	-0.023857236
242	0x3da2e433	0.07953682
243	0x3c335acd	0.010946942
244	0xbdffb5d8	-0.12485856
245	0xb52f71bf	-6.53581e-07
246	0xbd4d291a	-0.050088026
247	0x2e8968cb	6.248654e-11
248	0xbdb8b587	-0.090189986
249	0xbd26e996	-0.04075011
250	0x3d13fe93	0.036131453
251	0x3e2f7b9b	0.17136995
252	0xbe5e3bbf	-0.21702479
253	0xbddf7934	-0.109117895
254	0xbd11b217	-0.03557023
255	0xbc828558	-0.015932724

conv3.lin_rel.bias f4 [120]
0	0xbda2046a	-0.07910998
1	0x3d9e8b6a	0.07741435
2	0x3d74ee94	0.05979784
3	0xbc3f1f41	-0.011665166
4	0x3d80c7e6	0.062881276
5	0x3d624380	0.055240154
6	0x3c3cbc4e	0.011519505
7	0x3d9101cf	0.07080423
8	0xbd82b873	-0.06382837
9	0x3ac6ff86	0.0015182353
10	0x3daffd85	0.08593277
11	0x3d71dc90	0.059048235
12	0x3c6a9966	0.0143188
13	0xbd6eb81a	-0.05828104
14	0xbd97b784	-0.0740805
15	0x3d5bf137	0.053696837
16	0x3cd5da89	0.026105182
17	0xbd8af2e8	-0.06784612
18	0x3daad04d	0.083405115
19	0x3c208709	0.00979782
20	0x3d93c86d	0.072159626
21	0xbd755c09	-0.059902225
22	0x3daec064	0.08532789
23	0x3d8d1990	0.06889641
24	0xbd6edc66	-0.058315657
25	0x3dc2d15a	0.09512587
26	0x3d4f2fac	0.050582573
27	0x3d1fab73	0.038981866
28	0xbd58ace1	-0.052899245
29	0x3c0c126a	0.008549312
30	0x3d50e4a7	0.05099931
31	0xbd085296	-0.033281885
32	0xbc404249	-0.011734554
33	0xbb034dbd	-0.002003535
34	0x3d9d8db8	0.07693046
35	0xbd25926a	-0.040422834
36	0xbd17b4f7	-0.037037816
37	0x3d8a2db5	0.06746999
38	0x3c03b58a	0.008038888
39	0xbdb02817	-0.086013965
40	0xbd75325b	-0.059862476
41	0xbc2c16e2	-0.010503503
42	0x3ca522f1	0.020158263
43	0xbd8dc762	-0.06922795
44	0x3d0693f9	0.03285596
45	0xbdc5513b	-0.09634634
46	0x3d37105f	0.044693347
47	0xbb8e102e	-0.004335425
48	0x3dc26bc8	0.09493214
49	0x3d8d9a15	0.069141544
50	0x3d1fe287	0.039034393
51	0xbd959dbd	-0.07305477
52	0x3cbce59e	0.023058709
53	0x3d25f4f6	0.040516816
54	0x3d9c366c	0.07627568
55	0xbcd56454	-0.026048817
56	0xbd3e251f	-0.04642212
57	0xbc4085cf	-0.011750652
58	0xbd18b7cc	-0.037284657
59	0xbd36a375	-0.04458948
60	0xbd417aa3	-0.047236096
61	0xbdc9e940	-0.09858942
62	0x3c586390	0.013207331
63	0x3d9a3905	0.07530407
64	0xbd1012d1	-0.035174195
65	0x3d90fd34	0.07079545
66	0xbba41a91	-0.00500805
67	0xbd76794d	-0.060174275
68	0xbba17eea	-0.0049284594
69	0x3db4a256	0.088200256
70	0xbdb25626	-0.08707838
71	0xbd9574f4	-0.07297698
72	0xbda7e27f	-0.081974976
73	0x3d62925d	0.055315364
74	0x3d1e2f62	0.038619407
75	0x3d269698	0.04067096
76	0xbb0d496a	-0.002155865
77	0x3d9a30e5	0.07528857
78	0xbc63119d	-0.01385918
79	0x3c90972a	0.017650206
80	0xbcc3dbfc	-0.023908608
81	0x3ae49c9a	0.001744169
82	0xbd9878dc	-0.07444927
83	0xbdc1e098	-0.09466666
84	0xbc9ed046	-0.019386422
85	0xbd8351a7	-0.06412058
86	0xbd831f02	-0.06402399
87	0x3d8521bc	0.06500575
88	0x3d118241	0.03552461
89	0xbd9e92db	-0.07742854
90	0x3d35ff79	0.04443309
91	0x3d1b38b4	0.037895873
92	0xbd837427	-0.06418639
93	0xbd3ae8c6	-0.045632146
94	0xbdae705c	-0.085175246
95	0x3d69cd23	0.0570804
96	0x3c90645d	0.017625982
97	0x3da2ce1e	0.0794947
98	0xbd6627b6	-0.056190215
99	0x3d34aa99	0.044108007
100	0xbc1df79a	-0.009641552
101	0xbd7d5c4c	-0.0618556
102	0x3cd38440	0.025819898
103	0xbd487c58	-0.04894671
104	0xbd5aeae2	-0.053446658
105	0x3da85283	0.08218863
106	0x3ccf0ca3	0.02527458
107	0x3c2d011f	0.010559349
108	0x3d8f42fc	0.06995198
109	0x3c225130	0.009907052
110	0xbdb41dd6	-0.08794753
111	0xbc95bbd7	-0.018278046
112	0x3d592654	0.05301507
113	0xbd6d49d0	-0.05793172
114	0x3cda8e77	0.02667926
115	0x3cec2848	0.028827801
116	0xbc6a4f4a	-0.014301131
117	0x3caabdae	0.0208424
118	0xbdb181ae	-0.086673126
119	0xbd9e8648	-0.07740456
