pretrained_GNN_models/GNNrestrictedgraph_272trainvalid_fold3_1487_19.30715_2.89396.pt (torch, 251216 bytes, 10 tensors)

conv1.lin_rel.weight f4 [120, 14]
0	0x3e36ed47	0.17863952
1	0x00001b92	9.89e-42
2	0x00001b62	9.823e-42
3	0x00001b7f	9.864e-42
4	0x00001b89	9.878e-42
5	0x80001b8e	-9.885e-42
6	0x00001b8f	9.886e-42
7	0x00001b94	9.893e-42
8	0x80001b67	-9.83e-42
9	0x80001b76	-9.851e-42
10	0x3d10b7df	0.035331603
11	0xbce7ab7d	-0.028280014
12	0xbe3c7f9c	-0.18408054
13	0xbd10761a	-0.03526888
14	0x3d80a8d5	0.06282202
15	0xbdd7bcbe	-0.105340466
16	0x3da78e5a	0.08181448
17	0x3e18c24b	0.14917867
18	0xbd0f8cff	-0.035046574
19	0xbe1fc4f2	-0.15602472
20	0xbdbceb5a	-0.09224577
21	0xbdc7c753	-0.09754815
22	0xbded7f5e	-0.11596559
23	0x80001b94	-9.893e-42
24	0xbda1aa9a	-0.07893868
25	0xbe205744	-0.15658289
26	0xbe7f76ef	-0.24947713
27	0x3c9bd4c7	0.019022359
28	0xbdf1f836	-0.118149206
29	0xbe4a172a	-0.19735399
30	0x3d4f5708	0.05062011
31	0x3e0cbbed	0.13743563
32	0x80001b61	-9.822e-42
33	0x80001b59	-9.81e-42
34	0x3d647534	0.055775836
35	0x3d1e40ab	0.03863589
36	0x3e180177	0.14844309
37	0x80001bda	-9.991e-42
38	0x3e7c0efc	0.24615091
39	0x3e7ba4d5	0.24574597
40	0xbe09263c	-0.13393492
41	0x3cd08332	0.025453184
42	0xbd070c4e	-0.03297072
43	0xbd6dd220	-0.05806172
44	0x3cfafc5f	0.030637918
45	0x3e948f57	0.2901561
46	0x80001b77	-9.853e-42
47	0x80001b9c	-9.904e-42
48	0x80001b5b	-9.813e-42
49	0x80001b76	-9.851e-42
50	0x00001b62	9.823e-42
51	0x80001b68	-9.832e-42
52	0x3d1f8512	0.038945265
53	0x3e8e1281	0.27748492
54	0x3cbe3059	0.023216413
55	0xbc046cc7	-0.008082575
56	0x3e2b0276	0.16700158
57	0x3e688311	0.22706248
58	0xbe8af6d4	-0.2714144
59	0x3e7e7502	0.24849322
60	0xbdc3daed	-0.09563241
61	0xbdbe9fa3	-0.09307792
62	0x3e2b26c0	0.16714
63	0xbdc79bc7	-0.09746509
64	0x3db816bd	0.08988712
65	0x00001b98	9.899e-42
66	0xbdba20e1	-0.090883024
67	0xbdc03d3d	-0.0938668
68	0x3e4ef3e1	0.2021022
69	0x3e5a9aa6	0.21348056
70	0x3dc5c9b8	0.096576154
71	0x3d6e5604	0.0581875
72	0xbe2b69fc	-0.16739649
73	0xbd513e49	-0.05108479
74	0x3e6455fd	0.22298427
75	0xbe05f17d	-0.13080402
76	0x3e28c64d	0.16481896
77	0xbca6cd14	-0.02036146
78	0xbcbc636e	-0.02299663
79	0x80001b69	-9.833e-42
80	0xbc3bf51d	-0.011472014
81	0xbcf36760	-0.029712379
82	0xbe2a60de	-0.16638514
83	0xbe655058	-0.2239393
84	0xbdf3be14	-0.11901489
85	0x00001b9b	9.903e-42
86	0x80001b93	-9.892e-42
87	0x00001b8c	9.882e-42
88	0x00001b5d	9.816e-42
89	0x00001b79	9.855e-42
90	0xb60deedc	-2.1149672e-06
91	0x00001bd4	9.983e-42
92	0x80001b9d	-9.906e-42
93	0x80001b80	-9.865e-42
94	0x80001b81	-9.867e-42
95	0x80001b96	-9.896e-42
96	0x3c59c035	0.013290455
97	0xbdb633a7	-0.08896571
98	0xbd907841	-0.070541866
99	0xbe9a2741	-0.30108073
100	0xbe643696	-0.22286448
101	0x3e643bd4	0.22288448
102	0xbd8f29a9	-0.06990368
103	0x3e6eba04	0.23313147
104	0x3e7020c3	0.23449998
105	0x3cc35966	0.02384634
106	0x3d82322a	0.06357224
107	0x00001b74	9.848e-42
108	0xbd9f670b	-0.07783326
109	0xbe1c40d8	-0.15259111
110	0x3e819f18	0.2531669
111	0xbded6276	-0.115910456
112	0x3de318a2	0.11088683
113	0xbe6cf6a3	-0.2314096
114	0xbec12ddd	-0.37730303
115	0xbcab7e72	-0.020934317
116	0x3e497c5b	0.19676344
117	0x3e3e6ca6	0.18596134
118	0xbb451b75	-0.003007618
119	0xbde48563	-0.11158254
120	0x3e81166d	0.25212422
121	0x00001b6b	9.836e-42
122	0xbd94ea02	-0.07271196
123	0xbcf60bdd	-0.030034954
124	0x3d592852	0.053016968
125	0xbcb3ce64	-0.021949
126	0xbd51b350	-0.051196396
127	0x3e94ee7f	0.29088208
128	0xbe82e2a9	-0.25563553
129	0x3e3433b9	0.17597856
130	0x3e834648	0.25639558
131	0x3de3ecdf	0.11129164
132	0x3e778501	0.2417183
133	0xbe043871	-0.12912156
134	0xbe195a6b	-0.14975898
135	0x00001b84	9.871e-42
136	0xbd1026d4	-0.03519328
137	0xbe959ee0	-0.29222775
138	0x3e351dd1	0.17687155
139	0x3e6e0335	0.23243411
140	0x3d65ea4c	0.056131646
141	0x00001b80	9.865e-42
142	0x00001b62	9.823e-42
143	0x00001b76	9.851e-42
144	0x80001b74	-9.848e-42
145	0x00001b8f	9.886e-42
146	0x80001b79	-9.855e-42
147	0x80001b6b	-9.836e-42
148	0x00001b5a	9.812e-42
149	0x00001b8b	9.88e-42
150	0xbd66aa8d	-0.056314994
151	0xbd47d5d4	-0.048787907
152	0x3c71b95e	0.014753668
153	0xbb6c8c17	-0.0036094242
154	0xbdfd3b08	-0.12364775
155	0x3e2d1c0c	0.1690523
156	0x3e3ec3cd	0.1862938
157	0x3e601ea6	0.21886691
158	0xbe029908	-0.1275369
159	0xbe046f7a	-0.1293315
160	0xbd80e2d3	-0.06293263
161	0x3e6586e1	0.22414733
162	0xbe05efca	-0.13079754
163	0x00001b5d	9.816e-42
164	0x3d4cce64	0.050001517
165	0x3d91dfc0	0.07122755
166	0x3e973722	0.2953425
167	0x3cbac8d6	0.022800844
168	0xb23cc940	-1.0988799e-08
169	0x244266eb	4.215422e-17
170	0x1dbd30a1	5.0078165e-21
171	0x204d9bcb	1.7415723e-19
172	0x9fd91b64	-9.194839e-20
173	0x1389a0a1	3.4742054e-27
174	0x80001b8d	-9.883e-42
175	0x1f54dcc9	4.5075375e-20
176	0xa100ccae	-4.363898e-19
177	0x80001bd2	-9.98e-42
178	0x25b03bc4	3.0571632e-16
179	0x25a00151	2.7756468e-16
180	0xa8e8f34f	-2.5862692e-14
181	0x29d8d991	9.630069e-14
182	0xbcbfe77c	-0.02342581
183	0x3e5fd963	0.2186027
184	0xbe85ccfd	-0.26132956
185	0x3e352424	0.17689568
186	0x3ddbd466	0.10733871
187	0x80001b98	-9.899e-42
188	0x3ccc0d76	0.024908762
189	0x3e2973ac	0.16548032
190	0x3e33e085	0.17566116
191	0x80001b89	-9.878e-42
192	0x3e5823ac	0.21107358
193	0x3dc871de	0.097873434
194	0x3cf9a99f	0.03047639
195	0xbdf274d7	-0.11838692
196	0xbe118b2f	-0.1421325
197	0x80001b93	-9.892e-42
198	0x3d6d179e	0.05788385
199	0x00001b68	9.832e-42
200	0x3e499165	0.1968437
201	0x80001b7f	-9.864e-42
202	0x00001b8d	9.883e-42
203	0x00001b6f	9.841e-42
204	0x80001b6b	-9.836e-42
205	0x80001b96	-9.896e-42
206	0x00001b8e	9.885e-42
207	0x00001b9c	9.904e-42
208	0x3e89b656	0.26896924
209	0xbe2478f2	-0.16061762
210	0x3cf7fba8	0.030271366
211	0xbe05967d	-0.13045688
212	0xbd6a5f50	-0.057219803
213	0xbe7c11c3	-0.2461615
214	0x3d9813bf	0.07425641
215	0x3d942859	0.07234258
216	0x3e0b9a5b	0.136331
217	0xbb958ebe	-0.0045641353
218	0x3e8ad3a9	0.2711461
219	0x80001b8c	-9.882e-42
220	0xbe7bdf44	-0.24596888
221	0x3e21e303	0.15809254
222	0xbd975992	-0.07390131
223	0x3d9659e4	0.07341364
224	0xbe090a69	-0.13382877
225	0xbe64befc	-0.2233848
226	0xbd7c15c6	-0.061544202
227	0x3e2d02de	0.16895625
228	0x80001b93	-9.892e-42
229	0x80001b67	-9.83e-42
230	0x00001b82	9.868e-42
231	0x00001b58	9.809e-42
232	0x80001b73	-9.847e-42
233	0x80001ba7	-9.92e-42
234	0xbdac5418	-0.08414477
235	0x3e1a73f8	0.15083301
236	0xbdc7df70	-0.09759414
237	0xbe091a1b	-0.13388865
238	0x3e3969d2	0.18106773
239	0xbdc895f6	-0.09794228
240	0xbe46a539	-0.19398965
241	0x3e945f41	0.28978923
242	0xbe43b711	-0.19112803
243	0x3e5b784f	0.21432613
244	0xbdb40c48	-0.08791405
245	0x3eade0f2	0.33960682
246	0xbdb76990	-0.08955681
247	0x00001b90	9.888e-42
248	0xbd5c825b	-0.053835254
249	0x3db885ae	0.090098724
250	0xbd7225b2	-0.05911798
251	0x3e8023f6	0.25027436
252	0x3d9f05bf	0.07764768
253	0x3d06d90b	0.032921832
254	0xbe51931a	-0.20466271
255	0xbdc7c168	-0.09753686

conv1.lin_rel.bias f4 [120]
0	0xbe1740fd	-0.14770885
1	0x3d626384	0.055270687
2	0xbda0bda9	-0.07848675
3	0xbe5a1184	-0.21295744
4	0xbd135992	-0.035974093
5	0x3de8f9ab	0.113757454
6	0xbdebba71	-0.1151017
7	0x3df9117b	0.12161537
8	0x3e2c11b5	0.1680363
9	0x3db28354	0.08716455
10	0x3c3cc471	0.011521445
11	0xbe10b7e8	-0.14132655
12	0xb02fbb7d	-6.3931066e-10
13	0x3e3255a4	0.17415482
14	0xbe14a5a8	-0.14516318
15	0xbe1552c2	-0.14582351
16	0xbda348d0	-0.07972872
17	0x3dfe93a7	0.12430506
18	0x3e185d5a	0.14879361
19	0x3e81e7da	0.253722
20	0x3dd3418f	0.10315239
21	0x3dcc5c4c	0.09978542
22	0x3cf1e12a	0.029526312
23	0x3cb39bcc	0.021924876
24	0xbe827503	-0.25479898
25	0xbe1e5be4	-0.15464741
26	0xbdc3d63f	-0.095623486
27	0x3e4f8e02	0.20269015
28	0xbe853f5a	-0.26024896
29	0x3daee173	0.08539095
30	0x3e42ce2b	0.1902396
31	0xbdf4b490	-0.11948502
32	0xbce1683f	-0.027515529
33	0x3e429e80	0.19005775
34	0x3db26e2a	0.087124184
35	0xbe0d2ff6	-0.13787827
36	0xbe08ba95	-0.13352425
37	0xbd03b22d	-0.032152344
38	0xbe7e25b1	-0.24819066
39	0xbe01a4ec	-0.12660569
40	0xbe36257d	-0.17787738
41	0xbe7d3b8f	-0.24729751
42	0x3e5488db	0.20755331
43	0x3d1477b2	0.036246963
44	0x3d350504	0.044194236
45	0x3df0229c	0.11725351
46	0x3e3f5456	0.18684515
47	0xbe27fea6	-0.16405734
48	0x3dcd300a	0.10018928
49	0xbe20774a	-0.15670505
50	0xbe05ed01	-0.13078691
51	0x3e025f63	0.127317
52	0x3e8d0a84	0.27547085
53	0x3d5a91f7	0.05336186
54	0xbb1e5043	-0.0024156726
55	0x3c86fcf2	0.016478036
56	0xbded2d86	-0.115809485
57	0xbdf44750	-0.11927664
58	0x3db785ad	0.089610435
59	0xbe147bd1	-0.14500357
60	0xbe4c3119	-0.19940604
61	0xbe1734b2	-0.14766195
62	0xbc4841de	-0.012222735
63	0x3e6aca8a	0.22928825
64	0x3e352153	0.17688493
65	0xbd11c17c	-0.03558491
66	0xbe4573f2	-0.19282511
67	0x3e585311	0.21125437
68	0x3e7ae5a3	0.24501662
69	0x3d7fa225	0.062410492
70	0x3d5025dd	0.05081736
71	0xbe5fa8c4	-0.21841723
72	0xbe4da15d	-0.20081086
73	0x3d7621aa	0.0600907
74	0x3e6760be	0.22595498
75	0x3dd97ce7	0.10619526
76	0xbe738473	-0.23780994
77	0x3d9766ba	0.073926404
78	0x3c413c45	0.0117941545
79	0x3e8bd645	0.27311912
80	0xbe0a35d3	-0.13497095
81	0xbe0b76ec	-0.13619584
82	0xb249d98a	-1.17492025e-08
83	0xbe6fd888	-0.23422444
84	0xbd98090f	-0.07423603
85	0xbe6fc1d3	-0.23413782
86	0x3dcf1d67	0.1011303
87	0x3dd8f31b	0.10593244
88	0xbe36a6e2	-0.17837098
89	0xbd6ecba0	-0.05829966
90	0x3e8eab6f	0.27865168
91	0x3d9c00d3	0.07617345
92	0x3d12ad06	0.03580954
93	0xbd2b3380	-0.04179716
94	0x3e3ba377	0.18324076
95	0xbe3a9e42	-0.18224433
96	0x3d7a56a5	0.061117787
97	0xbd0e6178	-0.034760922
98	0xbe6eb04a	-0.23309436
99	0x3e82b39d	0.2552766
100	0xbe3f4cbb	-0.18681614
101	0x3e9627b9	0.2932718
102	0xbc212d1c	-0.009837415
103	0xbe3041d6	-0.17212614
104	0xbc91f6ed	-0.017817939
105	0x3e72c34a	0.2370731
106	0xbc91517b	-0.017739048
107	0xbe37f258	-0.1796354
108	0xbe49aac7	-0.19694053
109	0xbe3cf2ed	-0.18452044
110	0xbd53caa4	-0.051706925
111	0xbe34d68d	-0.1765997
112	0xbe58e05b	-0.21179335
113	0x3e35036b	0.17677085
114	0xbe2d2f1c	-0.16912502
115	0xbe3011f7	-0.17194353
116	0x3d7c103b	0.061538916
117	0x3e16fbcd	0.14744492
118	0xbe71e03a	-0.23620692
119	0x3db6ecb8	0.08931869

conv1.lin_root.weight f4 [120, 14]
0	0xbe0867b6	-0.13320813
1	0x3d02dedc	0.031950817
2	0x3ba3b221	0.0049956
3	0xbcaf211c	-0.021378092
4	0x80001b80	-9.865e-42
5	0x3e9b7814	0.3036505
6	0x00001b6b	9.836e-42
7	0x00001b6a	9.834e-42
8	0x00001b5f	9.819e-42
9	0x80001b7c	-9.86e-42
10	0x3cd7b2e6	0.026330423
11	0xbd5d9217	-0.0540944
12	0xbe0d4620	-0.13796282
13	0x3cd1be8c	0.025603555
14	0x3d5b38fd	0.053521145
15	0x3ead2c78	0.3382299
16	0xbd1455f9	-0.036214802
17	0x3dbc2993	0.09187617
18	0x3d45ed3a	0.04832194
19	0x3e2b4281	0.16724588
20	0x3e45b864	0.1930862
21	0xbe29176c	-0.16512841
22	0x3eaf2790	0.3420987
23	0x00001b5e	9.817e-42
24	0xbd9c0048	-0.07617241
25	0xbd9b69c3	-0.07588532
26	0x3da79cc5	0.08184198
27	0x3e083f75	0.13305457
28	0xbe8cd27d	-0.2750434
29	0x3e96ab8a	0.2942775
30	0xbe45f687	-0.19332324
31	0xbce8133b	-0.028329482
32	0xbd1a8c01	-0.037731174
33	0x80001b6f	-9.841e-42
34	0x3dbfd720	0.09367204
35	0x3e6c6abc	0.23087591
36	0x3e9bb4e4	0.30411446
37	0x80001b61	-9.822e-42
38	0x3d608d7f	0.05482244
39	0x3e81557a	0.25260526
40	0x3b16125a	0.0022899122
41	0x3e45e402	0.1932526
42	0x3e6e5c70	0.2327745
43	0xbd8dc2df	-0.06921934
44	0x3d2a86e2	0.04163254
45	0x3e3f71af	0.1869571
46	0x80001b93	-9.892e-42
47	0x80001b9f	-9.909e-42
48	0x00001b79	9.855e-42
49	0x00001b66	9.829e-42
50	0x00001b87	9.875e-42
51	0x80001b6b	-9.836e-42
52	0x3e18125c	0.14850754
53	0xbe1839e5	-0.14865835
54	0xbe3faecb	-0.18719022
55	0xbe8399f6	-0.257034
56	0xbd9a9258	-0.07547444
57	0x3e3a4770	0.18191314
58	0xbd3cba91	-0.04607636
59	0xbdb1a5ed	-0.08674226
60	0x3d83f21f	0.06442665
61	0xbe7b7a98	-0.24558485
62	0xbd18f102	-0.037339218
63	0x3e64494e	0.22293589
64	0xbd6b0039	-0.05737326
65	0x80001b59	-9.81e-42
66	0x3e5f9b2d	0.21836539
67	0xbdbc7bea	-0.09203322
68	0x3e789f4f	0.24279521
69	0xbdac42a9	-0.08411152
70	0x3de12db3	0.109950446
71	0x3e94cf45	0.29064384
72	0x3e049d3f	0.1295061
73	0x3d6a2579	0.057164643
74	0x3e11fc64	0.14256436
75	0x3db1650b	0.086618505
76	0x00001b73	9.847e-42
77	0xbc880b00	-0.016606808
78	0xbdf3f4a3	-0.11911895
79	0x00001bac	9.927e-42
80	0xbe7a2305	-0.24427421
81	0xbdc4a64f	-0.09602033
82	0x3e908a94	0.28230727
83	0x3e66c6f5	0.22536834
84	0x80001b96	-9.896e-42
85	0x80001b65	-9.827e-42
86	0x3d1c2e61	0.038130168
87	0x00001b99	9.9e-42
88	0x3e7689dd	0.24076028
89	0x00001b6e	9.84e-42
90	0x80001b82	-9.868e-42
91	0x00001b6d	9.839e-42
92	0x80001b73	-9.847e-42
93	0x80001b68	-9.832e-42
94	0x80001b5b	-9.813e-42
95	0x00001c5f	1.0178e-41
96	0x3e45315f	0.19257115
97	0xbe5604a6	-0.2090021
98	0xbe3435cd	-0.17598648
99	0x3bdfd8a5	0.006831246
100	0x3e375968	0.179052
101	0x3d982ad2	0.07430042
102	0x3e87455b	0.26420102
103	0x3cfd3458	0.030908749
104	0x3d57678b	0.05258898
105	0xbd1882ce	-0.03723412
106	0x3d9de54e	0.07709752
107	0x00001b9f	9.909e-42
108	0x3e52c78f	0.20583938
109	0xbe436fee	-0.19085667
110	0x3d69c5cc	0.0570734
111	0x3dbfd537	0.093668394
112	0xbdb5e271	-0.08881081
113	0x3dbe1376	0.09281056
114	0xbdbda97f	-0.092608444
115	0xbe832067	-0.2561066
116	0xbe48a4c8	-0.19594109
117	0xbce11936	-0.027477842
118	0x00001b99	9.9e-42
119	0x3ab94f09	0.0014137934
120	0xbe0a3c39	-0.13499536
121	0x00001bf4	1.0028e-41
122	0x3df6df9d	0.120543696
123	0x3d02f725	0.031973977
124	0x3da68dee	0.0813254
125	0x3d1a21c4	0.037629858
126	0xbd8dfc30	-0.069328666
127	0x3e96fff9	0.29492167
128	0x3e534412	0.20631436
129	0x3e50cf61	0.20391609
130	0xbe58c6b4	-0.21169549
131	0x3e0d99c9	0.13828196
132	0x3c52aa7d	0.01285803
133	0x3d229ec1	0.03970218
134	0xbcdae54c	-0.026720665
135	0x80001b78	-9.854e-42
136	0xbe68748b	-0.22700708
137	0x3dcd8c5a	0.100365356
138	0x3e84fe1a	0.25975114
139	0x3cd254c7	0.02567519
140	0xbcc9abef	-0.024618117
141	0x3ca27f86	0.019836199
142	0xbc40c6ff	-0.011766194
143	0x3e5bbc20	0.21458483
144	0x80001b77	-9.853e-42
145	0xbcf90ed8	-0.030402586
146	0x80001b6c	-9.837e-42
147	0x00001b5a	9.812e-42
148	0x80001b7f	-9.864e-42
149	0x00001b7c	9.86e-42
150	0xbd6c247f	-0.057651993
151	0xbd0b0c79	-0.03394744
152	0xbd9a5c02	-0.0753708
153	0xbe6f58fb	-0.23373787
154	0x3e61a912	0.22037151
155	0x3d2ecee7	0.042677786
156	0x3e8fa531	0.2805572
157	0xbcde851f	-0.027163086
158	0x80001b6f	-9.841e-42
159	0x80001b89	-9.878e-42
160	0xbd93c969	-0.0721615
161	0x00001ba7	9.92e-42
162	0x80001b84	-9.871e-42
163	0x80001b95	-9.895e-42
164	0xbe5fbce1	-0.21849395
165	0x3e3799e9	0.17929806
166	0xbd67e343	-0.056613218
167	0x3e293915	0.16525681
168	0xae18e518	-3.4764275e-11
169	0x9da9e418	-4.496977e-21
170	0x1f466292	4.2009666e-20
171	0xa09002b2	-2.4396332e-19
172	0x1eaf5f2e	1.8568211e-20
173	0x800028d7	-1.465e-41
174	0x80001b5f	-9.819e-42
175	0x1e39b403	9.831044e-21
176	0x1f47f834	4.2345198e-20
177	0x80001b80	-9.865e-42
178	0xabd33dc5	-1.5009596e-12
179	0xab2fd1c4	-6.24636e-13
180	0xa89e1bcf	-1.7553584e-14
181	0xa92cbdfa	-3.835645e-14
182	0xbe247d59	-0.16063441
183	0xbe5f60c9	-0.21814264
184	0x39b42283	0.0003435799
185	0x3e288ef8	0.16460788
186	0x3d10263d	0.035192717
187	0x80001b67	-9.83e-42
188	0x00001b84	9.871e-42
189	0x3e9bfd1d	0.30466548
190	0x3e97df78	0.2966268
191	0x80001b8d	-9.883e-42
192	0x3e2ce82d	0.16885443
193	0x3d85c50d	0.06531725
194	0xbd69ea0a	-0.057107963
195	0x3df8b5cc	0.1214405
196	0x3ad489bb	0.0016215363
197	0x00001ba2	9.913e-42
198	0x80001c56	-1.0165e-41
199	0x80001b9c	-9.904e-42
200	0x00001b76	9.851e-42
201	0x80001b90	-9.888e-42
202	0x3c35a8f2	0.011087643
203	0x00001b75	9.85e-42
204	0x00001b92	9.89e-42
205	0x80001b96	-9.896e-42
206	0x80001b5b	-9.813e-42
207	0x80001b99	-9.9e-42
208	0xbe6b251e	-0.22963378
209	0xbe6e1e21	-0.23253681
210	0x3e7cc667	0.2468506
211	0x3dd0b26f	0.101902835
212	0x3ce421b1	0.027848097
213	0xbc27b12f	-0.010235115
214	0xbcb0fd03	-0.02160502
215	0x80001b63	-9.825e-42
216	0x80001b9a	-9.902e-42
217	0x3d67a86f	0.056557115
218	0x8000213a	-1.192e-41
219	0x80001b97	-9.897e-42
220	0xbdaeee15	-0.08541504
221	0xbdd1a500	-0.102365494
222	0x3e6ef6f3	0.23336391
223	0xbdb94b86	-0.09047608
224	0x3de9b21b	0.11410924
225	0x3dfe0adb	0.12404414
226	0xbda27e06	-0.07934193
227	0xbc3dfd4c	-0.011596035
228	0x80001b78	-9.854e-42
229	0x80001b85	-9.872e-42
230	0x00001b7b	9.858e-42
231	0x00001b85	9.872e-42
232	0x00001b95	9.895e-42
233	0x00001b63	9.825e-42
234	0x3d659f3a	0.056060053
235	0x3e7b7073	0.24554615
236	0x3d4da5f6	0.0502071
237	0xbd973730	-0.07383573
238	0xbcd70844	-0.026249059
239	0x3d2db7ef	0.04241174
240	0x3c892770	0.016742438
241	0xbe0ebb51	-0.13938643
242	0xbdb2da6c	-0.08733067
243	0xbdfefdd8	-0.124507606
244	0x80001b97	-9.897e-42
245	0x3dab532b	0.083654724
246	0x3e253839	0.16134728
247	0x00001b5c	9.815e-42
248	0x3e04c363	0.12965159
249	0xbd2dcdf5	-0.042432744
250	0xbe339642	-0.17537788
251	0xbe5d3093	-0.21600561
252	0x3e5a270b	0.21303956
253	0x3e6d5f26	0.23180827
254	0xbdd774e2	-0.105203405
255	0xbcc5e42a	-0.024156649

conv2.lin_rel.weight f4 [120, 120]
0	0xbce88935	-0.028385738
1	0x3dd1f014	0.102508694
2	0x3d9830e1	0.07431198
3	0xbd88da9c	-0.066823214
4	0xbd1c8bf8	-0.038219422
5	0x3bd5efcd	0.0065288306
6	0x3daf4a5a	0.08559103
7	0xbd1b1abe	-0.0378673
8	0xbd85ab77	-0.06526845
9	0xbc66bacc	-0.014082622
10	0x3d30ea80	0.043192387
11	0xbd31c965	-0.043404955
12	0x27e7a47e	6.4293722e-15
13	0x3d9f0165	0.07763938
14	0x3d958ee5	0.073026456
15	0xbc92e1a4	-0.01792986
16	0xbe01f2ec	-0.12690324
17	0xbdc4899f	-0.09596562
18	0xbd805453	-0.062660836
19	0xbd92baa7	-0.07164507
20	0xbdff24d6	-0.12458198
21	0x3d0b0bdf	0.033946868
22	0x3c595b6d	0.0132664265
23	0xbe02c29f	-0.12769555
24	0x3c293570	0.010327682
25	0x3dee38aa	0.116319016
26	0xbda1cf5f	-0.07900881
27	0x3c3e2091	0.011604444
28	0xbb7fb56d	-0.003901805
29	0x3d56ac5e	0.052410476
30	0xbbedb2aa	-0.0072539644
31	0xbc840684	-0.016116388
32	0xbdd62290	-0.10455811
33	0x3d3d9931	0.046288673
34	0xbb76182d	-0.003755103
35	0x3d584822	0.052803166
36	0xbd96d353	-0.07364526
37	0xbde2f7be	-0.11082409
38	0xbd4244bc	-0.04742883
39	0xbd41bce9	-0.0472993
40	0xbddc1aae	-0.10747276
41	0x3bc2d76d	0.005946091
42	0x3ca56b01	0.020192625
43	0xbd39dfe4	-0.045379534
44	0xbe0a5cd8	-0.1351198
45	0xbd8c1d0d	-0.068414785
46	0x3c8566f4	0.016284443
47	0xbdbb1df4	-0.091365725
48	0xbcfab5eb	-0.030604323
49	0xbdfc82ed	-0.123296596
50	0xbc0b45b4	-0.008500505
51	0x3cc9ccc0	0.024633765
52	0x3dc4e797	0.09614485
53	0x3dca0915	0.098650135
54	0xbb20fb7f	-0.0024563966
55	0xbd4b22ce	-0.04959374
56	0xbd905619	-0.07047672
57	0x3dbb2641	0.09138156
58	0xbe8d9c71	-0.27658418
59	0xbe008466	-0.12550506
60	0x3dda3f33	0.106565855
61	0x3d7bc1d8	0.06146416
62	0xbcd74046	-0.026275765
63	0x3d979001	0.074005134
64	0xbd6e60c7	-0.058197763
65	0xbdfdf3d5	-0.12400023
66	0xbd8dd709	-0.0692578
67	0x3dba77b7	0.09104865
68	0x3bce2221	0.0062906896
69	0x3d84e47b	0.06488892
70	0xbd281c50	-0.041042626
71	0xbda490d1	-0.08035434
72	0xbce6b29e	-0.028161343
73	0xbd38e3fd	-0.0451393
74	0x3d9a7475	0.07541744
75	0xbd975f92	-0.073912755
76	0x3d850c88	0.06496531
77	0xbdb46232	-0.08807792
78	0x3c89e23f	0.016831515
79	0x3b972f45	0.0046137893
80	0x3df3aca7	0.11898165
81	0xbdd571da	-0.10422106
82	0x00001b6c	9.837e-42
83	0xbd192438	-0.037388057
84	0xbe1c41c3	-0.15259461
85	0xbc623567	-0.013806677
86	0xbdb9637e	-0.0905218
87	0x3dff4aba	0.12465425
88	0xbd80c380	-0.06287289
89	0x3d3ea2ad	0.04654186
90	0xbd423210	-0.047411025
91	0x3d8f8bc1	0.07009078
92	0xbbcb8144	-0.006210478
93	0x3da17b75	0.07884876
94	0x3dcd054c	0.10010776
95	0xbc89d3ed	-0.016824687
96	0x3e06678e	0.1312544
97	0x3db13f5d	0.08654664
98	0xbc84ba48	-0.016202107
99	0xbd7929d0	-0.06083089
100	0x3cd644b0	0.0261558
101	0x3e07a327	0.13245831
102	0x3dad7984	0.08470443
103	0x3c9e7e5f	0.019347368
104	0xbd756054	-0.05990632
105	0x3d3bd193	0.045854162
106	0xbd21da8f	-0.039515074
107	0x3df1dd19	0.11809749
108	0xbdedabf0	-0.1160506
109	0xbdd279f6	-0.102771685
110	0xbd906f98	-0.07052535
111	0x3d0b3076	0.033981763
112	0x3cfece2d	0.031104172
113	0x3d01d3e3	0.03169621
114	0xbdc7caf8	-0.0975551
115	0x3da89457	0.082314186
116	0xbe0dc684	-0.13845259
117	0xbdd113ae	-0.10208832
118	0xbddc145d	-0.107460715
119	0xbe02f1c5	-0.1278754
120	0xbd5d8905	-0.05408575
121	0x3cf4991a	0.02985816
122	0x3db0f76f	0.08640944
123	0x3d0888f9	0.033333752
124	0x3bdaa063	0.0066719516
125	0xbbe6e1d1	-0.0070459624
126	0x3ddf49b6	0.10902731
127	0xbc23f2dd	-0.010006634
128	0xbd13bf02	-0.03607083
129	0x3db5b2e4	0.08872011
130	0x3e35da94	0.17759162
131	0xbdbc0f2d	-0.09182582
132	0x2688c623	9.490601e-16
133	0xbd4be0ad	-0.049774814
134	0xbdb6ce49	-0.089260645
135	0x3dbf4d50	0.09340918
136	0x3e242d1a	0.1603283
137	0xbc89b3ea	-0.016809423
138	0xbc94201f	-0.018081723
139	0xbd87345d	-0.066017844
140	0xbd7d66aa	-0.061865486
141	0xb9c634c6	-0.00037804822
142	0x3e366a97	0.17814098
143	0x3ce16d4d	0.027517939
144	0xbd4feaf5	-0.05076118
145	0xbd8e0135	-0.06933824
146	0xbd95acfd	-0.073083855
147	0xbd8d22d3	-0.06891408
148	0xbc7e1071	-0.01550685
149	0x390f4f72	0.00013667138
150	0xbd94ace2	-0.07259537
151	0xbe476abe	-0.19474313
152	0x3d5999c8	0.053125173
153	0x3d9bf272	0.07614602
154	0xbd444134	-0.047913745
155	0xbd2cac7f	-0.042156693
156	0xbcc47474	-0.02398131
157	0xbbbf6018	-0.0058403127
158	0xbd37ab97	-0.044841375
159	0x3d3de61d	0.04636203
160	0x3dff60f9	0.12469668
161	0xbd20b7ae	-0.03923767
162	0x3d935323	0.071935914
163	0x3d1a0bb8	0.037608832
164	0x3de62977	0.112383775
165	0xba9f16a0	-0.001213748
166	0xbd8b9b40	-0.06816721
167	0x3d8272da	0.063695624
168	0xbd71e454	-0.05905564
169	0x3d848bdf	0.06471991
170	0x3da3f934	0.08006516
171	0x3d30011f	0.04296982
172	0x3db15316	0.086584255
173	0x3d898915	0.067155994
174	0x3b19f761	0.0023493397
175	0xbe2bf2d1	-0.16791846
176	0xbcadadd0	-0.021201044
177	0x3c8aefc7	0.016960038
178	0xbc478499	-0.01217761
179	0xbd6f9749	-0.058493886
180	0xbdcc9fbb	-0.09991404
181	0x3d6ff1bb	0.05858014
182	0x3d2f993b	0.04287074
183	0x3d30d00a	0.04316715
184	0x3b3c6e03	0.0028752096
185	0x3e175d25	0.14781626
186	0xbd9e4515	-0.0772802
187	0x3d27dcd0	0.040982068
188	0xbccbf8ed	-0.02489897
189	0x3d1fe266	0.03903427
190	0x3d5ee18a	0.05441431
191	0x3b4b2a9a	0.0031000734
192	0xbc740fbb	-0.014896329
193	0xbdc597b9	-0.096480794
194	0xbd9e2c3a	-0.07723279
195	0xbd9231af	-0.07138383
196	0xbbbf2532	-0.0058332914
197	0xbcd62811	-0.026142152
198	0xbd96c2cc	-0.07361373
199	0xbc08fd33	-0.008361149
200	0x3d92d178	0.07168859
201	0xbd7a0d52	-0.06104786
202	0x80001c7f	-1.0222e-41
203	0xbd888d98	-0.06667632
204	0xbc6615dc	-0.014043298
205	0xbd5302da	-0.05151639
206	0x3d2c9f8a	0.042144336
207	0x3db92153	0.09039559
208	0x3e0e03e1	0.13868667
209	0x3d486977	0.048928704
210	0x3e309906	0.17245874
211	0xbd9e9afd	-0.077444054
212	0xbc8b0145	-0.016968379
213	0xbc0fa291	-0.008766786
214	0xbcb2a7e2	-0.021808568
215	0x3d0bb3c0	0.03410697
216	0x3dd60951	0.10450996
217	0x3de67cb4	0.11254254
218	0x3c8f56f8	0.017497525
219	0x3c77d741	0.015127004
220	0xbe02e88f	-0.12784027
221	0x3cbf2554	0.02333323
222	0xbd16a5f2	-0.03677935
223	0x3c3eeb07	0.011652715
224	0x3c0a0e56	0.0084262695
225	0xbc675140	-0.014118493
226	0x3d608696	0.05481585
227	0x3dda92ed	0.10672555
228	0x3d1bc4eb	0.038029592
229	0x3d69995b	0.057031017
230	0xbd9d7ae9	-0.07689459
231	0x3da22f9e	0.079192385
232	0x3d42fa2c	0.047601864
233	0x3dc48189	0.09595019
234	0xbd98f74a	-0.07469042
235	0x3d278e6a	0.0409073
236	0xbda3e880	-0.0800333
237	0xbd7dc401	-0.061954502
238	0x3d435bec	0.047695085
239	0x3dbfdd20	0.09368348
240	0x3c40f57f	0.011777281
241	0x3d219aca	0.03945426
242	0xbc32d890	-0.01091589
243	0x3d88129c	0.066441745
244	0xbdafe18f	-0.08587944
245	0xbd0c42e7	-0.03424349
246	0x3da7fd22	0.08202578
247	0xbd491e01	-0.04910088
248	0xbd98d1fd	-0.07461927
249	0x3dad3da8	0.084590256
250	0x3e4b4b47	0.19852935
251	0x3d61d28e	0.05513244
252	0x26c39885	1.3572184e-15
253	0xbd807687	-0.06272607
254	0xbe23879b	-0.15969698
255	0x3d43aa10	0.047769606

conv2.lin_rel.bias f4 [120]
0	0xbd442f4e	-0.047896676
1	0x3d6be102	0.05758763
2	0xbd4a9d87	-0.049466636
3	0xbd3fe054	-0.046844795
4	0xbda83a85	-0.08214287
5	0x3c2a79f3	0.0104050515
6	0x3bc87fc2	0.0061187455
7	0x3db055bf	0.08610105
8	0x3dc4f8a0	0.09617734
9	0xbd4ec1ba	-0.05047772
10	0x3c08b4dc	0.0083439015
11	0xb42477f7	-1.5317333e-07
12	0x3c0625eb	0.008187751
13	0x3d1d7aea	0.038447298
14	0xbae3bf3c	-0.0017375718
15	0x3d5ee517	0.054417696
16	0x3dc3ce6f	0.095608585
17	0xbcee4682	-0.029086355
18	0xbc7011cf	-0.014652683
19	0x3d7d59b4	0.061853126
20	0xb817f008	-3.6224752e-05
21	0x3d291cd9	0.041287277
22	0xbc2974c3	-0.01034278
23	0x35df7446	1.6648635e-06
24	0x3d93a9ba	0.07210107
25	0x3d6e9586	0.058248065
26	0xbda014ca	-0.07816465
27	0xbcf0fba0	-0.02941686
28	0x3da13993	0.078723095
29	0x3af27c26	0.0018500134
30	0x3dbea8e1	0.09309555
31	0xbc851fff	-0.016250608
32	0x3dad290f	0.08455097
33	0x3da89c6d	0.08232961
34	0xbb217102	-0.0024634008
35	0x3d920928	0.07130653
36	0xbcee0c8c	-0.029058717
37	0x3c191637	0.009343675
38	0xbcbc8805	-0.023014078
39	0xba364274	-0.00069526513
40	0xbd53957d	-0.051656235
41	0x3dce9589	0.10087115
42	0xba0015f3	-0.0004886083
43	0xbceac2bd	-0.028657312
44	0xbcb6f040	-0.022331357
45	0xbb198a89	-0.002342852
46	0xb88acdc5	-6.61868e-05
47	0x3da7b057	0.08187931
48	0xbd7b1e41	-0.06130815
49	0xbbec53e6	-0.00721215
50	0xbca4e4bd	-0.020128602
51	0x3cb0dda5	0.021590063
52	0x3d8a86f3	0.06764021
53	0xbd86932f	-0.06571042
54	0xbd9efb8f	-0.07762825
55	0xbd211f24	-0.03933634
56	0x3d8ac0bf	0.06775045
57	0xbd383b1e	-0.044978254
58	0xbc99c8ca	-0.018772501
59	0x3dd4e966	0.1039608
60	0xbd54eda1	-0.051984433
61	0x3d16db77	0.03683039
62	0x3d69b31e	0.057055585
63	0xbabc5f25	-0.0014371617
64	0x3c47a7e4	0.012186024
65	0xbc80a252	-0.0157024
66	0xbc640f9d	-0.013919738
67	0xbd946096	-0.07244985
68	0x3d39bba8	0.04534498
69	0x3d80fc09	0.06298072
70	0xbaeef67f	-0.001823142
71	0x3c0cdb9f	0.008597284
72	0x3d828d83	0.063746475
73	0xbd9b445b	-0.07581397
74	0xbd5f29e6	-0.054483317
75	0xbdcbcbaa	-0.09950955
76	0xbd41c4dd	-0.047306884
77	0xbd3cae7c	-0.04606484
78	0x3d2d4a55	0.042307217
79	0x3ae79916	0.0017669525
80	0xba2b676b	-0.0006538543
81	0xb5f24866	-1.8051476e-06
82	0x3ca0efd7	0.019645615
83	0xbbf860f5	-0.0075799176
84	0x3c7c5e0c	0.015403282
85	0xbb3f1467	-0.0029156448
86	0x3d0490a7	0.032364514
87	0x3b2e481c	0.0026593274
88	0x3ce21d16	0.02760176
89	0xbcfb4d89	-0.03067662
90	0xbd8fb3b9	-0.07016701
91	0xb99ed5ce	-0.00030295405
92	0x3dc83460	0.09775615
93	0x3d87659a	0.06611176
94	0xbd18fb5b	-0.037349086
95	0x3c495d3c	0.012290295
96	0x3d1c6d45	0.038190145
97	0x3d2c9169	0.04213086
98	0xbd400405	-0.046878833
99	0x3c82f5a5	0.015986273
100	0xbbfc3022	-0.0076961676
101	0x3d900d14	0.070337445
102	0xbd8003ea	-0.062507465
103	0xbd58f74b	-0.052970212
104	0xb712fdcc	-8.76137e-06
105	0xbc80ead0	-0.015736967
106	0xbd195b02	-0.037440307
107	0xbb07d294	-0.002072488
108	0x3d2181ba	0.039430358
109	0xbcc214a5	-0.023691485
110	0xbd7ca419	-0.061679933
111	0xbda85b10	-0.08220494
112	0x3da23804	0.079208404
113	0xbc3780f9	-0.011200183
114	0xbc77a04b	-0.0151139
115	0x3d244d4e	0.040112786
116	0x3d1a9fee	0.037750177
117	0xbd7b1f0b	-0.0613089
118	0x3d4f4faa	0.050613083
119	0xbd84ae57	-0.06478565

conv2.lin_root.weight f4 [120, 120]
0	0x3d03e1a6	0.032197617
1	0x3d35b8a6	0.044365548
2	0x3cc62af7	0.02419041
3	0xbc7731a9	-0.0150875235
4	0x3daeefe1	0.08541847
5	0x3ded1293	0.115758084
6	0x3d87d752	0.06632866
7	0x3d743198	0.05961761
8	0xbc6ab413	-0.01432516
9	0x3d97e3d8	0.074165046
10	0xbf0dac74	-0.5534127
11	0x3dac3183	0.08407881
12	0x2238af87	2.5029573e-18
13	0x3dec640b	0.11542519
14	0x3def52b0	0.11685693
15	0x3d3b6d0e	0.0457583
16	0xbdbcd8b3	-0.092210196
17	0xbd0ac0c0	-0.033875227
18	0x3d790816	0.060798727
19	0xbc92416b	-0.01785346
20	0x3d720f52	0.05909664
21	0x3c874422	0.01651198
22	0x3d969bbc	0.07353923
23	0xbe0edb99	-0.13950957
24	0xbcf33fce	-0.02969351
25	0x3c93e043	0.018051272
26	0xbe150c33	-0.14555435
27	0xbd803e35	-0.06261865
28	0x3df0b1e0	0.11752677
29	0x3cc6d044	0.02426923
30	0xbd3113a8	-0.043231636
31	0x3d9b1d23	0.07573917
32	0x3ddd20d0	0.10797274
33	0x3cad48f1	0.021152945
34	0xbccf686a	-0.025318343
35	0x3d2db30a	0.042407073
36	0x3ddd2014	0.10797134
37	0xbe2ddaf2	-0.16978052
38	0x3d3fb33c	0.04680179
39	0xbbbee91a	-0.0058261277
40	0xbe791f2e	-0.243283
41	0x3c8d8528	0.017275408
42	0x3d95502e	0.07290684
43	0x3d1b968f	0.03798538
44	0x3d9f1f69	0.07769663
45	0x3d13cfce	0.03608685
46	0x3c9abc58	0.018888637
47	0x3c5bfc52	0.013426857
48	0x3c375cec	0.011191588
49	0x3d6a5b40	0.05721593
50	0xbd7ed5be	-0.06221556
51	0xbd993d62	-0.07482411
52	0xbdce1aad	-0.10063682
53	0x3c529cad	0.012854737
54	0xbb19c9da	-0.002346626
55	0x3cfb9aa9	0.030713396
56	0xbb905279	-0.0044043628
57	0x3da77a04	0.081775695
58	0xbe1a95da	-0.15096226
59	0xbe520622	-0.20510152
60	0xbe4758ae	-0.19467422
61	0x3da813ac	0.08206877
62	0xbd8b1fa3	-0.067931436
63	0x3d29e60f	0.041479167
64	0xbc40a80c	-0.0117588155
65	0xbdd9cbc8	-0.10634571
66	0x3c7b442d	0.015336079
67	0x3d4b5587	0.049642112
68	0xbc4c152e	-0.0124562215
69	0x3d684c52	0.05671341
70	0x3df75b2d	0.12077937
71	0x3db7f1ce	0.089816675
72	0x3daa4b4f	0.08315145
73	0x3c7dbe98	0.015487336
74	0xbd642895	-0.055702765
75	0x3dda44d1	0.10657657
76	0x3debb708	0.1150952
77	0x3d2ebd3f	0.042660948
78	0xbd78a362	-0.06070269
79	0xbd6a0ba1	-0.057139996
80	0xbe096966	-0.13419113
81	0x3e0432b0	0.12909961
82	0x80001d2d	-1.0466e-41
83	0x3daba35e	0.08380769
84	0xbd3842c9	-0.044985566
85	0x3db4c91f	0.08827423
86	0x3ddd8c14	0.108177334
87	0x3c09bf85	0.008407478
88	0xbc25bf1c	-0.010116365
89	0x3c9cfcb6	0.01916347
90	0xbd132e83	-0.03593303
91	0x3d1925b0	0.037389457
92	0xbd3617e1	-0.044456366
93	0xbd1db682	-0.03850413
94	0x3cd062a9	0.02543767
95	0x3d68cdc1	0.056836847
96	0x3c2ce9b4	0.010553766
97	0x3d9f442b	0.07776674
98	0x3d861bbf	0.06548261
99	0x3cafd699	0.021464633
100	0x3dc8ef3b	0.098112546
101	0xbd44987a	-0.047996975
102	0xbbbee750	-0.0058259144
103	0xbc01bec0	-0.0079190135
104	0x3d821627	0.063518815
105	0x3d889f97	0.06671064
106	0x3d829c1b	0.06377431
107	0xbe804b1f	-0.25057313
108	0x3c8dadff	0.017294882
109	0x3ced4b4d	0.02896657
110	0x3d855c9e	0.06511806
111	0x3dc8bb49	0.09801347
112	0x3de9e9ec	0.1142157
113	0xbdc86c9f	-0.09786343
114	0xbcea0595	-0.028567115
115	0xbd83a36c	-0.064276546
116	0xbc99d4f0	-0.018778294
117	0xbd6dbbb7	-0.058040347
118	0xbd5062e4	-0.05087556
119	0xbd709cce	-0.05874329
120	0xbdf66a0a	-0.12031944
121	0x3cb8453e	0.022493955
122	0x3ce51146	0.027962338
123	0x3da0ce4d	0.07851849
124	0x3d25c6ec	0.04047291
125	0xbabb52d4	-0.0014291652
126	0x3d80955d	0.06278489
127	0xbc9d09fd	-0.019169802
128	0xbd1396f2	-0.036032625
129	0xbd424e64	-0.04743804
130	0x3e3567e0	0.17715406
131	0xbbae12ac	-0.0053122845
132	0xa5c471c5	-3.4077673e-16
133	0xbd3461c3	-0.044038545
134	0xbe2ca1c5	-0.16858585
135	0x3d1000f7	0.03515717
136	0x3e3172ec	0.17328995
137	0x3d8b73d3	0.06809201
138	0xbd7d71d3	-0.06187613
139	0x3d323016	0.04350289
140	0x3d3fe828	0.04685226
141	0xbb9a0f57	-0.0047015357
142	0x3e2571c4	0.1615668
143	0x3cf71f87	0.0301664
144	0x3cd63992	0.026150499
145	0x3bd9bceb	0.006644835
146	0xbdaee649	-0.08540017
147	0x3d064af2	0.032786317
148	0xbe29d196	-0.16583857
149	0x3d67503f	0.056473013
150	0x3cbe1391	0.02320269
151	0xbe2b17b1	-0.16708256
152	0x3da496a7	0.08036547
153	0xbd4f8e17	-0.050672617
154	0xbd3aac82	-0.045574673
155	0xbd904dfe	-0.07046126
156	0xbd54340b	-0.051807445
157	0x3d98bd77	0.074580126
158	0x3d4ac464	0.0495037
159	0xbcccefac	-0.025016628
160	0x3e2a7918	0.16647756
161	0x3790ad06	1.7246708e-05
162	0xbd8133f6	-0.06308739
163	0x3bc56564	0.0060240496
164	0x3dcfb5d2	0.10142101
165	0x3dac1e1c	0.084041804
166	0x3cb16372	0.021653865
167	0x3d542b07	0.051798847
168	0xbd0c5be3	-0.034267318
169	0x3da957a3	0.082686685
170	0x3dacc1f3	0.084354304
171	0xbd8405f7	-0.0644645
172	0x3d8a5eee	0.06756388
173	0x3dbe8c0f	0.09304058
174	0x3b13a93a	0.0022531287
175	0xbc23e2d2	-0.010002809
176	0xbca84b95	-0.020543853
177	0xbd57d18a	-0.052690066
178	0x3dccacda	0.09993906
179	0x3cc617c4	0.024181254
180	0x3cd30f5d	0.025764162
181	0x3d37b266	0.04484787
182	0x3cba09df	0.022709785
183	0xbd181963	-0.037133586
184	0xbd67b527	-0.056569245
185	0x3da94189	0.08264453
186	0x3cce6f0b	0.025199434
187	0x39e1e743	0.00043087648
188	0x3d2997e2	0.041404612
189	0xbd71dd78	-0.0590491
190	0x3d24922b	0.04017846
191	0xbd6670ec	-0.056260034
192	0x3d2961b3	0.04135294
193	0x3cd53dce	0.026030447
194	0xbccbd97b	-0.024883976
195	0x3bd79fa6	0.006580311
196	0xbe1834db	-0.14863913
197	0xbce1d932	-0.027569387
198	0xbdaef0bc	-0.0854201
199	0x3d8f71a2	0.070040956
200	0x3dee510c	0.11636552
201	0x3b797a3b	0.003806724
202	0x80001be2	-1.0002e-41
203	0xbdb7af1d	-0.08968947
204	0x3db1048a	0.08643444
205	0xbd649a01	-0.055810932
206	0x3cde44e3	0.027132457
207	0x3e0ed24c	0.1394741
208	0x3d6ce62a	0.05783669
209	0x3d937f10	0.072019696
210	0x3e0bc5a6	0.13649616
211	0x3cf41d5c	0.029799156
212	0xbd1fa248	-0.038973123
213	0x3d53ceed	0.05171101
214	0x3d3234cd	0.043507386
215	0x3dc0b8e9	0.09410269
216	0x3d8cf091	0.06881822
217	0xbd6e9ef9	-0.058257077
218	0x3d5c0757	0.053717937
219	0xbc95619d	-0.018235022
220	0xbd53b674	-0.051687673
221	0xbddd11c1	-0.10794402
222	0xbc239509	-0.009984263
223	0xbd878b83	-0.066184066
224	0x3b2399ac	0.0024963422
225	0xbd94a864	-0.072586805
226	0x3d13448e	0.03595405
227	0x3d2fee32	0.04295177
228	0xbd0e9b0b	-0.03481583
229	0x3d609280	0.054827213
230	0x3d4d96a7	0.0501925
231	0x3da12dcd	0.07870064
232	0x3d18fb15	0.037348825
233	0xbd726ab3	-0.059183788
234	0x3d4c4a5f	0.049875613
235	0xbd6fc21e	-0.058534734
236	0x3d8f31c1	0.06991912
237	0xbd68f102	-0.056870468
238	0x3dbce2c6	0.09222941
239	0xbb998015	-0.004684458
240	0xbd9ab20f	-0.07553493
241	0x3dd03634	0.101665884
242	0x3de83d4b	0.11339816
243	0x3d9a630e	0.075384244
244	0x3cd6d9f5	0.026226977
245	0xbc0ee85c	-0.008722391
246	0x3dad8b33	0.08473816
247	0x3cb324fe	0.021868225
248	0x3dc0789b	0.09398004
249	0x3ccb0f09	0.024787443
250	0x3e401219	0.18756904
251	0xbc660be9	-0.014040926
252	0xa088fcf6	-2.3206692e-19
253	0xbcbd8751	-0.023135813
254	0xbdadb0ec	-0.08481011
255	0x3da0a6ca	0.078443125

conv3.lin_rel.weight f4 [120, 120]
0	0xbe942f97	-0.28942558
1	0x3da498ac	0.08036932
2	0xbbbdc26d	-0.0057909996
3	0x3d007ca0	0.03136885
4	0xbd9a0a08	-0.075214446
5	0x3d5b3b77	0.053523507
6	0x3cb95c8b	0.022627136
7	0x3ce88a50	0.028386265
8	0x3ca358be	0.019939777
9	0xbd9535bf	-0.07285642
10	0xbd7219d3	-0.05910666
11	0x3224baea	9.588556e-09
12	0xbccf046d	-0.025270665
13	0xbcff6ed5	-0.031180779
14	0xbb0fde53	-0.0021952584
15	0xbe6fd8e0	-0.23422575
16	0xbcbba420	-0.02290541
17	0xbb13778f	-0.0022501682
18	0xbd647436	-0.05577489
19	0xbcafdcf3	-0.021467661
20	0xb8b29d9f	-8.5170606e-05
21	0xbd122dd3	-0.035688233
22	0x3e1ebc72	0.15501574
23	0xb5dadebb	-1.6307089e-06
24	0x3cb161d3	0.021653092
25	0x3d9e7a8f	0.0773822
26	0x3d8961bf	0.06708097
27	0x3d521293	0.051287245
28	0x3cf465ec	0.029833756
29	0x3daeb093	0.085297726
30	0x3e33f733	0.17574768
31	0x3d386aa1	0.045023564
32	0x3daaf233	0.08346977
33	0x3dd74993	0.1051208
34	0xbdca0924	-0.09865025
35	0x3dc2ff48	0.09521347
36	0x3db5e3d9	0.08881349
37	0x3d924ae0	0.071431875
38	0xbdb1fe00	-0.08691025
39	0xbad9a8e8	-0.0016606124
40	0x3ba678f8	0.0050803386
41	0x3d8bd168	0.068270504
42	0x3e3b1611	0.18270136
43	0x3d31cdfc	0.043409333
44	0xbc9cb8fe	-0.01913118
45	0x31771fbd	3.5961272e-09
46	0xb6182ae6	-2.2674735e-06
47	0x3c849e86	0.016188871
48	0x3db88987	0.09010606
49	0x3d8a44fc	0.06751439
50	0x3db1760e	0.08665095
51	0xbdbc665c	-0.09199211
52	0x3d1d7313	0.03843982
53	0x3bcf7555	0.0063311257
54	0x3dcea4de	0.1009004
55	0x3e823bb2	0.2543617
56	0x3cba5fda	0.022750784
57	0xbde3aa5b	-0.11116477
58	0x3de2420e	0.11047755
59	0x3db97467	0.09055405
60	0xbe301e9d	-0.17199178
61	0x3cfaac3e	0.03059971
62	0x3d92886f	0.07154929
63	0x3a7ba492	0.0009599413
64	0x3dd4f17e	0.103976235
65	0x3d667348	0.056262285
66	0x3d5ca4a0	0.053867936
67	0x3d5b49ed	0.053537298
68	0x3da469c6	0.08027987
69	0xbba1abd5	-0.004933814
70	0x3d96bfba	0.07360788
71	0x3dbfc838	0.093643606
72	0xba8e4336	-0.0010853771
73	0x3da7c547	0.081919245
74	0xbd39f44e	-0.045399003
75	0xbd469786	-0.048484348
76	0x3d6343db	0.055484634
77	0x3ddc4001	0.10754395
78	0x3c98db17	0.018659158
79	0xbd9ed608	-0.07755667
80	0xba1a2011	-0.0005879412
81	0x80001b97	-9.897e-42
82	0xbc720139	-0.014770799
83	0xb9126ebc	-0.00013964897
84	0x3d0bd47f	0.0341382
85	0x3ad9561e	0.0016581451
86	0xbc9418d9	-0.018078255
87	0x3c885438	0.016641721
88	0x3c860aa4	0.016362496
89	0xbde31041	-0.110870846
90	0xbd3e6085	-0.046478767
91	0xba43ce1a	-0.0007469371
92	0xbdb3bf3f	-0.08776712
93	0x3cc6d840	0.024273038
94	0x3dcec9ee	0.10097109
95	0xbced61f9	-0.028977381
96	0xbbe4be46	-0.00698069
97	0xbd4ec448	-0.050480157
98	0x3da065a7	0.07831889
99	0x3d5c79ff	0.053827282
100	0xbdc2e98a	-0.095172
101	0x3e385d05	0.18004234
102	0xbe01ec64	-0.12687832
103	0x3db1d006	0.086822554
104	0xb5ca1739	-1.5056931e-06
105	0xbd11b4e4	-0.0355729
106	0x3b68c412	0.0035517258
107	0xbba1dcf0	-0.004939668
108	0x3e6407bf	0.2226858
109	0x3dc05575	0.093913
110	0xbdc0ed3d	-0.094202496
111	0x3dd5ae69	0.10433657
112	0xbd49d655	-0.04927667
113	0xbd8f3f12	-0.069944516
114	0xbd2c1027	-0.04200759
115	0x3cf93fc8	0.030425921
116	0x3d14da53	0.036341023
117	0x3b52926f	0.0032130738
118	0xbcd4b73b	-0.025966277
119	0xbd0909d4	-0.03345664
120	0x3e8dcd71	0.27695802
121	0x3d7e4a59	0.062082622
122	0x3c0f35e4	0.008740876
123	0xbcf128d1	-0.029438408
124	0xbcfa5149	-0.030556338
125	0xbe0bca09	-0.13651289
126	0x3cae043e	0.021242257
127	0xbd4c7e6c	-0.049925253
128	0xbd731ac1	-0.059351686
129	0x3d485e4e	0.04891806
130	0x3bbbfa6d	0.00573664
131	0x8ca39043	-2.520095e-31
132	0xbda7e282	-0.081975
133	0xbd65982e	-0.056053333
134	0xbb017032	-0.0019750712
135	0x3e1eb2c2	0.15497878
136	0xbdabf1e1	-0.08395744
137	0x3ddec22d	0.1087688
138	0xbd022d74	-0.03178163
139	0x3d112be4	0.035442248
140	0x37472ae2	1.1871309e-05
141	0xbd30bd4d	-0.04314928
142	0xbe2c285b	-0.1681227
143	0x32982713	1.7712898e-08
144	0xbcd04ceb	-0.025427302
145	0xbbfa4fb1	-0.0076388945
146	0x3d9d7293	0.07687869
147	0x3c86e636	0.016467195
148	0x3d81311e	0.063081965
149	0xbcc73503	-0.02431727
150	0xbcdbc5d9	-0.02682774
151	0x3c91341a	0.01772504
152	0x3ca3a71a	0.019977141
153	0xbcd377ce	-0.025813963
154	0xbc6a821c	-0.014313247
155	0xbd6dc414	-0.058048323
156	0x3cf254b1	0.0295814
157	0xbd850501	-0.06495095
158	0x3df51134	0.11966172
159	0x386c8bc4	5.639695e-05
160	0xbdc3d720	-0.09562516
161	0x3d54c1db	0.051942687
162	0xbe2a8a3f	-0.16654299
163	0xbc0d9e39	-0.00864368
164	0xbd7126f7	-0.05887505
165	0xaf4e23c4	-1.8748297e-10
166	0x357719a8	9.2052005e-07
167	0xbdd85fd0	-0.1056515
168	0xbc123fd5	-0.008926352
169	0xbd6b377d	-0.057425965
170	0x3bc6931c	0.0060600173
171	0x3e14024b	0.14454
172	0xbd12f132	-0.035874553
173	0x3c277a7f	0.010222076
174	0xbd2431ec	-0.04008667
175	0xbe98fd1a	-0.298806
176	0x3bd95fdb	0.0066337413
177	0x3e03befb	0.12865822
178	0x3c6e93d0	0.014561608
179	0xbcd52ea9	-0.026023226
180	0x3e45fb29	0.19334091
181	0xbc1aa2e3	-0.009438249
182	0xbd22f9fa	-0.039789177
183	0xb8502ee1	-4.9634724e-05
184	0xbcac8e07	-0.021063818
185	0xbd9b1d57	-0.075739555
186	0xbdd45b89	-0.103690214
187	0xbdc77193	-0.097384594
188	0x3abdbf8f	0.0014476645
189	0xbda8fb00	-0.082509995
190	0xbd4203ab	-0.04736678
191	0xbd19b1bc	-0.037523016
192	0x3dd6c826	0.10487394
193	0x3b8bbd5f	0.004264518
194	0xbdbad909	-0.091234274
195	0xbdd51334	-0.10404053
196	0x3d56af23	0.052413117
197	0xbd0c1ca4	-0.034207
198	0xbcc7300d	-0.024314905
199	0xbd0dc6a1	-0.034613255
200	0x3a573467	0.00082094077
201	0x80001b94	-9.893e-42
202	0xbd306afb	-0.043070775
203	0xb7c75c3f	-2.3765604e-05
204	0xbd21827c	-0.03943108
205	0xbacbc02c	-0.0015544943
206	0xbd27edc1	-0.040998224
207	0xbdbef76b	-0.09324535
208	0xbd5eb751	-0.054374043
209	0x3de79127	0.113069825
210	0x3d2c48eb	0.042061727
211	0x3a187527	0.0005815797
212	0xbd46d74c	-0.048545167
213	0xbc1e017f	-0.009643911
214	0xbe109364	-0.14118725
215	0x3d6434ec	0.055714533
216	0xbdc99ec0	-0.09844732
217	0x3c24823a	0.010040814
218	0x3d9cea52	0.076618806
219	0x3c80a7ca	0.015705008
220	0x3df12ecf	0.11776506
221	0xbe63db5c	-0.22251648
222	0x3df9d32a	0.121984795
223	0xbd56bf23	-0.052428376
224	0xb6883813	-4.0596437e-06
225	0x3c57cb7e	0.013171075
226	0xbd630287	-0.055422332
227	0xbb91bb8e	-0.004447407
228	0xbe402ce1	-0.1876712
229	0xbcafa9c1	-0.02144325
230	0x3df5ef53	0.12008538
231	0xbd9d9a21	-0.076954134
232	0x3d3ed11c	0.04658614
233	0xbcd22e7a	-0.025656927
234	0x3d04e7d9	0.03244767
235	0xbdd052c0	-0.10172033
236	0xbd35f793	-0.04442556
237	0xbc9fe7dd	-0.01951974
238	0x3d0c1cf4	0.0342073
239	0xba966d0c	-0.001147659
240	0x3e139cf1	0.14415337
241	0xbd6e9ad2	-0.058253117
242	0xbc394e02	-0.011310102
243	0xbd3c25c7	-0.045934465
244	0xbd6e1863	-0.058128726
245	0xbe04f561	-0.1298423
246	0x3b9c352f	0.004767082
247	0x3c30dcae	0.010794802
248	0xbd170f03	-0.03687955
249	0xbdd6903b	-0.104767285
250	0x3c966c85	0.018362293
251	0xb4143d5a	-1.3805894e-07
252	0xbbc654b1	-0.0060525765
253	0x3d4db64b	0.050222676
254	0xbb10cac6	-0.0022093519
255	0x3e0f4413	0.13990812

conv3.lin_rel.bias f4 [120]
0	0xbd0fb542	-0.03508497
1	0xbd110619	-0.035406206
2	0x3c8bb721	0.017055096
3	0xbdc38c72	-0.09548272
4	0x3d41f639	0.047353957
5	0xbd56731a	-0.052355863
6	0xbd8b34de	-0.06797193
7	0xbc2aec69	-0.010432341
8	0xbdb577f3	-0.08860769
9	0x3d13c103	0.036072742
10	0x3d772f49	0.06034783
11	0x3d89f4a0	0.06736112
12	0x3ca84219	0.02053933
13	0xbdafdd6b	-0.08587154
14	0xbcac8677	-0.021060212
15	0xbc00a50a	-0.007851848
16	0x3d392de4	0.04520978
17	0x3d2b77ab	0.04186217
18	0x3b7e9fe2	0.0038852622
19	0x3d46ec8d	0.048565436
20	0x3dbcf6a3	0.0922673
21	0x3d46cfd1	0.048538033
22	0xbcf49664	-0.029856868
23	0xbbf8bba8	-0.0075907297
24	0x3d9a66c5	0.07539133
25	0x3ce86256	0.028367203
26	0x3badaad9	0.0052999076
27	0xbd51715b	-0.051133495
28	0x3c8363e7	0.016038848
29	0x3d568816	0.052375875
30	0x3d41dd79	0.047330353
31	0xbd4e671d	-0.050391305
32	0xbd9065b0	-0.07050645
33	0x3d50284d	0.050819684
34	0xbd894d1f	-0.06704163
35	0x3ce98349	0.028504984
36	0xbd94914b	-0.07254275
37	0x3c9e220b	0.019303342
38	0x3d3cca59	0.04609141
39	0x3c8df22f	0.017327396
40	0x3cac7e9a	0.021056462
41	0x3d8d21fb	0.06891247
42	0x3d2dfc32	0.04247684
43	0xbcedbb4e	-0.029019978
44	0x3cd1cfcf	0.025611786
45	0x3db797fc	0.089645356
46	0xbd638c73	-0.055553865
47	0xbdc1367d	-0.09434221
48	0xbd4cae41	-0.04997087
49	0xbd0e598c	-0.034753367
50	0x3d950067	0.07275467
51	0x3d4069fd	0.04697608
52	0x3d826457	0.063667946
53	0x3d0f201f	0.034942742
54	0xbd69561b	-0.056966882
55	0x3d6f49c7	0.05841997
56	0xbcf12650	-0.029437214
57	0xbc9202fd	-0.01782369
58	0xbda07b1d	-0.07835982
59	0x3ba40542	0.0050055096
60	0xbda08743	-0.07838299
61	0x3bfd10a9	0.0077229333
62	0xbbcc675b	-0.006237907
63	0x3d7f402a	0.06231705
64	0xbcc9adfe	-0.024619099
65	0xbd8e8c71	-0.06960381
66	0x3d6cfb46	0.05785682
67	0xbd3f49d4	-0.046701267
68	0x3c3028ba	0.0107518975
69	0xbd173fc4	-0.036926046
70	0xbd163384	-0.036670223
71	0xbd1683da	-0.036746837
72	0x3d2caf78	0.042159528
73	0xbd9bff5c	-0.07617065
74	0xbdbf13e3	-0.09329965
75	0xbc9a23cb	-0.018815896
76	0x3d9e0c8d	0.077172376
77	0xbd83feaf	-0.064450614
78	0xbbc47423	-0.00599529
79	0x3cf48d57	0.029852552
80	0x3d27fbbb	0.041011553
81	0xbc6655e1	-0.014058561
82	0x3bca2e22	0.0061700502
83	0x3da44f77	0.08022969
84	0xbd06f7c1	-0.03295112
85	0x3db25044	0.08706716
86	0xbd819817	-0.06327837
87	0x3ca6b8c9	0.020351784
88	0xbd4b0570	-0.049565732
89	0xbb2ea4d4	-0.0026648538
90	0xbbe8813a	-0.007095483
91	0xbdb95aa1	-0.09050489
92	0xbd80836b	-0.06275066
93	0x3d97297b	0.07380959
94	0x3d646ac3	0.05576588
95	0x3d3328b6	0.043739997
96	0x3cd677ae	0.026180115
97	0x3cca7a35	0.024716476
98	0x3cb0867b	0.0215485
99	0x3d95139e	0.07279132
100	0x3d4f1b42	0.050563104
101	0xbd291586	-0.041280292
102	0x3dae2936	0.08503954
103	0x3d89bc4e	0.067253694
104	0xbd65e5d8	-0.0561274
105	0x3cbff95b	0.023434332
106	0x3ca1f34a	0.01976933
107	0x3d88323b	0.06650206
108	0x3d1e6afe	0.038676254
109	0xbda172e8	-0.07883245
110	0xb9944070	-0.0002827677
111	0xbc995f2e	-0.018722143
112	0x3d9824d3	0.07428899
113	0xbd511245	-0.051042814
114	0x3da8e0e8	0.082460225
115	0xbc9672a4	-0.018365212
116	0x3d962650	0.07331526
117	0x3d7894fb	0.060688954
118	0x3d8cb7d6	0.068710014
119	0x3cc194a2	0.023630444
