pretrained_GNN_models/GNNrestrictedgraph_272trainvalid_fold2_948_9.77825_2.10556.pt (torch, 251186 bytes, 10 tensors)

conv1.lin_rel.weight f4 [120, 14]
00000000: 1a94 873e a9db 973e 4e85 76be f1ee b1be
00000010: 4753 893d c0a6 f8bb 271f 693c 7e45 9ebe
00000020: aad3 343e a91c 0000 c67d 7abd bd86 1dbd
00000030: f2d4 91bd b181 10bc 81af 283e 3f18 69be
00000040: dcd0 e83c a95c b9bd 83b5 363e b35d 1d3d
00000050: 35c5 223e 0e13 80bb 99ff 8e3e a61b 0080
00000060: 23b2 10be 410a 1a3e 4742 053d 2c27 58be
00000070: 77a7 86bd 9fdd 5b3e 1f92 40bd 09f7 f8bc
00000080: 6b1b 0080 591b 0080 731b 0080 721b 0000
00000090: 0d3a 702f 621b 0080 cd00 1cbd 14a0 063e
000000a0: d77c 9fbb 6a67 9dbe 3b57 ed3d 0caa 283e
000000b0: b0c5 50be 5446 203e 031f 1ebc 2a3a 9bbd
000000c0: 1f8e a43c 4ed0 c03d 59f8 63be d23a 4bad
000000d0: d1e9 343d ea45 69bd ac92 653e 32bc d5bc
000000e0: 3d56 593e 821b 0000 730b d53d 8d1b 0080
000000f0: 5a1b 0080 b11b 0080 bc81 71a5 498c 6434
00000100: 751b 0080 82fc 19a2 565f 7dbc db17 ae3d
00000110: 41ac 82be 3c77 22be 144c 1c3e dc00 e4bd
00000120: a9bc 7dbe 314d c6be 2a98 823d bbef 16bb
00000130: 8031 1bbe f73a 90bd 5110 323e 5c61 968c
00000140: cbbd 7a3e 5e06 01be b179 67be 237c 2bbd
00000150: 4cec 3abe 6e64 dd3b d38f 473e 7f8f a50f
00000160: 7969 b72a b41b 0000 989e c73d 0da4 b334
00000170: b08e a92b 9e1c 0000 a4d3 243e 8c03 39be
00000180: d4e0 d13d a570 81be 3cbc 143d 359e 793e
00000190: 6ee9 89bd 2467 b0bd 1601 86be 6a4d f23d
000001a0: 0ce6 383e d495 1d3d c6e4 8abe 2911 8335
000001b0: 733b 7a3e de54 d73d ac4e 93be 6195 5d3e
000001c0: 5742 223d 54e2 03be 17c3 473e 78af 992c
000001d0: 736c 76b2 bf96 0992 8bdf 16bc 6d1b 0080
000001e0: c81b 0080 ccdd 5f36 87a6 6fbc 9849 42be
000001f0: 4ce9 133d ce23 07be 53ef 9cbd f586 293e
00000200: 6a1b 0000 0fd5 0727 eb1e 57ad 53e6 478f
00000210: fd4e 833e 851b 0000 d45d 951e 8b1b 0000
00000220: 5a7f cbbd 3424 c9bd 31f6 013e 2d36 26be
00000230: cbb1 21bd 6a32 f0bb 2014 5abd d7bc 80be
00000240: 011b 9f30 e425 cfb1 2d1d d88f 0097 842a
00000250: 8531 2f32 591b 0000 9821 5b3e d9fa 1e3e
00000260: cb45 69be 7128 5abe ebea cbbd ea31 8dbe
00000270: 826c e33d e591 6c3e b81b 0080 03d2 b4bd
00000280: 26a7 f63d b5fc c1b5 ff8d cca1 a21b 0080
00000290: b525 083d 8a17 873d e087 0dbc f4fe 32be
000002a0: cece 183d 14bd 0dbe 9cc2 ae3c 00b2 30be
000002b0: a9ea 303e 4d0f f93d 12a9 66be 3c61 a03e
000002c0: 71fa 8d3e 851b 0000 5436 4d3e 37ee 76be
000002d0: c0f2 38bb 4781 723e 4425 83be cd74 81be
000002e0: 181d b23b 2da7 8f3e e11b 0080 7d7a d73d
000002f0: 38b1 e63d 641b 0080 de1a 9b3e 53db c024
00000300: cb05 b8bd 018b bcbd 56fc 1fbe 5eb3 883c
00000310: 945c 3d3d 6b5d 053e 2f19 0bbe 2862 b53d
00000320: d37a 30be 2b3b f79d 09ec 0980 6e78 073d
00000330: a4d3 193e 651b 0000 888c e53b 7097 43be
00000340: 65e5 a13e ed73 6dbe a6c2 5fbd 8b11 ef3d
00000350: c6bc 0f3e 4374 b9be 2b43 313e c9cc d93d
00000360: 83c3 7bbe f8a0 133e e2e9 c3bc 73d9 cd33
00000370: 8694 053e 8c82 2e3d 38a6 6cbe 9108 0e3e
00000380: 2587 11be 1cc9 2c3e 9ab0 e83a 0f6f 323e
00000390: f47b 143e f356 ecbc 7698 f33d 3cfe 0d3e
000003a0: c134 f63d 1b20 69b3 6c13 9a3d e898 2e3e
000003b0: cdfd e73d 1080 f2bd 8903 2c3e f960 a4bd
000003c0: 4f39 73be ee74 a8be ae67 933d 8c99 4abe
000003d0: 3868 cb3d 6add 75be a76e 88be ad5b 0a27
000003e0: 00aa 29be db92 413e b74f 11be fa76 493e
000003f0: d337 e63d 1a1f 9b3e aa77 e33c 953f 223e
0.2648018 0.29659775 -0.24074289 -0.3475261 0.06705337 -0.0075882375 0.014228619 -0.30912393
0.17658868 1.0281e-41 -0.061155103 -0.038458575 -0.07120694 -0.008819983 0.164732 -0.22763155
0.028419904 -0.09050877 0.17842679 0.038419437 0.15895541 -0.0039085215 0.2792938 -9.918e-42
-0.14130454 0.15042974 0.03253391 -0.21108693 -0.0657491 0.2147126 -0.047014352 -0.030391233
-9.836e-42 -9.81e-42 -9.847e-42 9.846e-42 2.1848497e-10 -9.823e-42 -0.0380867 0.13147002
-0.004867177 -0.3074296 0.115889035 0.16471118 -0.20387912 0.15651828 -0.009650948 -0.07579453
0.0200873 0.09414731 -0.22262706 -1.1552275e-11 0.044168297 -0.05695144 0.22419232 -0.026090715
0.21224304 9.868e-42 0.104025744 -9.883e-42 -9.812e-42 -9.934e-42 -2.0947374e-16 2.128519e-07
-9.85e-42 -2.0869043e-18 -0.015464624 0.08500644 -0.25522044 -0.15865797 0.15263397 -0.111329764
-0.24779 -0.38730767 0.06376679 -0.0023031074 -0.15155602 -0.07042497 0.17389037 -2.3169755e-31
0.24486463 -0.12600085 -0.22605015 -0.041866433 -0.18254203 0.006756357 0.19488458 1.6325529e-29
3.2580517e-13 9.938e-42 0.09747046 3.346071e-07 1.2047776e-12 1.0266e-41 0.1609636 -0.1806776
0.10247961 -0.25281253 0.036312327 0.24376757 -0.06733976 -0.086134225 -0.26172704 0.11831172
0.18056506 0.038472965 -0.27127665 9.765255e-07 0.2443674 0.10514234 -0.2877096 0.21639015
0.039614048 -0.12879306 0.19508015 4.3680025e-12 -1.4343743e-08 -4.3415387e-28 -0.00920857 -9.839e-42
-9.966e-42 3.3358692e-06 -0.014627106 -0.18973386 0.03611116 -0.13197252 -0.07662835 0.16555388
9.834e-42 1.8850513e-15 -1.22282e-11 -9.855816e-30 0.256462 9.872e-42 1.5814795e-20 9.88e-42
-0.099364 -0.09821358 0.12691571 -0.16231604 -0.039476197 -0.0073302286 -0.05324185 -0.25144073
1.1576448e-09 -6.0288006e-09 -2.1310483e-29 2.3552688e-13 1.01976e-08 9.81e-42 0.21399534 0.15525378
-0.2278053 -0.2130449 -0.099569164 -0.27577144 0.111046806 0.2310253 -9.944e-42 -0.08829119
0.120436 -1.4453168e-06 -1.3861164e-18 -9.913e-42 0.033239085 0.065962866 -0.008638352 -0.1748007
0.0373066 -0.13841659 0.021333031 -0.17255402 0.17277016 0.121611215 -0.22525433 0.31324184
0.27730134 9.872e-42 0.20040256 -0.24114309 -0.0028220862 0.23682128 -0.2561437 -0.25284424
0.005435597 0.28057232 -1.0001e-41 0.1052141 0.112642705 -9.826e-42 0.30293936 8.3638277e-17
-0.0898548 -0.092062004 -0.15623602 0.016687091 0.046230868 0.13023917 -0.13583826 0.088566124
-0.17234354 -6.5441534e-21 -9.11193e-40 0.033073835 0.1502214 9.827e-42 0.007005278 -0.19100738
0.31620327 -0.23188753 -0.05462899 0.11673268 0.14036855 -0.36221513 0.17310779 0.10634763
-0.245863 0.14416873 -0.023915235 9.58561e-08 0.13044938 0.042604968 -0.23110282 0.13870455
-0.1421171 0.16873592 0.0017752827 0.17425178 0.1450041 -0.028850054 0.11894314 0.13866514
0.12021781 -5.427874e-08 0.07523236 0.17050517 0.113277055 -0.11840832 0.16798224 -0.080263086
-0.2375233 -0.3290171 0.0719751 -0.19785136 0.099319875 -0.24010244 -0.2664692 1.9201045e-15
-0.16568756 0.18903677 -0.14190565 0.19674292 0.112411164 0.30297166 0.027767021 0.15844567

conv1.lin_rel.bias f4 [120]
00000000: 4f4a 403e e8e8 f83b cc2e 36be 171f 533e
00000010: d952 41be 06f5 0bbe 4fc4 9fbb ab89 793e
00000020: 012c 88bd 2ed2 833c c9b7 fabd 8b4c 0a3d
00000030: 9bff 193e a4a4 823e fb15 9f3d 0b16 503e
00000040: 21f8 463e 8d46 183e 180e 073e 10d6 b03d
00000050: 7608 883e 9a48 13be 0343 853e 56ac 443e
00000060: 3edb 8b3d ee2c 4f3e 2e0f 1bbe 8001 6dbd
00000070: ed0c 39b9 10ea 4a3e 8fc2 343e d189 82be
00000080: 8c4f 643e d027 48bd 585f 5fbe 501f 7cbe
00000090: 3499 113e 2d32 7fbd 612f 74be fbb5 383e
000000a0: 2474 60be bf57 5a3e 36d9 65be f329 413e
000000b0: 1b98 7bbd d2e0 7d3e f04b 7bbc e2c1 82be
000000c0: 2514 c3bc 63d2 37be 21d7 7e3e db48 3c3e
000000d0: 2205 d5bd 33bd e73b 94a8 acbd 172f 8a3e
000000e0: 1b0c c03d 17af e73c 4e16 e7bd 43d6 233e
000000f0: 5fac 103e e281 65be ef99 ecbd 4097 823e
00000100: 795a 1ebe ae13 773e ef0e 223e ccbc 553e
00000110: 7244 dabd 8f56 ffbd bd61 573e 1c09 87bd
00000120: 75a5 52be cc8f 313e 2127 873e 965d 2bbe
00000130: 5531 433e 704f 3a3e bc9a 5ebe 8ea1 b9bd
00000140: f511 6cbe b0d4 62bd 973c 583e fd8c 8d3e
00000150: dceb 5bbe 9ac6 7dbe fef1 c3bc 01d4 7f3e
00000160: 7c0c 113e 3f15 ff3d 201d 4c3e 63a8 48be
00000170: 8dc2 eb3d 274f 3e3e e7ff d1bd 7850 873e
00000180: a610 663d 2ec1 1b3d bc69 fcbd 89ab 783d
00000190: 575c e53c 1719 16be acd5 6abe 0006 69be
000001a0: f7ae 753e 5a56 30be c12d 2d3e fac7 5dbe
000001b0: f37f 5ebd a215 63bd 8449 6abe 4ef8 70be
000001c0: 04eb 53be fe4e d3bc 1a44 483e 1ea3 53bd
000001d0: 10f7 2abe afc5 6a3e 5a9e 653e b074 2dbd
0.18778346 0.007596124 -0.17791289 0.20617329 -0.1887926 -0.13667688 -0.0048756967 0.24368922
-0.06649018 0.016091432 -0.122420855 0.033764403 0.15038912 0.25516236 0.07767864 0.20320909
0.19430591 0.14870663 0.1318897 0.08634579 0.26568955 -0.14383164 0.26027688 0.19206366
0.068289265 0.20231983 -0.1514251 -0.05786276 -0.0001764779 0.1981585 0.17652343 -0.2549577
0.2229597 -0.048866093 -0.21813715 -0.2462132 0.14218599 -0.06230371 -0.23846199 0.1803817
-0.21919304 0.21322535 -0.2244614 0.18863659 -0.061424356 0.24792793 -0.015337929 -0.25538546
-0.023813317 -0.1795135 0.24886753 0.18387167 -0.1040137 0.007072115 -0.08430591 0.26989052
0.09377309 0.028281732 -0.11283551 0.15999703 0.14128254 -0.22412828 -0.11552798 0.2550602
-0.154642 0.24128601 0.15826009 0.20872802 -0.10657586 -0.124676816 0.21033378 -0.06593534
-0.2057093 0.1734001 0.2639704 -0.16734919 0.19061787 0.18194366 -0.21738714 -0.09064017
-0.23053725 -0.055378616 0.21116863 0.27646628 -0.21476692 -0.24782792 -0.023919102 0.24983217
0.14164919 0.12455224 0.19932985 -0.19595484 0.11511717 0.18584882 -0.102538876 0.2642858
0.05616822 0.038026027 -0.12324855 0.060710464 0.027998133 -0.14658009 -0.22933072 -0.22756195
0.23992525 -0.1722044 0.16911985 -0.21658316 -0.05432124 -0.055440553 -0.22879606 -0.2353222
-0.2069512 -0.025794502 0.19557229 -0.051669233 -0.1669581 0.22926973 0.22423688 -0.04234761

conv1.lin_root.weight f4 [120, 14]
00000000: e52d 02bd 16fb 1ebe 5439 8ebd f4f3 083e
00000010: 4e04 903e 37ef 80be 351c 0000 0701 923e
00000020: f67e 053d 3423 3a33 8969 1dbe d905 b4bd
00000030: 55d3 6ebe a7bf 80be dfeb 373e 15e3 893e
00000040: 53c0 39be c2bf 913d 13b1 e9bd 1c31 6b3e
00000050: e8c1 943d 45b4 9e3c 461a f13d 3438 9034
00000060: e91a 2fbd a652 fbbd 0003 593e c245 703c
00000070: 9218 813e 741b 0000 991b 0080 811b 0080
00000080: 654a 8933 078b 6e8b cd9c c81e 2aaf df30
00000090: 59af 5aa8 8b1b 0000 cda9 e9bd 538c d53d
000000a0: fbeb 0abe 3843 2f3e 7646 763e 0e1c b8bd
000000b0: 3283 3b3e 33b5 92be 3661 263e ca2b 443d
000000c0: db0f d33d 6f44 323e 9486 163e da0d fc1f
000000d0: a347 7f3e 17a6 24bc 6f70 2c3e d1a5 323e
000000e0: 00e6 69be 051c 8a3e b2dd 8dbd 8abd a1bd
000000f0: 03f7 473d e72f c43c de36 67b2 37f6 53b2
00000100: 136b 543e 0949 0233 2c2a 7a3e 8032 02be
00000110: 0cf0 633e 3b15 febb fb1f 4b3e dc45 dabb
00000120: 1413 263e 59ce 8b3e 578e 20be 01cb 51be
00000130: 9409 989e d4c1 623e c731 0f3d a1d0 caae
00000140: ff07 153e 0c19 c33d cd22 6b3e 7b9b 253e
00000150: bd8d 08be 2cf7 c3bd 184e a53e afd0 8c87
00000160: c06b 5fb4 8ab7 5f9b 1b60 3fbb d511 98a5
00000170: 2b36 4ab2 9f35 24a2 42d9 9f3e 7308 ba3d
00000180: c399 89bd ad9d a2be 4b8c 043e 23e0 9ebd
00000190: 515d bdbc 8241 8c3d 6c5a 203e 7870 5a3b
000001a0: 905d 8faf 51bd 883e 35c6 0d3e 7d1b 0000
000001b0: d829 3f3e 5d2e 5dbd 81eb 563e f2d1 37be
000001c0: 1a8d 5fbe 7383 31bb ac23 a03c b06c 893d
000001d0: 8163 1f3d a649 6d3e a7a0 0abe 8113 2d3e
000001e0: cf8b f43c b298 8723 12e6 673e d334 e5bd
000001f0: 2c2f 9a3e 7128 703d 4099 12be 3119 9b07
00000200: 35cc 5f3e 941b 0080 5f23 1523 21bc bba3
00000210: 377e 662f e3a5 98ac 70de 82aa 4c09 7431
00000220: cc8a 10bd b873 53bd 0edc 16bd dfea d1be
00000230: ce7a 82be 787c 6bbe 2cc7 b13a ebe1 cf3d
00000240: 3a7f 4221 a61b 0080 2f4c 9a1c 4fa4 0e80
00000250: cbf6 64b6 7385 0499 00ab f63d 3cab 3b3e
00000260: b6ff 413e 20ef 2c3e 6cf9 453e 54ae 54be
00000270: a290 323e 690c a33c 139b 2308 611b 0000
00000280: 176a 123e 0f8c 933e 4e25 3690 d808 b531
00000290: 114b 8b3d 401e 703e 6325 c63d 166d c7bc
000002a0: 6a41 863d b054 e6bd b87c 0fbc 0879 febd
000002b0: 9ed2 2b3e 16c0 543d b0ee 17be 4bf4 143d
000002c0: 0a1b a2bc afe7 3aa6 0995 f23c 4103 78be
000002d0: 78ba fa3b 5ba3 59be 5325 30be 2a34 b13e
000002e0: 7666 143e 191e 2b3d 5b78 8d3e f4f0 e5a5
000002f0: 16fa 54bb a4d3 093e 225d ac3d cf4c 7ab4
00000300: a379 cd3d dbb9 c8bd 1811 613e f99c 843e
00000310: fd61 a5bb 5914 923e 2e46 02bd fb1c b93c
00000320: 752d 863e 7014 f3bc c079 213e 5495 403e
00000330: ae60 d93d 811b 0080 3d1c fbbc 0e18 3c3c
00000340: a8b6 8c3d ab7d 06be 2e2f 703e b083 833e
00000350: 14eb 3a3e b1ee 05be 77cf 193d 88db 6d33
00000360: 6a1b 0080 d04a 213e bb7f 32bd 1892 8f27
00000370: e283 093e 37a9 81be 4d5d 4abd 8e58 5fbe
00000380: cc36 3dbe aed7 babd 9543 8ebe cb4d 7e3d
00000390: 1a01 8e3e a21b 0000 52a1 963d 06d6 37be
000003a0: d03d 92bb 50d5 071d a62b 2abe 2e54 2f3e
000003b0: 93e3 8d3e c600 4d3e fdd0 f4bc 25bd 3f3c
000003c0: 83e4 35be c135 80ba 475e 8e3e e3a5 3b3c
000003d0: 12b4 6932 cd0c 1dbe 785a 213d c162 89b5
000003e0: 270d 153e a056 4abe 20da 9c3d 7831 6dbe
000003f0: 812e 02bd 70ff 6a3e ca0f f4bd 3767 153e
-0.03178205 -0.15525469 -0.06944528 0.1337431 0.28128284 -0.25182506 1.0119e-41 0.2851641
0.032591783 4.3338517e-08 -0.1537229 -0.08790178 -0.23322804 -0.2514622 0.17961071 0.26931062
-0.18139772 0.07116653 -0.11410727 0.22967952 0.07263547 0.019373069 0.117725894 2.6862983e-07
-0.042750273 -0.12271623 0.2119255 0.014665069 0.25214058 9.848e-42 -9.9e-42 -9.867e-42
6.393092e-08 -4.5941725e-32 2.1240675e-20 1.627517e-09 -1.21394534e-14 9.88e-42 -0.1140934 0.10427155
-0.13566582 0.17115486 0.24050316 -0.08989726 0.18311766 -0.2865387 0.1624802 0.047893323
0.103057586 0.17408918 0.14699775 1.0674907e-19 0.24929671 -0.0100493645 0.16839765 0.17446066
-0.22841644 0.26974502 -0.06927051 -0.0789748 0.048819553 0.023948623 -1.3458445e-08 -1.2337799e-08
0.2074397 3.033441e-08 0.2443015 -0.12714577 0.2225954 -0.0077539957 0.19836418 -0.00666116
0.16218215 0.27305868 -0.15679298 -0.20487596 -1.6097587e-20 0.22144252 0.03495958 -9.2229564e-11
0.14553832 0.09526262 0.22962494 0.16172592 -0.13335319 -0.09568629 0.32286143 -2.1187512e-34
-2.0807693e-07 -1.8505432e-22 -0.002920157 -2.637988e-16 -1.1770264e-08 -2.2254531e-18 0.31220442 0.09083643
-0.06718781 -0.31760922 0.12944143 -0.077575944 -0.023115786 0.06848432 0.15659493 0.0033331197
-2.607803e-10 0.26706937 0.13845141 9.861e-42 0.18668306 -0.053999294 0.20988275 -0.17951182
-0.2183117 -0.0027086406 0.01954826 0.067101836 0.038913254 0.23172626 -0.13537847 0.16901971
0.029851822 1.4701398e-17 0.22646359 -0.11191716 0.30114114 0.058632318 -0.14316273 2.3336614e-34
0.21855243 -9.893e-42 8.084796e-18 -2.0354256e-17 2.0963219e-10 -4.338517e-12 -2.3246986e-13 3.5511958e-09
-0.035288617 -0.05162403 -0.036830954 -0.40999505 -0.25484318 -0.229967 0.0013563386 0.10150512
6.589814e-19 -9.918e-42 1.0210558e-21 -1.34464e-39 -3.41183e-06 -6.85119e-24 0.120443344 0.1832704
0.18945202 0.16888094 0.19333428 -0.20769626 0.17437986 0.019903379 4.9233317e-34 9.822e-42
0.14298283 0.28817794 -3.592191e-29 5.2687987e-09 0.06801427 0.2344904 0.096751 -0.024344008
0.065554455 -0.112466216 -0.008757763 -0.12425429 0.16779563 0.051941 -0.14837146 0.03636579
-0.019788284 -6.4845703e-16 0.029612081 -0.24219991 0.0076516233 -0.21253721 -0.17201738 0.3461011
0.14492211 0.04177675 0.27630886 -3.9888444e-16 -0.0032497696 0.1345964 0.08416201 -2.3311007e-07
0.10032966 -0.09801074 0.21979177 0.2590101 -0.0050470815 0.2853115 -0.03180521 0.022596827
0.26206556 -0.029672831 0.157691 0.18806964 0.10614143 -9.867e-42 -0.030653113 0.011480344
0.068707764 -0.13133876 0.23455498 0.25686407 0.18253738 -0.13079335 0.03755137 5.5380525e-08
-9.834e-42 0.15751195 -0.043578845 3.984887e-15 0.13429216 -0.25324413 -0.049405385 -0.21811125
-0.18477935 -0.09123169 -0.27785936 0.062085908 0.27735215 9.913e-42 0.07354988 -0.17952737
-0.004462935 1.7977381e-21 -0.16618213 0.17121956 0.27712688 0.20019826 -0.02988481 0.01170281
-0.17762952 -0.0009781645 0.27806303 0.011453125 1.3603328e-08 -0.15336914 0.03939292 -1.0236037e-06
0.14555798 -0.19759607 0.076587915 -0.23163402 -0.03178263 0.22949004 -0.11917074 0.14590155

conv2.lin_rel.weight f4 [120, 120]
00000000: 0f4d 8c3b 52a0 9d3d ffc3 3bbe 348c 8a3d
00000010: 2c13 df3d 4c1e 0c3d ece0 e1bd 65bc a53d
00000020: 57a5 353d 8839 9b3d f46e 283d 45fe bd3d
00000030: ccce 0a3d 5e31 4c3c cf3d 5b3e 4ca2 9c3a
00000040: b0a1 bebc e537 1e3d 3c26 203e 4bae 493d
00000050: d3bd dc3c 63c7 aebd 1a0e 2ebc f265 a33d
00000060: 5888 a1bd 1940 013b 09c1 273e 7a42 68be
00000070: 6d79 9b08 640d d4bc c97a c13d 0f95 31bd
00000080: a4fa 38be 7dce ac3d 86d2 56bd 4a0e a5bd
00000090: b2c6 193c 714a 903e a371 a8bd 158a 133b
000000a0: 5b26 64bc 0c61 093d cf31 893d b96d 183c
000000b0: 67c5 87bd d7b0 9e3d 4335 36bd ddef 5d3d
000000c0: e854 e53d 14f7 22bc cb4d 4fbd f6a5 adbc
000000d0: 6d7e aa3d 7868 01be 0dde eebc 4b19 8cbd
000000e0: 191d 383d 6dde 8d3c b8a3 9e3d 1bd3 3abd
000000f0: 7ed8 453c a8b4 fc3c f313 b13d 6bba f43d
00000100: b421 a7bd 572c 12bd 153e 873d 2447 f5bd
00000110: 9eb2 133d 8970 ddbd db17 af3d ea40 5abb
00000120: 86d5 8f3c 15c8 a0bc 07d0 8fbd e6f6 8f3d
00000130: 6821 9d3d 46a1 b43c 078c 5dbd 13f7 a43c
00000140: 0378 8abd 6794 e83c 1f5a 4ebd 912e 8e3d
00000150: 61cd f8bb e4fe 07bc de7d 47be 3a15 023d
00000160: 652e 7abd 06e9 9d3d c4e4 37bd 579c 1fbd
00000170: c4ac 993d aa92 1c3e ba0f 1ebc 6bda 6abb
00000180: 48f4 b9bb 5090 0abc e623 2e3e ecdb a4bd
00000190: 1120 333e 7ba5 08be b8fe a3bd 87d3 753e
000001a0: 0220 8b3d a994 36bd 1ab0 083d 12f3 183c
000001b0: 45b0 763d ac38 77bb da3c 7cba 69bf ae3c
000001c0: 5482 313b 84ba b9bd 9f72 78bc 3eb4 e2bb
000001d0: 6ab1 573d 8c0f c9bd 20d1 7abd 29a3 fa3b
000001e0: 8d45 1c3d 2ba2 9d3d 66b4 21be 73ae 24bd
000001f0: effa d43d 1f01 56bd 5e69 21be 4f35 56bd
00000200: f6ff 463e 738c 103c 0324 c2bc 75ea 2b3d
00000210: 3892 943d c83c fc3d 04b9 373e c64b 6f3d
00000220: dcd2 b33d cda6 b2bc 0f29 a43d a0a7 3ebd
00000230: 4bf3 6b3c 1379 893d 87f1 89bd a9cb 95bd
00000240: 158c a2bd 0fa7 aabd 4273 633d 034b 29be
00000250: d0f5 c909 09ce 1b3d efc9 b23d fb29 903c
00000260: 0d3c b3bc a79b b13c c62e 063d a493 a33d
00000270: f321 e83c 3684 673e c933 0dbd adc4 dcbc
00000280: 09be 823d 33f0 febb c2d9 f23b 3d6d 973d
00000290: 1f55 5bbd ac1f 96bd e044 b2bc b97a d9bc
000002a0: 3e75 2abb 6aeb d7bd 7455 8c3d 6069 36bc
000002b0: 5d40 a23c e7ef 16be 2228 a13d 0ac5 82bd
000002c0: e9a9 babd 45f2 90bd d803 9b3c 95e1 8c3c
000002d0: 19c3 5e3d d86c 57bd 296c 513d 23af b13d
000002e0: 3716 8e3d 51ad 8e3c a519 7d3d a25f 643d
000002f0: fd25 e73c b1cc 75bd bb42 b63d 1860 95bb
00000300: 527a f3bb 9bc0 503d 9bc7 ad3c 4006 b1bd
00000310: bf2e c53d 4453 71bc abe7 b23d ed71 82bd
00000320: fdd9 d4bc 0662 c3bd 0139 743d 813e ddbc
00000330: 29a4 6ebd 63ce 2bbd 4b34 34be 7992 973c
00000340: 7ab6 41bd bc8a 843c 2465 4cbd 9e5a fd3a
00000350: f800 0e3c 30eb 833d 50ff 3c3c a96a 2cbd
00000360: 0667 ef3d 99aa b03c 4282 6e3d c913 2ebe
00000370: cf38 303e 9bc8 f9bd 7a2c 9ebd baa0 a93e
00000380: 1fa7 bf3c e743 103d d14a 47bd 09b0 fe3b
00000390: 700a 433d 0981 a33d 6f50 76bd 5209 8bbd
000003a0: 353a e23d 721b 25bd a4c3 9dba 5567 133d
000003b0: 76c9 d0bd 80f6 e83c 2391 bebc 0988 10bd
000003c0: d6fe 56bb a759 24bb 9a7b 953a 7568 feba
000003d0: aa13 f33a 19a9 03bb 486c f3b8 ee04 eeba
000003e0: 6486 57bb 17c2 bbba 0ddd 0c39 5d9d 29bb
000003f0: aeeb 58bb fc0d 3abb 7c6c 78bb 8be1 dfba
0.004281647 0.07696594 -0.18336485 0.06765023 0.108923286 0.03420858 -0.110292286 0.08092574
0.044347133 0.075793326 0.04112144 0.09277014 0.033888623 0.012462942 0.21410297 0.0011950224
-0.023270458 0.038627524 0.15639585 0.049238484 0.026945984 -0.08534124 -0.010623479 0.07978429
-0.07887334 0.0019722043 0.16382231 -0.22681609 9.35727e-34 -0.025885291 0.094472475 -0.043355044
-0.18064362 0.08437822 -0.052446865 -0.08059366 0.009385752 0.28181794 -0.082247995 0.0022512723
-0.01392516 0.033539817 0.06698953 0.009303504 -0.066294484 0.07748573 -0.044484388 0.05418383
0.11197835 -0.009946603 -0.0506113 -0.0211973 0.08324895 -0.12637508 -0.029158616 -0.06840762
0.044949625 0.017317975 0.077460706 -0.045611482 0.012075542 0.030847862 0.08646383 0.11949619
-0.08160725 -0.035686817 0.06603638 -0.119764596 0.036059014 -0.1081248 0.08549472 -0.0033302852
0.01755787 -0.019626657 -0.070221 0.07029514 0.07672387 0.022049557 -0.05408862 0.020137345
-0.06761172 0.028391076 -0.050378915 0.069424756 -0.0075928424 -0.008300517 -0.19481608 0.031758524
-0.0610794 0.07710461 -0.044895902 -0.038967457 0.075036556 0.15290323 -0.009647304 -0.0035835754
-0.0056748725 -0.008457258 0.17005882 -0.08049759 0.17492701 -0.13344376 -0.08007568 0.24006473
0.067932144 -0.044575367 0.03337107 0.009335296 0.060226697 -0.0037722988 -0.00096221047 0.021331506
0.0027085738 -0.09068778 -0.015164047 -0.006918459 0.05265943 -0.098174185 -0.061234593 0.0076488447
0.038152266 0.07696947 -0.15791473 -0.04020543 0.10399424 -0.052247163 -0.1576285 -0.052296933
0.19433579 0.008822548 -0.023698812 0.041971643 0.072544515 0.123162806 0.17941672 0.058421873
0.087804526 -0.021808052 0.08015644 -0.04654658 0.014401267 0.06712546 -0.06735521 -0.07314236
-0.07936875 -0.08332645 0.05552984 -0.16532521 4.862015e-33 0.038038287 0.08729922 0.017598143
-0.02187922 0.021680666 0.03275945 0.079871446 0.0283365 0.22609028 -0.034473214 -0.026949251
0.063839026 -0.007780099 0.0074112127 0.073938824 -0.053547975 -0.0733026 -0.021761358 -0.026547777
-0.0026009823 -0.105429485 0.068522364 -0.011133522 0.019806081 -0.14739953 0.07868983 -0.063852385
-0.09114439 -0.07077459 0.018922731 0.01719741 0.05438528 -0.052594036 0.05112854 0.08675983
0.06937831 0.017416628 0.061792035 0.055755265 0.028216356 -0.060009662 0.088994466 -0.0045585744
-0.007430353 0.050964933 0.021213343 -0.0864377 0.09628057 -0.014729325 0.087355934 -0.06369386
-0.025982851 -0.09540181 0.059624676 -0.027007343 -0.058262024 -0.041944873 -0.17598073 0.01850246
-0.047293164 0.016179435 -0.049901143 0.0019329374 0.008667223 0.06441343 0.011535481 -0.042093907
0.11689572 0.021565722 0.058229692 -0.16999735 0.17209171 -0.121964656 -0.07723327 0.33130437
0.02339512 0.035221007 -0.048655335 0.00777245 0.047617376 0.07983596 -0.0601353 -0.06788887
0.11046258 -0.040309377 -0.0012036455 0.035987217 -0.101946756 0.028437853 -0.023262566 -0.035285983
-0.0032805703 -0.002507785 0.0011404634 -0.0019409793 0.0018545289 -0.0020089804 -0.00011607312 -0.0018159428
-0.00328865 -0.0014324811 0.00013433788 -0.002588115 -0.003309946 -0.0028389683 -0.0037906459 -0.0017080767

conv2.lin_rel.bias f4 [120]
00000000: 8780 e0bb 2904 013d 3072 05bb 9e25 bf3d
00000010: f3cf 98bc efd1 71bd 5600 afbd be2d 7fbd
00000020: ce7e e4bc b7cf 993d 8a8d c73c 1324 03bb
00000030: 2aaf 2a3c c3c5 053c 5206 55bb a985 d7ad
00000040: d0e7 863c cc94 ab3d 8cee f5bc 49bc 41bd
00000050: 6f80 0dbd 31b7 973d 928c 8bbd b88d 8f3d
00000060: 3f23 643d db5f 943c 1b21 b73d 0eee 9bbd
00000070: ac59 c218 cca0 b9bb 1185 d43b 28e1 9f3d
00000080: 8fc6 d73b da6c 663c 768a 863d 4a88 243b
00000090: 5592 3dbb a1f8 7f3c 744e 643d 24fd 23bd
000000a0: f4bc 3f3d 40fd d03c 9dc4 543d 9659 613d
000000b0: 61e2 df3c 67f2 c93d 4cab bd3d 214f 7a3d
000000c0: 11d1 93bc 7bcc 503c 6860 bebb 31f7 e23c
000000d0: 971d 043d 1534 a33c efa8 263d 6d35 76bd
000000e0: 0bec 2abd 9100 403d 8d5f b03d 26c5 bcb4
000000f0: dbea 103d ea4f 563d 093c 73bd 504d 9b3d
00000100: 321c b83c a4a9 cc3c 220d a2bb 6ee6 fdbc
00000110: 0c26 063d 6883 9d3c 9170 473d 88ac ba3b
00000120: 838d 093d ad89 a93d a0d0 493c 1b73 f7bc
00000130: 6f0f 583c 911b 0000 6e2e a2bc bc56 2cbd
00000140: 1848 1fbd d9bd c23d fa1d e53c f691 663d
00000150: 4099 a0bd 4331 27bd a323 54bd 58d9 853d
00000160: 55f0 bb3c c77a 403d 918a 46bc 603c 003d
00000170: a583 eb3c b2c6 c73d eb35 5a3d d3d3 9ebc
00000180: c68a aa3d 06da 25bd 8b24 6c3d 90b1 8e3d
00000190: 6596 95bd 2bb8 bd3d 2e45 8a3d c363 56af
000001a0: fde1 ae3d 19cf 84bc ffdb 8a3d 3918 903d
000001b0: 81b6 98bd c989 f53d a0f5 563d ccd4 2abd
000001c0: a31c 85bd e82a a63d 0408 263d a4f4 b43d
000001d0: 190d 1abb 5ed2 9f3d 67b1 183d 95d4 c63d
-0.006851259 0.031498108 -0.002036225 0.09333347 -0.018653845 -0.0590381 -0.08544986 -0.062299483
-0.027892496 0.075103216 0.024359483 -0.0020010516 0.010417739 0.008164826 -0.0032504988 -2.4502027e-11
0.016467959 0.0837799 -0.030020975 -0.047298703 -0.034546312 0.07407988 -0.06813921 0.070094526
0.055697676 0.018112114 0.08941861 -0.07613765 5.023837e-24 -0.0056649204 0.0064855893 0.07806617
0.0065849493 0.014064038 0.06569378 0.0025105649 -0.0028926332 0.015623243 0.05573888 -0.040036336
0.04681106 0.025511384 0.051945318 0.055017076 0.027329626 0.09860688 0.09261188 0.06111062
-0.018044027 0.012744064 -0.0058098324 0.02770576 0.03225478 0.019922296 0.04068845 -0.060109545
-0.041729014 0.04687554 0.08611975 -3.5161173e-07 0.035380226 0.052322306 -0.059383426 0.075831056
0.022474382 0.024983235 -0.004945413 -0.030993666 0.032751128 0.019227698 0.048691336 0.005696837
0.03358222 0.08278213 0.0123178065 -0.030206254 0.013187273 9.889e-42 -0.01979753 -0.042074904
-0.038887113 0.09508867 0.027968396 0.056291543 -0.0784173 -0.040818464 -0.0517918 0.06535596
0.022941748 0.04699209 -0.012117998 0.031307578 0.028749296 0.09754695 0.053274076 -0.019388115
0.0832725 -0.040491126 0.057652038 0.06967461 -0.07304076 0.09263643 0.06751476 -1.9498629e-10
0.085391976 -0.016212033 0.06780242 0.0703587 -0.07456685 0.11989171 0.05248034 -0.041706845
-0.06499603 0.081136525 0.040534988 0.08835724 -0.0023506342 0.07803796 0.03727856 0.097085156

conv2.lin_root.weight f4 [120, 120]
00000000: 6259 cd3c 5c50 373d d0a0 19be 9f82 debc
00000010: 4b9d 8f3d 9dec 3ebd a30f 3bbe 7e60 2f3d
00000020: d328 283e 75ee a73d c9eb ebbc c3cc fd3c
00000030: bd7f 473d 8d90 2f3e f3d6 e03d 617e cf3d
00000040: 7d47 3bbd 6279 8dbd 093a 083e 8056 b43d
00000050: 9314 05bd a517 353d 80a3 0fbc 55f8 66bd
00000060: cf25 09bc 0b90 483d 0204 2b3e d265 8dbd
00000070: b3a8 0200 206a 2bbd e975 50bd eaf3 8bbd
00000080: ef55 84bd 84c4 bc3d 28f4 f9bc 80ba 163c
00000090: 1afb 503d 64e1 623e 74f5 993c 11f3 533c
000000a0: b7ef 9f3d 55d5 7abd b928 dd3d 3bd7 41bd
000000b0: 6f16 7b3d 7a89 b03c ec36 c73d b5c2 7dbd
000000c0: 3972 08bd 16da 29bd c2cd a23d a3d3 80bd
000000d0: 555c 6b3d 552d 0ebe a1f7 b8bd 71a5 643d
000000e0: 078c ef3b b887 f63c dfc1 a3bb 4e0a 6cbd
000000f0: 6732 803d 433f 533d 1376 703d f29f 213d
00000100: 0e0d bd3d 8f60 91bd f1b1 1abd adef 85bc
00000110: cbbc ed3d 6162 a4bd 8efb a23d e1a0 a4bd
00000120: 4544 93bd 8dc8 aaba 793f 58bd bc5c d33a
00000130: 3a26 a23d a512 dfba 1083 f5bc d0e4 abbd
00000140: ee4e 08bd 4437 1dbd 12b1 823c 642c 87bb
00000150: 5b7a 7d3d 9717 afbc f6d7 31be 9677 2a3c
00000160: ab4e cb3d b874 813d f88d 27bc 03b7 b53c
00000170: fa30 783d 30cd 323c d3fa f33c c839 c13c
00000180: c8dd 543d b9d7 5a3c 4f76 903d 7052 0cbe
00000190: 49c5 2a3e 2362 39be fcf9 adbd 8614 4f3e
000001a0: 01fa c2bb 4d52 603c 410b 853d 0f0f acbd
000001b0: 0d85 343d 159c e63c 7730 a3bd da8d 81bd
000001c0: b14a 3d3c b45e c1bc 2caa 59bd 9848 84bd
000001d0: 76ea 49bd 660e 9e3d 499a 95bd 8631 8fbd
000001e0: 7fe2 073d c6b6 09bb e85f 0ebe 06c7 82bd
000001f0: 9859 3b3e 7694 f4bc 2be2 1abe bddd 49bd
00000200: 7687 333e 6587 cb3d b429 3bbc 5836 a83d
00000210: 15aa a3bc 0bbb e13d 10a8 163e 4a3d 983d
00000220: 434c ad3c b793 e6bc 33b3 063e ca9e 07bd
00000230: 5788 b03c 9312 69bd 8c1e 9bbd 079b 8ebd
00000240: b221 983d 0eda 983d 7318 0a3e b5bb 00be
00000250: 020a 0080 4cb7 703d 3311 5c3d 3e11 d03d
00000260: 5073 0dbd c5f2 873d 9243 b0bc ab59 443d
00000270: 1ec3 52bd d445 1a3e c1c7 b13b f616 843d
00000280: f42f d33c 4c9c 97bd 62df ac3d 1b7f f43c
00000290: 441a 903d 76a6 d13d dff3 f2bc cb37 89bb
000002a0: 2d96 e73d 041f 65bd e1e7 993d 6d81 55bd
000002b0: 1eae eebb c4ea 16be d526 b8bb 4a2b 833d
000002c0: 2cfd 603d 78b8 6e3c bf63 cabd 8f5d dbbb
000002d0: f6d2 983d b377 4d3d bb7d b23c 6ba7 0d3e
000002e0: 77cc 2d3c fcab b33d c3a9 e03d 7064 c83c
000002f0: 882e 473d 711b 36bd e3ba 8a3d c8f6 113d
00000300: 3a05 8abd 33fc b43d 77bb 11bd e7df a83d
00000310: 3be1 2c3d d719 a0bb 96bf 2dbd 68c2 8cb9
00000320: 6a5a 87bd 63ff 85bd 849b 45bd 2ba1 193d
00000330: 917a 933d d6da 673d 60f9 42be 4679 9a3d
00000340: f48a e8bc a8aa 233e 61a3 ee3d 8232 5ebd
00000350: 7fab 603c 4991 9d3d 6a9e 9d3d 725b a83c
00000360: 0a08 bc3d 17be 8d3d c369 113e cd9d 2fbe
00000370: 19a8 233e f649 c3bd 12c1 a8bd 4bd0 253e
00000380: 8ae3 233d 7d08 11bc 2d62 ad3d 404e c6bd
00000390: 499f 4ebc 2a57 f03b e9b5 803c ddb9 4fbd
000003a0: 2545 c33d f1ec b43d 7401 f43d d71c 993b
000003b0: 025d 8abc fdc9 c6bc d74e 5fbd 8461 9b3d
000003c0: b94d 3abb b176 23bb 3360 473a dec1 fcba
000003d0: 24ff 903a f589 01bb 2080 0bb6 f80b c8ba
000003e0: dc5c 18bb cc38 79b9 02fa cb39 d97c 10bb
000003f0: ede8 3bbb 63a5 16bb 61e3 34bb f053 d5ba
0.025067035 0.04475437 -0.15002751 -0.027161894 0.07012423 -0.04661237 -0.18267684 0.04281663
0.16421823 0.08199779 -0.028798955 0.030981427 0.048705805 0.17144985 0.10978498 0.10131527
-0.045722473 -0.069079176 0.13303389 0.08805561 -0.032490324 0.044212002 -0.008767009 -0.05638917
-0.008370831 0.048965495 0.16700748 -0.06904186 2.44189e-40 -0.041849256 -0.050893698 -0.06833632
-0.06461703 0.0921717 -0.03051193 0.0091997385 0.05102072 0.22156292 0.018793799 0.0129363695
0.07809394 -0.061238606 0.10798783 -0.0473244 0.06130069 0.021549929 0.097272724 -0.061953265
-0.033312056 -0.04146775 0.079494014 -0.062903665 0.0574611 -0.1388448 -0.090316065 0.05582184
0.0073103937 0.030094013 -0.0049974765 -0.057627015 0.062596135 0.051574003 0.058706354 0.039459176
0.092310056 -0.07098495 -0.037767354 -0.016349638 0.11608275 -0.08026577 0.079581365 -0.08038498
-0.07190756 -0.001302974 -0.052794907 0.001612566 0.079174474 -0.0017019106 -0.029969722 -0.08393252
-0.0332784 -0.038382784 0.015953574 -0.004125165 0.061884265 -0.021373553 -0.17367539 0.010404488
0.09927114 0.063210905 -0.010226719 0.022181993 0.060593583 0.010913178 0.029782688 0.023587123
0.05196932 0.013357096 0.070538156 -0.13703322 0.16676821 -0.18103842 -0.08494946 0.20222673
-0.005950213 0.013691497 0.06496287 -0.0840131 0.0440722 0.028150598 -0.07968228 -0.06325884
0.011553452 -0.023604728 -0.053140804 -0.06459159 -0.049295865 0.0771759 -0.07304818 -0.06991868
0.033174988 -0.0021013482 -0.13903773 -0.06385617 0.18295896 -0.029855948 -0.15125339 -0.04928373
0.17532143 0.09937934 -0.011423517 0.0821349 -0.019978562 0.11022004 0.14712548 0.07433565
0.021154528 -0.028146608 0.13154297 -0.033110417 0.021549387 -0.05690248 -0.07574186 -0.06963163
0.07428302 0.07463466 0.13485889 -0.12571605 -3.59e-42 0.058768556 0.05372734 0.10159539
-0.0345338 0.066381015 -0.021516595 0.047937077 -0.05145561 0.150657 0.005425424 0.06449692
0.025779702 -0.07402858 0.084410444 0.029845765 0.0703626 0.10236828 -0.029657302 -0.0041875592
0.11307941 -0.055937782 0.075149305 -0.052125383 -0.00728394 -0.14737993 -0.0056198635 0.06404741
0.054928944 0.014570348 -0.09882306 -0.0066945027 0.074621126 0.050162982 0.021788469 0.13833396
0.01060783 0.08773038 0.109698795 0.024461955 0.04862836 -0.044459764 0.06773927 0.03563574
-0.06739278 0.08837166 -0.03557917 0.08245831 0.042206984 -0.004885893 -0.04241904 -0.00026847725
-0.06609042 -0.06542852 -0.048244014 0.037507217 0.07201112 0.056605183 -0.19040442 0.07542662
-0.02838657 0.15983069 0.11652256 -0.054247387 0.013712763 0.076937266 0.07696231 0.020551417
0.09181221 0.069210224 0.14200501 -0.1715004 0.15982093 -0.09535591 -0.0823995 0.16192739
0.04001192 -0.008852121 0.08465991 -0.09682894 -0.012611219 0.0073346095 0.015711742 -0.050714362
0.09534673 0.088342555 0.1191434 0.0046726274 -0.016890053 -0.024266237 -0.054518547 0.07586959
-0.0028427674 -0.0024942572 0.00076055824 -0.0019283851 0.0011062366 -0.0019766067 -2.0787193e-06 -0.0015262356
-0.0023248708 -0.00023767649 0.00038905448 -0.0022047071 -0.002867277 -0.0022986762 -0.0027601349 -0.0016275626

conv3.lin_rel.weight f4 [120, 120]
00000000: beb2 1abd 1e15 d7bb 7b46 d73a 717c 0cbd
00000010: 83f0 16bd 643b 0a3d cc69 5d3d 72f5 9c3d
00000020: 7a97 2cbd 309b 1c3d 64fa 8d3d 74bc 71bb
00000030: 577a 8f3d 109e af3d 6b17 ec39 901b 0080
00000040: a4f6 4cbd 056d 993d d393 dfbc d370 37bd
00000050: 64d5 a23d 7f28 343d cc53 8cbd dd4a d93d
00000060: ccdb 76bd 8aaa d13d 1460 033d e41d 36be
00000070: 5b6f 231b 909c c23c db1b 853c 47b3 043c
00000080: b7c0 523d ccc6 48bd 1a2b 55bd 4a59 bb3d
00000090: 7e36 31ba f66f 77bc 6bfa f83d 71eb 873d
000000a0: 36b7 e83d 0f46 19bd 64be b33d 6688 5f3d
000000b0: 23fa e5b8 7e14 57bd 613f cf3d bc55 9bbd
000000c0: 276c 283b b82b 333d 4d78 c03d b1d5 013d
000000d0: d981 18be c371 8abd 3f0c 3d3d f5d9 4f3a
000000e0: 48fd 13bd 7e82 1ebd c293 7e3a 09da bc1d
000000f0: a751 16bc 7dd6 d23d a47a eb3d 3ad9 86bd
00000100: 6915 0d3d a4e8 1a3e 3e5b 863c 3eea 1cbe
00000110: 632e 653b adeb d03d 5ecd 4c3d 6de4 1d3d
00000120: e963 3fbd c649 4c3c ac51 0e3d cd67 cb3c
00000130: dd31 88bd 9c1b 0080 aa85 3fbd 62b4 b53d
00000140: 600d 00bd 0ad7 853b de4a cbba 5281 a03d
00000150: 51ee a5bc 8ecf fabc 105e 123d 7912 053e
00000160: 12dd 44bd 2c8a 3a3d f266 523d c570 86bb
00000170: 9ce4 1c3d e0a3 4e3d f516 b63d ce19 81bd
00000180: a234 b6bd 3255 b5bc 2b78 3abe 651c ecbc
00000190: f7c6 943d 20d1 67bd a14d debd b61b 0000
000001a0: 73c3 173e 5b86 eebb 73ea dfbb bf28 f8ba
000001b0: d191 413d 0b88 c13d db6f 473d c84b 8f3d
000001c0: 7654 443c 35b2 a33d 7eb3 8ebd 5686 2bbd
000001d0: ac41 8c3b 15fc 093d ad80 363d 78f8 783d
000001e0: 88c7 be3d 2c19 283a 93bd ddb9 95c4 83bd
000001f0: 4ea3 153d ea66 80bb c36f b13d cb46 34bd
00000200: 2bb5 2dbd 2cde 71bd 0517 61bd 3415 c8ba
00000210: f077 cfbc a9ce fbbc ec92 b7ba b81b 0080
00000220: fb65 c73d 82a9 b03d 0961 d2bd 72f5 3ebd
00000230: da76 033e a8c9 ad3d 08ff 313c cc12 b43d
00000240: 49e3 d03d 3ca8 b8bc 90e4 8a3d a060 48be
00000250: e68b 3ba9 c885 dc3d 9f13 b23d 51b6 de3d
00000260: 028c 723d d877 58bd e30d b8bd 105a 633b
00000270: 4b66 ddba f171 df3d b655 ac3d 7795 273d
00000280: b082 c3bc 79a7 a43d 08ee 4d3d b82a a83d
00000290: 3bd2 17b7 f1c7 eb3d 8197 133e 5865 bdbd
000002a0: 74f0 e8bc 58ab aa3d 5088 813d c95e 053e
000002b0: c54d 30be 7974 963d 4e9f 97bd d107 c73a
000002c0: 16ff 84bd cc68 fabc 87be f63d 771b 0000
000002d0: 809d cd3d 6422 813d ab84 e43d 7817 71bb
000002e0: b6bd a3bc c1ba 663d c81e 993d b7a5 26be
000002f0: 3a69 c9ba f68b a0bc 4770 d9bd d0ab 94bd
00000300: 9cc5 ac3d a7a0 dc3d b2f6 283d 2963 993c
00000310: 3175 443d 091c 0080 1ba0 44bd 0cb2 023a
00000320: 6eac 093c 7102 563d a029 0aba 0585 ee3c
00000330: b792 32bd 81f2 2ebd abd0 f43c c67f 533d
00000340: 0c75 023d 826b 19bd 71cd ae3c a05e db3d
00000350: a88e 103d e80c 323c 5ea2 793d bd6c 1c3d
00000360: 4645 26be d94f 423d 4c9a 37be ac18 c93c
00000370: f079 c63d 0c97 a63d feab f3bd 601b 0080
00000380: 6b71 ec3d d391 b73d 9eab 6ebd 8b25 74bd
00000390: f81d 81bd a857 a33a 0b48 123e 6c41 debc
000003a0: f66a e83d 0254 f83c 0daf b9bc 2912 4dbe
000003b0: 8f0c 8c3a 4cae 91bd c0e2 38bd b367 8c3d
000003c0: 8894 5e3c 828b e23d ad79 6f3b 3bf9 893d
000003d0: 27be 65bd aa01 cf3c 6756 f1bc 0dd1 9f3c
000003e0: b1f4 b6bc 6a13 553d ee11 563c c429 36bb
000003f0: 6b5e 873b c417 8b3c d380 5fbb 811b 0000
-0.037768118 -0.0065637967 0.0016424203 -0.034298364 -0.036850464 0.033748046 0.054055974 0.076640025
-0.042136647 0.038233936 0.06932524 -0.0036886008 0.07005756 0.0857507 0.00045030875 -9.888e-42
-0.050039902 0.07491497 -0.027292168 -0.044785332 0.07950857 0.043983933 -0.068519205 0.10609982
-0.06026821 0.10237606 0.03207405 -0.1778484 1.3519025e-22 0.023756295 0.016248634 0.008099384
0.05145332 -0.049017712 -0.052043058 0.0914789 -0.0006760134 -0.015102377 0.121571384 0.06636704
0.1136307 -0.03742033 0.087765485 0.05457344 -0.000109661625 -0.052509777 0.101195104 -0.07584712
0.002569923 0.043742865 0.093979456 0.031697933 -0.14893283 -0.067599796 0.046154257 0.00079289015
-0.03613022 -0.038698666 0.00097113487 4.998863e-21 -0.009174741 0.10294817 0.11498001 -0.065844014
0.034444246 0.15127808 0.01640093 -0.15323731 0.0034970276 0.102012016 0.05000054 0.038547922
-0.04672614 0.012468761 0.034745857 0.02482977 -0.06650136 -9.904e-42 -0.04675833 0.08872296
-0.031262755 0.0040844725 -0.0015509983 0.07837166 -0.02025524 -0.030616548 0.035734236 0.12995328
-0.04806239 0.045541927 0.051367708 -0.0041027986 0.038303956 0.050449252 0.088910975 -0.0630375
-0.08896758 -0.02213535 -0.18209903 -0.028822133 0.07264512 -0.05659592 -0.1085465 9.941e-42
0.14820652 -0.0072792 -0.0068333684 -0.0018933042 0.047258202 0.09449776 0.048690658 0.06996876
0.011983028 0.07992975 -0.06967829 -0.04187616 0.0042802896 0.03368767 0.04455631 0.060783833
0.09315401 0.00064124423 -0.0004229365 -0.064339794 0.036532693 -0.0039185183 0.08663895 -0.044012826
-0.042409103 -0.05904977 -0.054953594 -0.0015265108 -0.025325745 -0.030738192 -0.0014005578 -9.944e-42
0.09736248 0.08626081 -0.10272414 -0.046620794 0.12838307 0.084857285 0.010864027 0.08792648
0.10199601 -0.022541158 0.06781876 -0.1956811 -4.1643684e-14 0.10767704 0.08695149 0.10874618
0.059215553 -0.052848667 -0.08987024 0.0034691133 -0.0016891448 0.109104045 0.084147856 0.040914025
-0.023866028 0.080397554 0.050275832 0.08211273 -9.0492495e-06 0.11512745 0.14413263 -0.092478454
-0.02843497 0.083334625 0.06324828 0.13024439 -0.17217167 0.07346434 -0.07403432 0.0015184825
-0.06493966 -0.03056755 0.12048059 9.853e-42 0.10039806 0.063053876 0.11158117 -0.003678767
-0.019987922 0.056330446 0.07476574 -0.16274153 -0.0015366443 -0.019597989 -0.10617118 -0.07259333
0.084361285 0.107728295 0.041250892 0.018724041 0.047963325 -1.0057e-41 -0.04800425 0.00049856375
0.008402927 0.052248422 -0.0005270485 0.029116163 -0.04359695 -0.04271174 0.029884657 0.051635526
0.031849906 -0.037456043 0.021338196 0.10711408 0.035292298 0.010867335 0.06094586 0.03818964
-0.16237363 0.04743943 -0.17929953 0.024547897 0.096912265 0.08134279 -0.11898039 -9.82e-42
0.1154507 0.08963361 -0.058269136 -0.059606116 -0.06304544 0.0012462037 0.14285295 -0.027130805
0.11348526 0.030313496 -0.022666479 -0.20026459 0.0010684895 -0.071133226 -0.04513812 0.068557166
0.013585217 0.11061765 0.003654103 0.0673699 -0.056089547 0.025269348 -0.029460145 0.019508863
-0.022333475 0.052020468 0.013065798 -0.002779589 0.0041311285 0.016979106 -0.0034103885 9.867e-42

conv3.lin_rel.bias f4 [120]
00000000: d0c3 933d 9e3a 753d 2dd4 0b3d b95e c5bc
00000010: 20fd 493d 3af8 9f3d f04a 9c3d 51f8 99bd
00000020: 4dee 983d 525b b53c 434f 68bd fadb 6c3d
00000030: 55b8 75bc c999 b13d 20d5 463d 32eb 32bd
00000040: 825d 4cbd b842 5f3d 13be 9b3b 4c21 e5bc
00000050: 1aad 123d 2ff5 41bb b16e b43c 65f5 a93d
00000060: 5ca1 823d 640c 91bd 78c6 bfbd 1271 2e3d
00000070: feed 8f3d 14a6 da3c 6a7e 8fbd ea40 563d
00000080: 3047 b83d 4e11 92bd 0e6f 943c 6f3a 3cbd
00000090: 6aa4 f33c e061 953d d058 01bd cb37 f03c
000000a0: d18b fe3b dfbc 45bd 7e10 abbd b290 983b
000000b0: 8025 3b3d 89ed c93c 6672 fc3b 9a37 493d
000000c0: 81cf f338 7306 a43d a09a 6abd b55d 4e3d
000000d0: a8f4 3c3d 6f2c 553d 5a24 96bd 99e9 153c
000000e0: 70d2 3abd 2d94 52bd 76e5 b03d 195a b2bb
000000f0: 5132 173d 11b2 893c fec0 3abd 56f7 943d
00000100: 6bdb 10bd ab7c 93bd bbfe 68bc 536e 77bd
00000110: e17c 7a3c 725b 083d 0b3a 8abd 4980 dabb
00000120: 9fdb 173d e078 4fbc 549d d73c f9fa 9fbd
00000130: 3cb3 883c 6eb3 90bd daa3 8d3d 1f51 98bd
00000140: c179 a03d 7998 5c3c 2780 283d 449d 13bd
00000150: c6d2 803b 40c5 5bbc bdc3 5cbd cfa7 c73d
00000160: 57f5 c4bc 2d55 0dbc 1cd7 803b e521 ffbc
00000170: 27cd 353c cb7b 8f3d 8c3e 2ebd a0a3 543d
00000180: 8140 993d f709 b23c 3a6d aa3d 187f 94bd
00000190: d241 95bc eb17 04bd 40b5 9b3c 9f78 17bc
000001a0: 24ef 073c 4d18 253d 4ca2 7f3b f26c b73d
000001b0: ac53 0a3d 31c0 a1bd 1381 163d febf c53d
000001c0: b27d a13b 6a1e 3d3d a3df 69bd de97 9cbc
000001d0: a705 4abc cda8 cf3a ad4e 1a3c ba4f 0fbd
0.07215083 0.059870355 0.034137893 -0.024093019 0.049313664 0.07811017 0.07631481 -0.07518066
0.07467327 0.022138271 -0.056716215 0.057826973 -0.014997561 0.0867191 0.048543096 -0.04368133
-0.049893863 0.054506987 0.004752883 -0.027969979 0.035809614 -0.0029595604 0.022025438 0.082987584
0.06378433 -0.070824414 -0.09364027 0.0425883 0.07027815 0.02669052 -0.070065334 0.052308
0.08997953 -0.07132207 0.018119361 -0.045954164 0.029741485 0.07294059 -0.03157884 0.02932348
0.0077681323 -0.048275825 -0.08352755 0.004655921 0.04569006 0.024649398 0.007704067 0.04912529
0.000116257936 0.080090426 -0.05727637 0.050382335 0.04613176 0.05204433 -0.07331152 0.009149932
-0.045610845 -0.051410843 0.08637516 -0.0054428694 0.03691322 0.016808541 -0.045594208 0.07273738
-0.035365503 -0.07201513 -0.014220889 -0.060407948 0.0152885625 0.033290334 -0.06749352 -0.006668125
0.03707468 -0.012663096 0.026320137 -0.07811541 0.016687028 -0.070654735 0.06916018 -0.074373476
0.07835723 0.013464087 0.04113784 -0.036038652 0.003931376 -0.013413727 -0.053897608 0.09748804
-0.024042768 -0.0086262645 0.003931893 -0.031144092 0.011096275 0.070060335 -0.042540118 0.051913857
0.07483006 0.021733267 0.083216146 -0.07250804 -0.018219862 -0.032249372 0.019007325 -0.009245067
0.008296762 0.04030638 0.0039006649 0.089563265 0.033771202 -0.07897986 0.03674419 0.0965576
0.004928314 0.046171583 -0.057098042 -0.019115385 -0.012330449 0.0015843153 0.009418172 -0.034988143

conv3.lin_root.weight f4 [120, 120]
00000000: 9f2b f53c 731f 53bd 76f5 c43a 884c e6bc
00000010: 8d43 c23c fa81 91bb 12f6 b73d 2765 5bbc
00000020: ae86 3abe 3cc1 21bd 2882 463d 8797 64bb
00000030: 47bc e83d 08b7 583d ab47 3f39 601b 0000
00000040: afce 20bd f1e5 3abd 3553 923c 0966 cb3d
00000050: 1565 693d 7f2f 2c3d aec2 82bd 1dff 963d
00000060: 4269 5e3d 3fb0 25bd b1ae 253d 8823 4ebe
00000070: 6fff ce18 5b90 56bd ef28 053d 3970 643d
00000080: e37a a93c b4ca 3ebd 0950 ebbc 4a43 a5bd
00000090: b0e2 70b8 70d4 003e 6eef 2dbd 5c98 edbc
000000a0: 4277 c53c 606b 69bd e1c2 313d cc35 583b
000000b0: d967 c2b8 7380 c43d b252 c4bb c210 90bd
000000c0: da66 8f3d 5e0a 543d 1f85 2b3d b101 1c3e
000000d0: 5890 2cbe 0844 da3d 3791 863c 6feb bb39
000000e0: 5a2b 35bb 67b7 38bd ebaa c13b be9a c087
000000f0: a496 64bd 22ca cc3d 2a43 6a3d f573 c9bd
00000100: 1961 a63c df1f 803d 8e66 1bbd 4923 1bbe
00000110: 66d6 883a e465 593c b5d9 ccbd b85b bb3b
00000120: eb9e 9ebc 8c9b dc3d 651a f03d 1bb3 8a3d
00000130: fdb4 093d 6d1c 0080 92e2 16bd 5a82 8abd
00000140: 2701 c93d c423 2f3c 6f16 67ba 685a 1cbd
00000150: 1f2f 533b 49a6 3d3d 61cf 0d3c 9c0f 03bd
00000160: 7d0b 36bd 3135 69bd 7727 e13d 979e 193d
00000170: 010f 393d a6d0 943d e510 01bc cb3c f1bb
00000180: c837 1cbe 6538 883b 3fd1 25be 2eab 783c
00000190: b662 653d 7d32 cf3d 7bb1 8ebd a11b 0000
000001a0: 37e6 033e 7a35 4a3d 6a35 f63c cfb6 cfbc
000001b0: 0d3b 4bbd 736b b23d 98c1 423d 15ac c83d
000001c0: 0059 58bd 4901 17bd 2a72 7e3d 8ed8 a3bd
000001d0: 3dfb 653b 813c 503d 53e1 6abd 60f6 fc3c
000001e0: f980 24bd 12e8 b73d c65b 85ba a927 cebd
000001f0: 8ab6 303d fb50 08ba e44d f33c e1fb b33d
00000200: bc74 e1bd e032 cd3d 4303 6e3d 2096 d6ba
00000210: cf68 e83d 9b2f fd3c ea78 a6ba a11b 0080
00000220: 7bab dc39 1f79 553d 25b4 dcbd 7f0d b13d
00000230: 0bd9 2fbd e5b1 cd3d 5ada 11bd 6cb0 54bb
00000240: a637 8bbc 68ec de3d 54e0 56bd 56d7 56be
00000250: ca98 6599 83ef 3d3d 2c6e 91bd b36d d13d
00000260: 5f0f 1d3c 2299 4cbd e0de 05be 26eb ad3d
00000270: 43ce 41ba e9ed 0f3e 1e90 8d3d b27b 383d
00000280: 9935 d43d 00ab 30bd 1461 0b3d 0083 bb3d
00000290: d6cc 0cb6 dcd2 51bd 17c9 9d3d 6396 323c
000002a0: 3264 733b 2177 ac3c 4fe5 123d 3c4b 013e
000002b0: 4243 44be b8e5 2d3d 23c9 7ebc f76a 0739
000002c0: 125f 4b3d 2443 8d3d 38f6 083e a11b 0000
000002d0: 601d e73c 7889 fabc e834 863d 5856 503c
000002e0: d24d 2ebd 7d0c 833d 81df 25bd c1cd c4bd
000002f0: 0956 073b 2809 af3d b0ac 83bd 45f6 803c
00000300: 0f1a 5a3d c89b 39bc a8f7 183c 3afb 003d
00000310: 6366 4e3d a11b 0080 fee7 39bc d478 b93d
00000320: 77b9 7a3d 8406 9e3d 4473 9fb9 50be 293d
00000330: 66a8 a23d 8731 22bd 8316 923d 9fd3 183c
00000340: ff6c ed3b 2477 2f3d a9a3 f5bc 8dbf b33c
00000350: 4679 773d 5ac2 20bc 6dec d03d 8f5e d43d
00000360: 1646 dabd 4258 473d bb51 29be 80ce 8f3c
00000370: e6b8 d23d 2be5 43bd 8170 14bd 671b 0000
00000380: 1b4b b43d b50b 833d 4e63 813c 195c bd3d
00000390: d1cb c43d c1fb 273e c32f 973d a49d 543d
000003a0: f37d f13d 9f00 723d 1d34 da3c 3948 cebd
000003b0: c289 403a 37a6 52bd 385e ab3d f0f6 b93d
000003c0: a22e 003e fa78 013e 3a7e 563b e7c1 d1bd
000003d0: 82a0 083a 0044 963d 236c d03d fcd1 a33d
000003e0: cc0d 00be 953e 3e3d 095d 043d 2bf4 2fbb
000003f0: 1777 283d fcee 493d f769 56bb 661b 0080
0.029928027 -0.051543664 0.0015026766 -0.028112665 0.023713851 -0.0044405432 0.08982481 -0.013390816
-0.18215439 -0.039490923 0.04846397 -0.0034880356 0.11364036 0.052908927 0.00018241878 9.82e-42
-0.03925961 -0.045629445 0.017861942 0.09931571 0.056981165 0.042037483 -0.063847885 0.07372878
0.0542996 -0.040451284 0.0404498 -0.20130742 5.3507674e-24 -0.05238376 0.03250974 0.055771086
0.02068848 -0.04658003 -0.028724687 -0.08069475 -5.7431578e-05 0.12581038 -0.042464666 -0.029003315
0.024104718 -0.056987166 0.04339874 0.003299105 -9.269984e-05 0.09594812 -0.0059913034 -0.07034446
0.07002039 0.0517677 0.041875 0.1523502 -0.16851938 0.10657507 0.016426666 0.0003584283
-0.0027644248 -0.04509678 0.0059102676 -2.8979898e-34 -0.055807725 0.09999491 0.05719296 -0.0983657
0.020309972 0.06256079 -0.0379396 -0.15150179 0.0010439872 0.0132689215 -0.10002462 0.005717721
-0.019362887 0.10771856 0.11723784 0.06772443 0.03361987 -1.0197e-41 -0.036837168 -0.06763144
0.09814673 0.0106896795 -0.00088152935 -0.038172156 0.0032224131 0.04630116 0.0086554 -0.031997308
-0.04444455 -0.056935493 0.109938554 0.03750476 0.045180324 0.07266359 -0.007877563 -0.0073619834
-0.15255654 0.0041571134 -0.16193102 0.015177531 0.05600234 0.10117052 -0.069674455 9.911e-42
0.12880789 0.049367405 0.030054767 -0.025355725 -0.049616862 0.087119006 0.047547907 0.09798447
-0.052819252 -0.03686646 0.062120594 -0.08000289 0.0035092377 0.05083895 -0.057343792 0.0308792
-0.04016206 0.08979811 -0.0010174445 -0.10066158 0.043142833 -0.00052000553 0.029700227 0.087882765
-0.110085934 0.10019469 0.05810858 -0.0016371645 0.11348116 0.03090649 -0.001270083 -9.911e-42
0.00042089433 0.052117463 -0.10776547 0.08645152 -0.042931598 0.10043696 -0.035608627 -0.0032453788
-0.016994309 0.10884935 -0.05246003 -0.20980582 -1.1869878e-23 0.046370994 -0.07101092 0.102260016
0.009586184 -0.049950726 -0.13073301 0.08492117 -0.0007393101 0.140556 0.06912254 0.04503984
0.103617854 -0.04313183 0.034028128 0.09155846 -2.0980856e-06 -0.05122648 0.077043705 0.010900113
0.0037138578 0.021052899 0.035863217 0.12626356 -0.19166282 0.042455405 -0.015550884 0.00012914451
0.049651213 0.06897572 0.13375175 9.911e-42 0.02821225 -0.030583128 0.0655306 0.012715898
-0.042554684 0.06398866 -0.040496353 -0.09609557 0.0020650646 0.08546668 -0.06429422 0.01574243
0.053247508 -0.011328645 0.00933639 0.03148959 0.050390612 -9.911e-42 -0.011346815 0.09056249
0.06121203 0.077160865 -0.00030412723 0.04144126 0.07942276 -0.039598014 0.071332 0.009327798
0.0072456594 0.04283823 -0.029985266 0.021941924 0.06041839 -0.009811962 0.10201345 0.10369598
-0.10657899 0.048668154 -0.16535084 0.017554522 0.10289173 -0.047825973 -0.036240105 9.83e-42
0.08803388 0.06398717 0.015794422 0.09246082 0.096091874 0.1640463 0.07382157 0.05190815
0.11791601 0.059082624 0.026636178 -0.10072369 0.0007344746 -0.051428046 0.0836758 0.09080303
0.12517789 0.12643805 0.0032729045 -0.10242062 0.0005211906 0.07337189 0.101768754 0.07999036
-0.12505263 0.0464464 0.032315288 -0.0026848416 0.041129198 0.04930018 -0.0032716969 -9.829e-42

lin.weight f4 [1, 120]
00000000: ec30 003e ce73 a03d 872f 113e 40af 88bd
00000010: 68a7 043e 4718 373d 91bf a33d 12ec 8b3d
00000020: b0f4 5cbd 262d c6bd 0129 a13d 36d3 5abd
00000030: ae74 dc3d 6f6d a73d 28d3 953d 4a9e 693d
00000040: f6d2 4c3d 0c97 03be 458f 883d 3686 f53d
00000050: d14d fdbd 919c 62bd c1f9 f8bd 0601 d0bd
00000060: 3db5 a3bd 1a29 cd3d e190 8ebd bfdb 8ebd
00000070: 70ab d6bd 1141 363d 21bd 8e3d a96d 3ebd
00000080: 520e 4f3d 24c8 9fbd 0814 c43d 738e ae3d
00000090: 8975 9c3d 3b3d 853d 3a01 ab3d d98c 5dbd
000000a0: 1700 bebd 0a4e b6bd 2d98 9dbd 75a4 e83d
000000b0: 4f67 4e3d 146e 733d 4f13 e0bd 5f78 013e
000000c0: ffcf bb3d 59e0 bfbd 589e debd 8277 a23d
000000d0: 1f6b 063e 3fea bb3d 982a 89bd 041e 563d
000000e0: c160 86bd 872a 843d 129f d03d be30 c7bd
000000f0: 8867 86bd 0009 a73d ba9f b43d def7 d6bd
00000100: dc4d e6bd 2821 803d c961 eb3d 17cd 983d
00000110: 4795 f7bd f8f0 ca3d 4cdf 57bd c079 763d
00000120: e391 7ebd 83b4 e9bd 461a 8b3d 6804 9f3d
00000130: ec29 ee3d b4eb f13d ccbf e63d bc61 673d
00000140: 73f1 c3bd 03a0 003e 12bc 043e be5f ba3d
00000150: 6a8c 57bd 8c7e cdbd 451b 653d dcd5 ee3d
00000160: 7c50 9e3d a94c 9dbd d873 a9bd cc55 74bd
00000170: eb97 053e a2b6 bb3d 2677 b1bd 9297 91bd
00000180: a9b7 efbd ae17 a83d 6c9a 823d 6dd4 4cbd
00000190: f5a1 02be dc35 02be e008 023e 00b2 9dbd
000001a0: 9c53 e53d 12b9 a83d bc36 f0bd c533 7a3d
000001b0: e746 993d 5845 f13d 60ca d03d 155c 3b3d
000001c0: 35ba 723d d1f5 8a3d 6274 b2bd ee06 b8bd
000001d0: decf 9fbd 6bee 923d 59c8 9d3d d905 74bd
0.12518662 0.07834588 0.14178286 -0.06674051 0.12954485 0.044700887 0.07995523 0.06832136
-0.05394429 -0.0967658 0.07869149 -0.053424083 0.107644424 0.0817517 0.073156655 0.05703572
0.050005876 -0.12850589 0.066679515 0.11988489 -0.12368358 -0.055325095 -0.12157012 -0.10156445
-0.07993553 0.10017605 -0.06961227 -0.06975507 -0.10481918 0.044495646 0.06969667 -0.0464913
0.050550766 -0.07801846 0.09574133 0.08523264 0.076396056 0.065058194 0.08349843 -0.0540894
-0.09277361 -0.089016035 -0.07695041 0.11359493 0.05039149 0.05943115 -0.10941183 0.12643574
0.091705315 -0.09368963 -0.108700454 0.079329506 0.13126801 0.09175538 -0.06697577 0.05227472
-0.06561423 0.06453424 0.1018659 -0.09726094 -0.06562716 0.081560135 0.08819528 -0.10496496
-0.11245319 0.06256324 0.114932604 0.07460993 -0.12089019 0.099092424 -0.052703187 0.060174704
-0.062150847 -0.11411383 0.06792121 0.07764512 0.1162909 0.11812535 0.11267051 0.05648969
-0.09567537 0.1256104 0.12962368 0.091002926 -0.052624144 -0.100339025 0.05593421 0.11661884
0.07730195 -0.076806374 -0.082740486 -0.059652135 0.13046233 0.09165694 -0.08665304 -0.07108988
-0.11704952 0.082076415 0.0637711 -0.050007273 -0.12757094 -0.12715858 0.12698698 -0.076999664
0.11197588 0.08238424 -0.1172919 0.061084528 0.07484227 0.117808044 0.1019485 0.045742113
0.059259612 0.06785167 -0.087136045 -0.08985697 -0.078033194 0.07174381 0.07704229 -0.05957589
