pretrained_GNN_models/GNNrestrictedgraph_272trainvalid_fold0_1712_14.8546_2.76991.pt (torch, 251201 bytes, 10 tensors)

conv1.lin_rel.weight f4 [120, 14]
0.21661896 -0.0501466 0.15210153 -0.21384788 0.17818625 -0.2745079 -0.1668146 -0.14893271
-0.12438644 9.91e-42 -0.078260764 0.0705629 0.0024050272 -0.018801376 -0.10792715 -0.2570443
-0.21779972 0.030716235 -0.04338002 -0.09022307 0.10560397 -0.098595135 -0.08876419 -9.815e-42
-0.22920938 0.12655671 -0.07140436 0.17137118 0.0025642973 0.022484275 -0.24201317 -0.1542367
-0.0828905 -0.1643333 -0.06548565 0.004130184 -0.17267027 1.0057e-41 0.17454304 0.045227062
0.23412463 0.11171837 -0.2790089 -0.018098693 -0.12802993 0.117493704 -1.0033e-41 0.2678521
-9.874e-42 -9.885e-42 -9.861e-42 -9.899e-42 -0.034476344 0.09873322 -0.0005525642 -0.22105488
-0.20056589 -0.0027251511 -9.83e-42 0.006802939 -0.008947535 0.3160582 0.0089032175 -9.827e-42
-9.825e-42 9.826e-42 -0.0027251511 -0.0027251511 0.03368067 0.13972297 0.16378205 -0.035518594
-0.0060975114 -0.1709401 -0.100612715 -0.08249667 0.26855522 -0.15782577 -0.10691555 -9.809e-42
-0.012563714 -0.23464562 -0.14553785 0.26822585 0.12252439 0.19649467 0.034662116 -0.26239362
-0.13145475 -0.25590685 -0.16646451 0.09339819 -0.057702016 9.827e-42 -0.18259256 -0.24032103
0.26976553 -0.22806491 0.24651635 0.15580152 -0.18279353 0.21252002 -0.09870968 -0.119017944
-0.13288775 -0.14700234 0.10636873 -9.83e-42 0.107085824 -0.045406613 0.12391128 -0.061247874
0.123653874 0.06841029 0.09527675 0.06717791 -0.21888141 0.021905957 -0.12493119 -0.12022343
-0.23837255 9.879e-42 -0.20750597 0.19159494 0.2005548 0.053018253 0.2232069 0.18349625
-0.22556622 -0.033482518 -0.033843502 -0.17451122 0.13098142 -0.030580256 -0.04371703 -1.1353e-41
-0.19303465 0.2480227 0.18715563 0.2633274 -0.040759314 0.16508242 -0.016116776 -0.06771428
0.13491307 -0.06448147 -0.083494276 -0.089032374 -0.16772772 1.0057e-41 0.04981974 -0.023374079
0.20983508 0.013391789 -0.05839328 -0.12933066 -0.16173679 -0.06238127 -0.15513751 -0.20516427
-0.054400764 -0.038528625 -0.14690672 9.88e-42 0.24614657 -0.17680298 0.10869419 -0.14213133
-0.02301487 0.32626748 -0.032880895 -0.17839472 0.24147941 -0.034927227 -0.12899597 -9.843e-42
0.27798292 -1.0127e-41 0.16053392 0.17093144 -0.10189807 0.03512503 -0.13885711 0.23706989
-0.18441355 0.29139996 -9.879e-42 0.12454803 -0.20434594 9.927e-42 0.23931418 -9.82e-42
0.03549844 0.1617962 -0.15252298 -0.04891947 0.12107762 0.2832318 0.33967963 -0.003676097
0.03460316 -0.14112397 0.011153747 -0.019067546 0.26633576 9.851e-42 0.08671968 0.12984654
0.08067143 -0.0005050297 0.05926276 -9.899e-42 -9.888e-42 9.815e-42 -9.855e-42 9.892e-42
-9.839e-42 -9.9e-42 -9.876e-42 -9.847e-42 -0.005825304 -0.09522155 0.007939958 -0.07920856
0.23352218 -0.12102858 0.19884796 0.28298074 -0.14620838 0.22306362 -0.012698021 0.29540598
0.15721288 -9.833e-42 0.036227487 0.11475782 -0.07036469 0.22297686 -0.21246028 -0.03497526
0.33802506 0.25684905 0.14081113 -0.07608048 -0.09108825 0.024456326 0.06221958 9.837e-42
0.11927673 0.038812842 0.2781707 0.21023901 -0.08702545 -0.15768406 0.072419725 0.15635915
00000000: 5cd1 5d3e 8566 4dbd 81c0 1b3e f0fa 5abe
00000010: 7576 363e 4d8c 8cbe 72d1 2abe d181 18be
00000020: 51be febd a01b 0000 2e47 a0bd 4883 903d
00000030: a99d 1d3b 5805 9abc e908 ddbd 4f9b 83be
00000040: e406 5fbe 9da0 fb3c 3faf 31bd dfc6 b8bd
00000050: e546 d83d 3fec c9bd 00ca b5bd 5c1b 0080
00000060: ddb5 6abe 1598 013e 733c 92bd ed7b 2f3e
00000070: c50d 283b f130 b83c 4dd2 77be 3af0 1dbe
00000080: 7fc2 a9bd fd46 28be 571d 86bd 7f56 873b
00000090: 7ad0 30be 091c 0000 69bb 323e 0340 393d
000000a0: 5ebe 6f3e 9acc e43d 41da 8ebe b643 94bc
000000b0: 471a 03be 8aa0 f03d f81b 0080 e923 893e
000000c0: 861b 0080 8e1b 0080 7d1b 0080 981b 0080
000000d0: 1137 0dbd a434 ca3d f5d9 10ba 365c 62be
000000e0: 2561 4dbe 7398 32bb 671b 0080 30eb de3b
000000f0: af98 12bc 61d2 a13e cdde 113c 651b 0080
00000100: 631b 0080 641b 0000 7398 32bb 7398 32bb
00000110: bef4 093d 8a13 0f3e 7bb6 273e f27b 11bd
00000120: a2cd c7bb ec0a 2fbe 0a0e cebd 04f4 a8bd
00000130: 1280 893e 149d 21be 8af6 dabd 581b 0080
00000140: 09d8 4dbc f146 70be e007 15be e654 893e
00000150: 11ee fa3d e635 493e ddf9 0d3d 7558 86be
00000160: 139c 06be 3906 83be ac75 2abe 8d47 bf3d
00000170: f358 6cbd 651b 0000 8bf9 3abe b716 76be
00000180: b51e 8a3e d989 69be c86e 7c3e 6f8a 1f3e
00000190: 3a2e 3bbe d99e 593e 4d28 cabd aebf f3bd
000001a0: ba13 08be c887 16be d9d7 d93d 671b 0080
000001b0: d04f db3d 49fc 39bd 32c5 fd3d 0ddf 7abd
000001c0: 3e3e fd3d b21a 8c3d 7520 c33d 9294 893d
000001d0: 7322 60be 1f74 b33c ecdb ffbd b437 f6bd
000001e0: ef17 74be 8a1b 0000 727c 54be 7731 443e
000001f0: 3d5e 4d3e ab29 593d 5990 643e 71e6 3b3e
00000200: d5fa 66be f724 09bd 7c9f 0abd 12b3 32be
00000210: fe1f 063e 7283 fabc a110 33bd a61f 0080
00000220: e0aa 45be aaf9 7d3e baa5 3f3e d9d2 863e
00000230: 3df3 26bd 5e0b 293e 5407 84bc c9ad 8abd
00000240: a726 0a3e dc0e 84bd 0cff aabd 9b56 b6bd
00000250: d1c0 2bbe 091c 0000 c90f 4c3d ff7a bfbc
00000260: 02df 563e 3c69 5b3c cb2d 6fbd 426f 04be
00000270: 549e 25be 8183 7fbd 5edc 1ebe 9516 52be
00000280: 56d3 5ebd 31d0 1dbd b76e 16be 8b1b 0000
00000290: d90d 7c3e d70b 35be 0f9b de3d e08a 11be
000002a0: ae89 bcbc 880c a73e 1eae 06bd 1bad 36be
000002b0: 6146 773e da0f 0fbd 8517 04be 701b 0080
000002c0: c753 8e3e 3b1c 0080 0163 243e a708 2f3e
000002d0: efaf d0bd 43df 0f3d 8f30 0ebe 73c2 723e
000002e0: e8d6 3cbe 6032 953e 8a1b 0080 0a13 ff3d
000002f0: 1040 51be ac1b 0000 c70e 753e 601b 0080
00000300: d066 113d e7ad 253e fc2e 1cbe c85f 48bd
00000310: 8bf7 f73d c203 913e 7dea ad3e acea 70bb
00000320: 0bbc 0d3d cd82 10be 35be 363c 8b33 9cbc
00000330: 295d 883e 761b 0000 169a b13d 7ef6 043e
00000340: 1037 a53d f863 04ba 82bd 723d 981b 0080
00000350: 901b 0080 5c1b 0000 791b 0080 931b 0000
00000360: 6d1b 0080 991b 0080 881b 0080 731b 0080
00000370: 31e2 bebb 8403 c3bd 9916 023c 1938 a2bd
00000380: 7020 6f3e d5dd f7bd cd9e 4b3e dae2 903e
00000390: a6b7 15be ca6a 643e 5c0b 50bc 743f 973e
000003a0: 6afc 203e 691b 0080 4663 143d 2606 eb3d
000003b0: 5d1b 90bd 0c54 643e 308f 59be 3842 0fbd
000003c0: 9f11 ad3e b881 833e cb30 103e 15d0 9bbd
000003d0: 7a8c babd a258 c83c f5d9 7e3d 6c1b 0000
000003e0: 5c47 f43d 37fa 1e3d 646c 8e3e e548 573e
000003f0: 663a b2bd ee77 21be cb50 943d 9d1c 203e

conv1.lin_rel.bias f4 [120]
0.07865085 0.02799658 0.02910826 0.11769606 -0.1969151 -0.2031324 -0.05029748 0.18770514
0.098762065 -0.26121166 -0.07534933 -0.011135521 0.12100728 0.23158701 -0.029213993 -0.10236983
0.015645288 -0.08929917 -0.12987675 0.13849199 -0.0029810076 0.15594667 0.21373592 0.091852814
0.16906041 -0.11060966 0.14265057 0.021148007 0.19103286 0.26494813 -0.19782789 0.26791367
0.23443203 -0.19898964 0.05046158 -0.18684812 0.106512465 0.06921412 -0.293946 0.09528242
-0.046024993 0.26515576 0.29635406 0.081160225 0.24758965 0.13810222 0.28920448 -0.016961882
0.06327031 -0.027936373 0.017405689 -0.13386393 -0.13328989 0.17746612 0.121550724 -0.09204854
-0.0007166596 0.15122245 -0.20425959 -0.011684251 -0.22783348 0.23638353 0.21916361 -0.2032046
-0.0032572027 -0.13449198 0.068384655 -0.12716734 -0.06331053 0.0052501536 0.059605498 -0.11346874
0.12490824 -0.17141625 0.011686846 0.2602373 -0.11462269 0.22335209 0.105003946 -0.1010374
0.10122939 -0.15372904 0.048665777 0.10382952 0.2708353 0.031907227 -0.003993711 -0.11915597
-0.27575824 0.09359858 -0.22528806 -0.06807164 -0.107063316 0.041098256 0.10720031 -0.20498997
-0.0665291 -0.025895994 -0.12732685 0.09557901 0.13995668 -0.05891886 0.23766208 0.19297856
0.00254532 0.05096058 0.038307015 -0.008222056 -0.121427715 0.2912875 0.14326768 -0.18554303
-0.19405103 0.25121513 0.064954944 -0.049668014 0.2282191 0.13663419 0.092680134 0.20807816
00000000: b213 a13d 1559 e53c 7274 ee3c a20a f13d
00000010: 1da4 49be f101 50be bb04 4ebd c735 403e
00000020: c443 ca3d 89bd 85be c050 9abd c371 36bc
00000030: aad2 f73d 2525 6d3e 2f52 efbc 46a7 d1bd
00000040: 8c2a 803c 7ce2 b6bd 69fe 04be d8d0 0d3e
00000050: 025d 43bb 7cb0 1f3e 97dd 5a3e 541d bc3d
00000060: 2c1e 2d3e 5187 e2bd fe12 123e 963e ad3c
00000070: 1e9e 433e 48a7 873e 6593 4abe fb2b 893e
00000080: f30e 703e f1c3 4bbe cdb0 4e3d 1d55 3fbe
00000090: 3523 da3d 22c0 8d3d 1780 96be 6e23 c33d
000000a0: b484 3cbd 7fc2 873e b8bb 973e 5537 a63d
000000b0: 2488 7d3e ab6a 0d3e 9c12 943e a5f3 8abc
000000c0: dd93 813d d2da e4bc 6096 8e3c a013 09be
000000d0: 257d 08be aeb9 353e 96ef f83d f283 bcbd
000000e0: 36de 3bba 0fda 1a3e 6d29 51be 4d6f 3fbc
000000f0: 2e4d 69be 860e 723e 6d6c 603e de14 50be
00000100: cb76 55bb 44b8 09be 410d 8c3d 2838 02be
00000110: f3a8 81bd 7b09 ac3b e524 743d 4c62 e8bd
00000120: e4cf ff3d be87 2fbe 2f7a 3f3c d33d 853e
00000130: 4dbf eabd 69b6 643e 4f0c d73d b2ec cebd
00000140: 5b51 cf3d 256b 1dbe c455 473d 92a4 d43d
00000150: edaa 8a3e 27b1 023d addd 82bb 0c08 f4bd
00000160: 2f30 8dbe 9db0 bf3d eab1 66be 2569 8bbd
00000170: 0344 dbbd a556 283d d68b db3d e4e8 51be
00000180: 6940 88bd d623 d4bc f861 02be eebe c33d
00000190: ce50 0f3e e754 71bd b05d 733e 2c9c 453e
000001a0: 62cf 263b 0bbc 503d d1e7 1c3d cdb5 06bc
000001b0: 18af f8bd a323 953e c3b4 123e fefe 3dbe
000001c0: 50b5 46be 459f 803e 1907 853d b070 4bbd
000001d0: 45b2 693e d5e9 0b3e 15cf bd3d 7112 553e

conv1.lin_root.weight f4 [120, 14]
-0.052277386 0.33928797 -0.20793845 -0.3251198 0.15547913 -0.059191786 0.110586405 0.039839737
0.14803138 -9.896e-42 0.19344401 -0.013475486 0.012629506 0.19781902 0.29439458 0.30250397
-0.27165443 -0.06490001 -0.044864226 -9.82e-42 9.89e-42 0.15474483 0.010659551 -1.0029e-41
0.06055108 0.23607214 0.17398812 -0.1060279 -0.14919825 0.14181724 -0.05946911 -0.22410041
-0.115124635 -0.004270226 -0.09702938 -0.12263913 0.09887364 9.858e-42 0.20168847 0.13613212
-0.21347359 0.14334905 0.16404511 -9.878e-42 9.909e-42 -1.111e-41 -9.87e-42 9.913e-42
9.927e-42 9.83e-42 -9.871e-42 9.883e-42 -0.094986215 -0.077911384 0.13399537 -0.18540166
0.31396988 9.846e-42 9.822e-42 -9.867e-42 -9.888e-42 9.817e-42 9.853e-42 -9.834e-42
-9.854e-42 1.0019e-41 -0.0023377594 -0.0023377594 -0.19540934 -0.12770303 0.06330062 0.36225963
-0.118093036 0.09163995 -0.03290872 -0.11511124 -2.2279e-41 0.18746318 0.15020163 9.872e-42
-0.09623182 -0.1758425 0.27378246 -0.05340769 0.18116662 0.2799585 0.036616184 -0.17519851
-0.14819138 0.084331684 0.039829403 0.19874924 -0.19370236 -9.839e-42 0.26111475 0.15249747
0.25171727 0.22292608 -0.06318251 -0.1095731 -0.18677568 -0.13002445 -0.028349495 -0.0037537434
0.0041940645 0.21212019 0.2079603 9.875e-42 0.010699546 0.17403013 -0.109635845 -0.09663683
-0.06255869 -0.17524515 0.14286245 -0.0041663465 0.15536314 -0.064954475 -0.023673488 -0.17241251
-0.012794202 -9.823e-42 -0.1304059 0.21946056 -0.2872055 0.023820627 0.032719318 -0.19015619
0.040081482 0.024913762 0.20781645 0.038680088 0.25780618 0.071114756 0.15738496 -9.886e-42
-0.22027014 -0.037609175 -0.18902168 0.21569268 0.13122648 -0.080437995 -0.004890248 0.026338002
-0.093327485 -9.844e-42 0.09342048 0.07266303 9.924e-42 9.85e-42 0.13237466 -0.22505455
0.16581729 -0.2030648 0.16094077 0.2536902 0.058810744 -1.1478e-41 -0.024162294 -9.815e-42
-0.036984455 -0.0725189 0.30181155 -9.848e-42 0.13322158 -0.2391261 0.16039565 0.22980314
-0.17627887 -0.026627544 0.17157076 -0.21326856 -0.15667163 0.023594059 0.22033848 -0.016557276
0.019689033 -9.9e-42 -0.229752 0.23967355 0.26913816 -0.08267362 -0.12149605 0.04309597
0.15802516 -0.13078201 -0.13390197 9.829e-42 -9.895e-42 0.026367418 0.23430291 -9.88e-42
-0.21437359 0.26395297 0.23799707 0.07149662 0.08289099 0.16445103 0.17279528 -0.36056525
-0.0951698 -0.092541985 -0.0719954 -0.19810323 -0.22027992 -9.876e-42 -0.047000766 0.22502683
0.16569477 0.045852426 -9.843e-42 0.001384603 -0.025931014 -9.853e-42 0.018269496 9.847e-42
9.878e-42 9.839e-42 0.20320378 9.959e-42 -0.09168043 0.097992025 0.19678423 -0.20029634
-0.15667896 0.1137123 -0.17451511 0.19226159 -0.111607514 -0.05801567 -0.03280999 0.24970394
-0.095619045 -9.836e-42 0.15099345 -0.16161825 -0.0016660556 -0.19759826 -0.22901656 -0.037072513
-0.055696614 0.14759424 -0.04554968 -0.0036523435 0.12917203 -1.00679834e-07 0.2220715 -9.85e-42
-0.04621238 0.12106585 -0.20151068 0.1603796 -0.20401664 0.19428596 0.12494973 0.051057648
00000000: d020 56bd 27b7 ad3e d1ed 54be 1a76 a6be
00000010: ec35 1f3e 1673 72bd 207b e23d fe2e 233d
00000020: 8a95 173e 961b 0080 3016 463e 49c8 5cbc
00000030: fdeb 4e3c 1291 4a3e e3ba 963e cde1 9a3e
00000040: 4a16 8bbe 4cea 84bd 8dc3 37bd 601b 0080
00000050: 921b 0000 6e75 1e3e 66a5 2e3c f51b 0080
00000060: 6904 783d e5bc 713e f129 323e 2825 d9bd
00000070: 6dc7 18be 8a38 113e e295 73bd 947a 65be
00000080: 77c6 ebbd 41ed 8bbb 57b7 c6bd 392a fbbd
00000090: 437e ca3d 7b1b 0000 6c87 4e3e 3866 0b3e
000000a0: d298 5abe 18ca 123e 71fb 273e 891b 0080
000000b0: 9f1b 0000 f81e 0080 831b 0080 a21b 0000
000000c0: ac1b 0000 671b 0000 841b 0080 8d1b 0000
000000d0: 2288 c2bd 0190 9fbd 1536 093e efd9 3dbe
000000e0: a9c0 a03e 721b 0000 611b 0000 811b 0080
000000f0: 901b 0080 5e1b 0000 771b 0000 6a1b 0080
00000100: 781b 0080 ee1b 0000 1835 19bb 1835 19bb
00000110: 6319 48be 95c4 02be c1a3 813d 187a b93e
00000120: c3da f1bd baad bb3d 4bcb 06bd 71bf ebbd
00000130: 1b3e 0080 59f6 3f3e 75ce 193e 851b 0000
00000140: 3015 c5bd 0e10 34be 372d 8c3e 06c2 5abd
00000150: be83 393e b856 8f3e dafa 153d 3d67 33be
00000160: 7bbf 17be 17b6 ac3d 2824 233d ec84 4b3e
00000170: e959 46be 6d1b 0080 d5b0 853e 4c28 1c3e
00000180: 16e1 803e bc46 643e d565 81bd dd67 e0bd
00000190: 2042 3fbe 2125 05be 333d e8bc 5d01 76bb
000001a0: 5d6e 893b 0936 593e 8bf3 543e 871b 0000
000001b0: 264d 2f3c f434 323e c288 e0bd 88e9 c5bd
000001c0: c51e 80bd 7773 33be 894a 123e d985 88bb
000001d0: 8417 1f3e da06 85bd e7ee c1bc e88c 30be
000001e0: c69e 51bc 621b 0080 2089 05be 45ba 603e
000001f0: 990c 93be 7a23 c33c b104 063d 4eb8 42be
00000200: 7b2c 243d f217 cc3c d6cd 543e 036f 1e3d
00000210: 2cff 833e 9da4 913d 8629 213e 8f1b 0080
00000220: 7f8e 61be 140c 1abd e68e 41be 8bde 5c3e
00000230: 3c60 063e adbc a4bd 603e a0bb cbc2 d73c
00000240: 7b22 bfbd 711b 0080 3d53 bf3d 5bd0 943d
00000250: aa1b 0000 751b 0000 398d 073e b374 66be
00000260: 02cc 293e 38f0 4fbe a8cd 243e afe3 813e
00000270: 89e3 703d ff1f 0080 01f0 c5bc 5c1b 0080
00000280: 037d 17bd ca84 94bd 0b87 9a3e 741b 0080
00000290: 3d6b 083e 79dd 74be c23e 243e 8451 6b3e
000002a0: 7382 34be 0222 dabc 3fb0 2f3e 1363 5abe
000002b0: 876e 20be 5448 c13c 69a0 613e 20a3 87bc
000002c0: e54a a13c 991b 0080 1c44 6bbe fc6c 753e
000002d0: 7acc 893e c950 a9bd ecd2 f8bd 6685 303d
000002e0: 59d1 213e b8eb 05be 991d 09be 661b 0000
000002f0: 951b 0080 7c00 d83c 1aed 6f3e 8b1b 0080
00000300: c084 5bbe d824 873e 81b5 733e d26c 923d
00000310: c0c2 a93d da65 283e 3ff1 303e 029c b8be
00000320: 62e8 c2bd a786 bdbd 5372 93bd 93db 4abe
00000330: 0f91 61be 881b 0080 e083 40bd 6f6d 663e
00000340: e4ab 293e c1cf 3b3d 701b 0080 917b b53a
00000350: 476d d4bc 771b 0080 e9a9 953c 731b 0000
00000360: 891b 0000 6d1b 0000 a714 503e c31b 0000
00000370: f3c2 bbbd 0bb0 c83d ce81 493e 7c1a 4dbe
00000380: 7370 20be ffe1 e83d 17b4 32be 39e0 443e
00000390: 7b92 e4bd d7a1 6dbd c563 06bd 64b2 7f3e
000003a0: ebd3 c3bd 6b1b 0080 079e 1a3e 417f 25be
000003b0: 8d5f daba 3357 4abe 5183 6abe 59d9 17bd
000003c0: 2222 64bd f222 173e 4d92 3abd 285c 6fbb
000003d0: ac45 043e 5335 d8b3 b666 633e 751b 0080
000003e0: 3149 3dbd 5ff1 f73d d158 4ebe 8d3a 243e
000003f0: bde9 50be e6f2 463e a5e5 ff3d d321 513d

conv2.lin_rel.weight f4 [120, 120]
-0.07709171 -0.09037475 0.058752727 0.03593334 -0.07705473 0.042593207 -0.017044552 -0.025980433
-0.06741151 -0.008083805 0.069787666 0.051078152 0.07586246 0.08213489 0.077614725 0.069367014
-0.03904821 -0.10162188 0.1188542 -0.08337113 -0.0029848344 0.06373032 0.003677187 0.092982136
-0.012276098 0.076754846 0.02422299 0.017856298 0.039069373 -0.05206756 -0.045994796 0.084718876
0.001443062 0.022262877 0.035581082 0.10862721 0.037772786 0.028618794 -0.065261565 0.043838806
0.14631398 0.022511052 -0.026353084 0.09461225 0.020462966 -0.010194228 -0.039919328 -0.053609192
0.060497608 0.071328886 0.045754664 0.05748335 -0.0018338676 0.10842474 0.08895095 0.10018007
0.00032050494 0.06279272 0.13773409 -0.022719879 0.042542323 0.07936325 0.11798582 -0.032730397
0.0033213948 0.009498146 -0.040768705 0.080136776 0.02420598 -0.07731702 -0.05145124 0.05646509
0.03688969 -0.066509604 0.028407617 0.09515398 -0.01749928 -0.00025539746 -0.045247044 -0.074676625
-0.025799328 -0.01853138 0.04060871 0.03653492 -0.038865156 0.21532328 0.002652662 -0.055430163
0.030561065 0.076866165 -0.12246262 -0.023138765 -0.039172065 -0.05957762 -0.09864112 -0.044562016
-0.060317267 0.085244514 -0.04563595 0.039859056 0.11926127 0.007038707 0.013937858 -0.08190895
0.03220481 0.11896756 -0.02031386 0.005464248 0.05819276 0.18677865 0.072627865 0.17955539
0.03786266 0.06393569 -0.06493785 0.07608138 0.12222888 -0.05891933 0.0075215856 0.010192871
-0.034676433 0.012036729 0.08828992 0.07505926 0.009305094 0.012491752 0.010445963 -0.052858032
-0.094097346 0.01754526 -0.024153464 0.061181106 -0.045669433 -0.0020009335 0.041451313 0.00065832195
-0.004020612 0.034324475 -0.21883851 -0.08021419 0.0001565692 -0.1768454 -0.035882358 -0.0024583528
0.061494477 0.048455082 0.09752029 -0.058254253 0.07706285 0.030203525 -0.021044442 -0.058697317
0.060570784 -0.10569947 0.01841379 -0.108719945 0.045548353 -0.08792484 0.104552746 0.016572544
-0.048708487 0.05414539 0.018089667 0.027530707 -0.00024024275 0.07020975 -0.008855983 0.08888247
-0.040621914 -0.016511977 -0.12410058 0.077673145 -0.13388108 -0.028912017 -0.011522132 -0.0018927011
0.00072310294 0.023417383 -0.00018893261 -0.09979991 -0.038267776 -0.0506952 -0.08273477 -0.024374455
-0.0002528803 -0.052711587 -0.03267993 0.031880986 -0.074761435 0.07898555 0.07098427 -0.11299823
0.08064847 -0.11050735 -0.081822135 -0.04155937 -9.896e-42 -0.05157767 0.10958824 0.10426819
-0.017454283 0.009910273 0.07487372 -0.10880007 -0.06913206 -0.11144066 -0.0020537947 -9.829e-42
-0.030451287 -0.012519332 -0.0618843 0.021985285 0.016745312 0.08287373 -0.013419737 0.10767806
0.041589424 0.04216531 0.04700832 -0.019131185 -0.05925362 0.11856887 -0.023558673 0.045800537
-0.037281048 -0.05865578 -0.04566385 0.08093208 -0.034468602 -0.09123729 -0.1431144 0.0690366
0.09015213 -0.10764372 -0.074754775 -0.0185439 -0.049065296 -0.037170433 -0.09505081 0.016490636
-0.016837733 0.008487078 0.031725507 -0.13535562 -0.07879609 0.065424964 -0.05369787 0.06160004
-0.059254047 0.015382937 -0.02158583 -0.007576555 0.024717277 0.09286387 0.0005838424 0.07630725
00000000: 42e2 9dbd 6616 b9bd b3a6 703d d72e 133d
00000010: dfce 9dbd 3776 2e3d 04a1 8bbc ebd4 d4bc
00000020: 0c0f 8abd f071 04bc d6ec 8e3d 5337 513d
00000030: c75d 9b3d 5636 a83d 78f4 9e3d 4b10 8e3d
00000040: 04f1 1fbd 221f d0bd d569 f33d 7cbe aabd
00000050: 369d 43bb 0b85 823d f6fc 703b 6b6d be3d
00000060: b021 49bc a531 9d3d 4b6f c63c 5f47 923c
00000070: 3507 203d cb44 55bd 0a65 3cbd 1781 ad3d
00000080: 2025 bd3a a360 b63c 78bd 113d f177 de3d
00000090: a3b7 1a3d f671 ea3c dba7 85bd 5290 333d
000000a0: 55d3 153e 1969 b83c 6ce2 d7bc 11c4 c13d
000000b0: f3a1 a73c b105 27bc 7382 23bd 5095 5bbd
000000c0: 57cc 773d e114 923d 3e69 3b3d a973 6b3d
000000d0: 635e f0ba ca0d de3d ea2b b63d 352b cd3d
000000e0: 7209 a839 7899 803d 2a0a 0d3e 0a1f babc
000000f0: dc40 2e3d 3389 a23d 8da2 f13d 4f10 06bd
00000100: c2ab 593b 1d9e 1b3c 16fd 26bd c01e a43d
00000110: 9f4b c63c 6358 9ebd 89be 52bd f047 673d
00000120: a519 173d 3036 88bd 17b7 e83c 17e0 c23d
00000130: a65a 8fbc dee6 85b9 f754 39bd 0ff0 98bd
00000140: 1d59 d3bc 1fcf 97bc 5255 263d a4a5 153d
00000150: 1231 1fbd b57d 5c3e 49d8 2d3b bd0a 63bd
00000160: 335b fa3c 026c 9d3d afcd fabd 828d bdbc
00000170: e372 20bd aa07 74bd 5b04 cabd a986 36bd
00000180: 3d0f 77bd ad94 ae3d c3ec 3abd 4043 233d
00000190: 413f f43d f4a4 e63b 9d5b 643c e1bf a7bd
000001a0: 31e9 033d 44a5 f33d 4169 a6bc 6f0d b33b
000001b0: 885b 6e3d e742 3f3e ebbd 943d 5edd 373e
000001c0: e015 1b3d b7f0 823d 23fe 84bd 8ed0 9b3d
000001d0: 2353 fa3d 6555 71bd a277 f63b 0000 273c
000001e0: e008 0ebd b335 453c 58d1 b43d abb8 993d
000001f0: 6574 183c 35aa 4c3c 8b25 2b3c aa81 58bd
00000200: 1cb6 c0bd 14bb 8f3c 7cdd c5bc 0a99 7a3d
00000210: df0f 3bbd 1822 03bb dac8 293d 3d93 2c3a
00000220: 57bf 83bb d297 0c3d 3417 60be 5647 a4bd
00000230: b92c 2439 f616 35be 61f9 12bd 511c 21bb
00000240: a2e1 7b3d d678 463d b8b8 c73d 039c 6ebd
00000250: 21d3 9d3d 626d f73c 6565 acbc 996c 70bd
00000260: 1219 783d f778 d8bd 84d8 963c 90a8 debd
00000270: e990 3a3d f011 b4bd c01f d63d 25c3 873c
00000280: 8d82 47bd 8ec7 5d3d c830 943c 1488 e13c
00000290: ace9 7bb9 21ca 8f3d af18 11bc 0308 b63d
000002a0: 2a63 26bd 2044 87bc 7228 febd 1913 9f3d
000002b0: 1f18 09be e5d8 ecbc 53c7 3cbc 8314 f8ba
000002c0: 9e8e 3d3a d0d5 bf3c 361c 46b9 e563 ccbd
000002d0: acbe 1cbd c5a5 4fbd d970 a9bd f0ac c7bc
000002e0: 0595 84b9 1be8 57bd 64db 05bd a395 023d
000002f0: 861c 99bd 2dc3 a13d 3360 913d 9e6b e7bd
00000300: 062b a53d ad51 e2bd 5d92 a7bd 283a 2abd
00000310: 961b 0080 1b43 53bd cd6f e03d 908a d53d
00000320: 49fc 8ebc b35e 223c 6557 993d 92d2 debd
00000330: 1c95 8dbd 003b e4bd f598 06bb 661b 0080
00000340: fa74 f9bc e21d 4dbc 647a 7dbd 7c1a b43c
00000350: 772d 893c b4b9 a93d 75de 5bbc 5186 dc3d
00000360: ac59 2a3d 88b5 2c3d cc8b 403d 01b9 9cbc
00000370: edb3 72bd 3cd4 f23d 1efe c0bc 5899 3b3d
00000380: 03b4 18bd 0b41 70bd 040a 3bbd b8bf a53d
00000390: f32e 0dbd 9eda babd 958c 12be 1063 8d3d
000003a0: aea1 b83d 5074 dcbd 0819 99bd 61e9 97bc
000003b0: b1f8 48bd 0640 18bd 00aa c2bd 5f17 873c
000003c0: 49ef 89bc 630d 0b3c 9bf2 013d aa9a 0abe
000003d0: d85f a1bd 86fd 853d 4cf2 5bbd 5350 7c3d
000003e0: 5fb4 72bd b708 7c3c c4d4 b0bc c044 f8bb
000003f0: e37b ca3c 6a2f be3d 000d 193a fa46 9c3d

conv2.lin_rel.bias f4 [120]
-0.0044905953 0.052289985 0.031850737 -0.025252722 0.03880767 9.836e-42 0.049782865 -0.0022629397
0.01362427 -0.0403183 0.010264717 -0.10299187 0.0018557335 -0.025752086 -0.0034504563 -0.03855606
0.014317865 -0.0017611415 -0.063651256 -9.695776e-07 0.056140054 -0.020121476 0.0600199 -0.024057034
0.079864025 -0.033771906 -0.028638557 0.054065496 0.09135312 0.08502046 0.047279894 0.047673516
-0.055960257 0.04580013 -0.07069997 -0.061440557 9.851e-42 -0.0017859522 0.056701105 -0.026003543
0.040351707 -0.00016661534 0.010175231 -0.032429513 -0.025790097 -0.035661943 -0.0027386718 0.035580054
-0.027959028 0.07539577 0.00070757064 -0.031934556 -0.047618132 0.02549791 -0.06923519 0.09001449
0.041877605 -0.0040968265 -0.026617354 0.08940334 0.09829107 -0.06737427 -0.0090211015 -1.5008313e-27
-0.04277093 -0.06490898 -0.024822442 -0.0026770006 0.047628183 0.033408634 0.009551172 -0.09072875
0.040141497 0.10600507 0.044634063 -1.3343245e-05 0.067257434 0.04027332 0.06741104 -1.1586e-41
-0.07363609 0.020720331 0.011409422 0.059712708 -0.011307582 -0.018229328 -0.058019523 0.0006838038
-0.030266823 -0.062206488 -7.141756e-05 0.0014113169 0.08253628 -0.0003103475 0.013415799 -0.040091924
0.124146976 0.05608239 -0.0062943907 0.010755174 -0.055077218 0.047973406 -0.007619785 -2.571025e-11
-0.023496399 0.06890109 -0.032566056 -0.014377921 0.06427486 0.10889307 0.06780014 -0.009670071
-0.0221462 -0.030381594 0.099147774 0.050567105 0.096108556 -0.06437209 0.08176496 -9.816e-42
00000000: d825 93bb 062e 563d eb75 023d ccde cebc
00000010: cbf4 1e3d 6b1b 0000 1ee9 4b3d d44d 14bb
00000020: 5538 5f3c cd24 25bd 582d 283c 67ed d2bd
00000030: 153c f33a 0af6 d2bc 0d21 62bb f6ec 1dbd
00000040: 7a95 6a3c 1ad6 e6ba 975b 82bd 6f22 82b5
00000050: 1df3 653d cbd5 a4bc 6dd7 753d 4213 c5bc
00000060: c08f a33d 6954 0abd 689b eabc c873 5d3d
00000070: 5817 bb3d 351f ae3d 90a8 413d 4e45 433d
00000080: 9536 65bd eb98 3b3d 25cb 90bd 18a9 7bbd
00000090: 761b 0000 9d16 eaba 6b3f 683d 6205 d5bc
000000a0: d547 253d 77b5 2eb9 03b6 263c cfd4 04bd
000000b0: c145 d3bc 4212 12bd 4a7b 33bb 64bc 113d
000000c0: 550a e5bc 1969 9a3d 437c 393a cfcd 02bd
000000d0: 3b0b 43bd fee0 d03c 2ecb 8dbd 8459 b83d
000000e0: da87 2b3d ac3e 86bb a30c dabc 1919 b73d
000000f0: d44c c93d 85fb 89bd 3ecd 13bc f3d0 ed92
00000100: 9230 2fbd 00ef 84bd 6f58 cbbc 9e70 2fbb
00000110: c515 433d 7ed7 083d 857c 1c3c ffcf b9bd
00000120: 696b 243d 3019 d93d 35d2 363d cddc 5fb7
00000130: 44be 893d a3f5 243d cd0e 8a3d 4c20 0080
00000140: 85ce 96bd afbd a93c 96ee 3a3c 5095 743d
00000150: 7043 39bc ac55 95bc e1a5 6dbd 4c41 333a
00000160: 21f2 f7bc 3bcc 7ebd 03c6 95b8 f0fb b83a
00000170: c808 a93d 23b6 a2b9 f0cd 5b3c 6e37 24bd
00000180: c540 fe3d a6b6 653d 2d41 cebb 7836 303c
00000190: a698 61bd c37f 443d 64af f9bb 5626 e2ad
000001a0: 857b c0bc 041c 8d3d fc63 05bd 5f91 6bbc
000001b0: 8aa2 833d 5403 df3d cdda 8a3d 386f 1ebc
000001c0: f36b b5bc d2e2 f8bc fd0d cb3d 741f 4f3d
000001d0: 90d4 c43d 84d5 83bd 6374 a73d 5d1b 0080

conv2.lin_root.weight f4 [120, 120]
-0.055837885 0.029292373 -0.047564276 0.051711686 -0.0009489424 0.05120333 0.05899604 -0.076390535
0.055662412 0.07654495 0.014227165 -0.055103637 0.084285684 -0.03410993 0.04636717 0.096647546
0.059180453 -0.02291412 0.03234863 -0.07725775 -0.0028513146 0.034663122 -0.0394383 0.10394247
0.046534505 -0.020415634 0.009289916 -0.03923974 0.08013548 0.0073274435 0.00053424947 0.023452364
-0.023535151 0.03976602 0.049511734 -0.045512095 -0.026238073 -0.083864585 -0.018663304 0.008330909
0.018160848 0.100057624 -0.059874892 -0.057045706 0.069874 0.022929769 -0.06884711 0.07732591
-0.03104807 -0.02114421 0.08795777 -0.022613734 0.061427984 0.03933302 0.007399434 -0.0058622537
8.144537e-05 0.062913075 0.14547671 0.038031988 0.08185365 -0.026716268 0.11190024 -0.097506374
0.0027392355 0.09389641 0.06971183 -0.072684854 0.05473507 -0.07542166 0.071489796 0.019113975
0.09205149 -0.022165272 0.107305534 0.097906224 -0.0081349425 0.05289818 -0.06371811 -0.16048874
0.016770294 -0.033647798 -0.04349199 0.048312042 0.011479311 0.20450373 0.0019236961 -0.015063883
0.014192581 0.029336391 -0.011344229 0.06964525 0.07532645 -0.009805477 -0.036795788 -0.11935062
-0.06008867 -0.08954435 0.12781213 -0.06689728 0.0789279 -0.11200908 0.09133753 0.030279957
-0.005519644 0.02193699 -0.014199489 0.032194618 -0.0042253304 0.11216706 0.034037154 0.17644145
-0.035188165 0.071013555 0.006877501 -0.009330902 0.10283685 0.020474823 -0.039523505 -0.0689513
-0.062440082 -0.1203388 0.0947463 9.864e-42 9.902e-42 0.08123704 -0.025710775 0.010696036
0.049077265 0.07420012 0.012754953 0.023147987 -0.033207912 -0.14533898 -0.0009968802 -0.01447898
0.08381925 -0.06582893 -0.1339228 0.08493476 0.0014342176 -0.1475224 -0.030762246 -0.020394213
-0.019188331 -0.038947564 -0.033770416 0.016588755 0.042338327 0.026062762 0.04666874 -0.018037537
-0.09123121 -0.03646547 0.07825752 0.07140693 -0.102865756 -0.026453875 -0.049734745 -0.109211504
-0.16045874 0.032403354 -0.029469227 -0.026414005 -0.05966991 0.016175035 0.011936227 0.022439418
-0.031871118 -0.026470782 -0.05097102 1.9243636e-05 -0.02846631 0.018991947 0.043067817 0.012002596
0.00052478345 -0.036643576 -0.00035961388 -0.0237778 0.08302954 -0.012918004 -0.23198058 0.08473984
-0.00019567386 0.06218588 0.02577965 0.0012336094 -0.040067475 9.997e-42 0.0029917657 -0.0032404067
-0.042733144 0.08523767 -0.103919335 0.032007623 -9.858e-42 -0.041677374 0.024174046 -0.008695676
0.09165253 -0.031032046 -0.08929737 -0.0747589 -0.11549407 -0.2772643 -0.0010067638 9.819e-42
0.05854797 0.0051885247 -9.876e-42 -0.08602808 0.0039929673 -0.03936679 -0.021547932 0.010644452
-0.004479223 0.06578139 -0.004410993 0.06851127 -0.07474802 -0.07359826 0.017227849 0.06510096
0.09579472 0.04364819 0.08637376 -0.0015741577 -0.04803202 -0.28125116 0.010607042 0.046833023
0.033881545 -0.1334821 -0.028936744 -0.05876042 0.0063513163 -0.015878787 -0.014868659 0.05383118
2.883704e-05 0.021875756 -0.0702613 0.011376024 -0.08716755 -0.06868384 0.029956518 0.012698608
0.006250177 -0.08555824 -0.020823676 0.107658386 0.05271433 0.049542055 0.08711984 0.076515295
00000000: 44b6 64bd 8ff6 ef3c c2d2 42bd a2cf 533d
00000010: 72c2 78ba 95ba 513d d5a5 713d a472 9cbd
00000020: 45fe 633d 99c3 9c3d 0e19 693c 5ab4 61bd
00000030: f99d ac3d dbb6 0bbd 80eb 3d3d 26ef c53d
00000040: 3467 723d 65b6 bbbc ff7f 043d 5039 9ebd
00000050: 1fdd 3abb ebfa 0d3d 0e8a 21bd cadf d43d
00000060: f79a 3e3d b03e a7bc bb34 183c dab9 20bd
00000070: 121e a43d 0d1b f03b e00c 0c3a 2c1f c03c
00000080: cacc c0bc b2e1 223d d1cc 4a3d e46a 3abd
00000090: 3af1 d6bc 32c1 abbd c9e3 98bc 5d7e 083c
000000a0: 0fc6 943c 03eb cc3d 603f 75bd c2a8 69bd
000000b0: 1a1a 8f3d 36d7 bb3c b7ff 8cbd 0c5d 9e3d
000000c0: 8658 febc 9f36 adbc 3423 b43d 7040 b9bc
000000d0: e99b 7b3d a91b 213d f476 f23b 2618 c0bb
000000e0: a6cd aa38 92d8 803d d9f7 143e 6ec7 1b3d
000000f0: e3a2 a73d 13dc dabc f42b e53d 6cb1 c7bd
00000100: bf84 333b c34c c03d 13c5 8e3d ccdb 94bd
00000110: e131 603d ac76 9abd 3e69 923d e994 9c3c
00000120: 7e85 bc3d f293 b5bc 01c3 db3d 0f83 c83d
00000130: 6c48 05bc c3ab 583d a47e 82bd 2957 24be
00000140: db61 893c 46d2 09bd a824 32bd d9e2 453d
00000150: b813 3c3c 6d69 513e 8824 fc3a 81ce 76bc
00000160: 0088 683c df52 f03c 25dd 39bc 2ba2 8e3d
00000170: c144 9a3d 27a7 20bc 2eb7 16bd 196e f4bd
00000180: 8a1f 76bd 0763 b7bd 2fe1 023e 7101 89bd
00000190: f3a4 a13d 0465 e5bd 2c0f bb3d ac0d f83c
000001a0: 21de b4bb 34b5 b33c f9a4 68bc 81de 033d
000001b0: a474 8abb d8b7 e53d 8b6a 0b3d 11ad 343e
000001c0: 7721 10bd 8e6f 913d a95c e13b a4e0 18bc
000001d0: 209c d23d d1ba a73c 66e3 21bd 5736 8dbd
000001e0: 2cc1 7fbd 3074 f6bd 590a c23d 7f1b 0000
000001f0: 9a1b 0000 9b5f a63d 679f d2bc 6d3e 2f3c
00000200: 3e05 493d 3cf6 973d 26fa 503c d9a0 bd3c
00000210: 0505 08bd bed3 14be c0a9 82ba 3e39 6dbc
00000220: 6da9 ab3d 51d1 86bd 0f23 09be 47f2 ad3d
00000230: 5bfc bb3a 1d10 17be 1b01 fcbc c411 a7bc
00000240: d930 9dbc 7b87 1fbd d952 0abd 24e5 873c
00000250: f46a 2d3d 9381 d53c b927 3f3d 75c3 93bc
00000260: 6ed7 babd d15c 15bd 7b45 a03d cc3d 923d
00000270: 48ab d2bd ccb5 d8bc a9b6 4bbd 48aa dfbd
00000280: 4c4f 24be 61b9 043d 7369 f1bc 2f62 d8bc
00000290: 7068 74bd 8281 843c 2a90 433c dfd2 b73c
000002a0: 4a8b 02bd 41d9 d8bc fdc6 50bd 656d a137
000002b0: 2e32 e9bc 0095 9b3c e167 303d 89a6 443c
000002c0: 9f91 093a 9317 16bd 8f8a bcb9 a9c9 c2bc
000002d0: 640b aa3d 09a6 53bc 518c 6dbe 158c ad3d
000002e0: cd2d 4db9 9fb6 7e3d d82f d33c 10b1 a13a
000002f0: cb1d 24bd de1b 0000 8011 443b 015d 54bb
00000300: f308 2fbd 1691 ae3d a9d3 d4bd 6d1a 033d
00000310: 7b1b 0080 e5b5 2abd a608 c63c 4f78 0ebc
00000320: 52b4 bb3d eb36 febc 8ae1 b6bd 321b 99bd
00000330: 2888 ecbd 96f5 8dbe 63f5 83ba 5f1b 0000
00000340: ffcf 6f3d 8004 aa3b 881b 0080 7d2f b0bd
00000350: 70d7 823b 123f 21bd 4a85 b0bc 1166 2e3c
00000360: 72c6 92bb 65b8 863d 178a 90bb a34f 8c3d
00000370: 7d15 99bd afba 96bd 6b21 8d3c a753 853d
00000380: 0630 c43d 72c8 323d bae4 b03d f853 ceba
00000390: 39bd 44bd 2700 90be 29c9 2d3c fcd3 3f3d
000003a0: 60c7 0a3d 88af 08be c00c edbc c4ae 70bd
000003b0: b41e d03b 3b14 82bc ad9b 73bc 157e 5c3d
000003c0: 12e7 f137 c934 b33c 28e5 8fbd 8162 3a3c
000003d0: e784 b2bd 1daa 8cbd 5f67 f53c d30d 503c
000003e0: 49ce cc3b 2939 afbd 6a96 aabc 007c dc3d
000003f0: fbea 573d 9cec 4a3d e36b b23d 0db4 9c3d

conv3.lin_rel.weight f4 [120, 120]
-0.029395936 -0.12942822 0.077361956 0.023970654 -0.05616139 9.858e-42 0.06472325 0.003460103
0.036292247 0.03459771 -0.07188059 0.28239405 -0.13845555 -0.096216954 -0.076466486 0.028425004
0.04502036 0.092854545 0.10690341 -9.904e-42 0.03351273 -0.074963465 -0.09987698 -0.010695097
-0.17959401 -0.10487838 0.17895013 -0.09487472 -0.0580078 0.03026495 0.09530175 -0.0023572792
0.05579291 0.1087303 0.034884863 -0.01966559 -1.1496e-41 0.0021168436 0.0812717 -0.10168755
-0.18678816 0.00046197948 -0.0059826965 0.03758034 0.036425732 0.07103313 -0.01097372 -0.07034066
0.0486082 0.07094403 0.008501128 -0.07907874 0.1403551 0.06641908 0.057008084 -0.07363363
-0.079445675 0.13066916 -0.01801704 -0.06815199 0.03949303 0.013340543 0.10589931 9.93e-42
0.07899864 0.0962739 0.07230318 0.10659455 0.030397374 0.09949166 0.0808773 0.14300369
0.022293102 0.0074428096 0.081366554 4.385781e-05 -0.19381101 0.09539569 0.09442145 -9.892e-42
0.049861886 0.07210422 0.0486101 0.028015817 -0.027750688 -0.030897722 0.09614425 -0.05633485
0.07793416 -0.19166243 -1.03817305e-14 0.06383715 -0.069493696 8.660337e-09 -0.3145754 0.091644175
0.06557073 0.08152503 -8.133836e-07 0.007466893 -0.06170885 0.021702588 -0.033406597 -0.00023879751
0.06316626 0.063221 0.103208914 0.11014962 -0.013750598 0.11232938 -0.013665544 0.03261866
-0.0554396 0.05863954 0.07950746 -0.042440616 -0.02528002 0.0067736404 0.059918985 -1.6217053e-16
0.0753884 -0.07272757 0.11736663 -0.063537 -0.13087237 9.91e-42 0.044005394 0.0035817183
-0.045929447 0.08789399 -0.17359251 0.2415456 -0.14370807 -0.0892175 0.015401284 0.049799588
0.080780126 0.057042804 0.11604101 9.837e-42 0.10452102 -0.14165686 -0.035622343 0.09527016
-0.10259363 -0.12892236 0.066819206 -0.051227715 0.05462445 -0.036796402 -0.03916171 0.053674173
-0.06229635 -0.005555568 0.075172596 -0.010698381 -9.274e-42 0.0025806394 0.022373114 -0.045362964
-0.30181557 0.00044215246 0.072903074 -0.029645685 0.107838295 0.09873388 -0.04698686 -0.004443669
-0.033906356 0.047637757 -0.0764819 0.08718813 0.14692451 -0.068286784 0.0037919388 0.090307236
0.07020147 -0.021315223 -0.0130389435 -0.16014227 -0.018221794 -0.0078074867 -0.026651038 -1.1552e-41
0.086291045 -0.056286354 -0.054400634 0.20942795 0.039955676 0.10600126 -0.009754046 0.1568979
-0.06799148 0.058996852 0.005259321 -0.00013866134 -0.11247536 -0.036646917 0.052830074 -9.827e-42
-0.016719768 0.0071845497 0.04388852 0.033144984 -0.05450266 -0.010068097 0.14093938 -0.036340848
0.03265789 -0.1447024 -2.730172e-28 0.039343454 -0.04463883 6.7675174e-16 -0.28673977 0.10968598
0.054254938 -0.016525839 -2.1276096e-08 0.07024576 -0.0014569189 0.04489945 -0.019014915 0.00027992163
0.02541699 -0.021273823 0.1486509 0.10399021 0.03513652 0.18289067 0.06847174 -0.05663727
-0.0085639665 0.035223663 0.06956442 -0.082405165 -0.03221144 0.019512739 0.080273926 -6.0181353e-28
-0.061211318 -0.054458138 0.079278216 0.0092262635 -0.11060354 -9.86e-42 -0.054925025 0.0025531154
-0.08715084 -0.04774488 -0.16012786 0.23619287 -0.23197629 -0.085197106 -0.033118237 -0.013592076
00000000: bfcf f0bc d588 04be f26f 9e3d 1b5e c43c
00000010: 7c09 66bd 7b1b 0000 a08d 843d e5c2 623b
00000020: 2ea7 143d 54b6 0d3d 2136 93bd f495 903e
00000030: 4bc7 0dbe 650d c5bd 769a 9cbd 8edb e83c
00000040: 4567 383d 862a be3d 2df0 da3d 9c1b 0080
00000050: a544 093d 7286 99bd 4d8c ccbd 7d3a 2fbc
00000060: 7ee7 37be 7aca d6bd b43e 373e ad4d c2bd
00000070: 9699 6dbd 33ee f73c 902d c33d 957c 1abb
00000080: 1b87 643d fead de3d 6ee3 0e3d bb19 a1bc
00000090: 0c20 0080 beba 0a3b c771 a63d 9041 d0bd
000000a0: 6545 3fbe d635 f239 7f0a c4bb d8ed 193d
000000b0: 2633 153d d179 913d 1ecb 33bc c40e 90bd
000000c0: 6419 473d 1b4b 913d 5148 0b3c 09f4 a1bd
000000d0: 3fb9 0f3e ba06 883d 4f81 693d 3bcd 96bd
000000e0: 6ab4 a2bd 23ce 053e 7998 93bc 4593 8bbd
000000f0: 72c3 213d 4b92 5a3c bde1 d83d ae1b 0000
00000100: 0aca a13d 402b c53d b113 943d 3e4e da3d
00000110: ea03 f93c 49c2 cb3d ffa2 a53d 8f6f 123e
00000120: 06a0 b63c d0e2 f33b 82a3 a63d f7f3 3738
00000130: 6576 46be d15e c33d 0860 c13d 931b 0080
00000140: fa3b 4c3d 61ab 933d 621b 473d 6d81 e53c
00000150: 6955 e3bc 381d fdbc 47e7 c43d 5fbf 66bd
00000160: f29b 9f3d 2843 44be 4805 3ba8 0dbd 823d
00000170: b652 8ebd 91c8 1432 0710 a1be f1af bb3d
00000180: f249 863d 98f6 a63d 4c57 5ab5 d7ac f43b
00000190: 6bc2 7cbd a0c9 b13c 5bd5 08bd b865 7ab9
000001a0: 505d 813d 037a 813d 325f d33d 2096 e13d
000001b0: 304a 61bc f20c e63d 72e5 5fbc 259b 053d
000001c0: a214 63bd 0430 703d cfd4 a23d 36d6 2dbd
000001d0: 0b18 cfbc 6af5 dd3b 9c6d 753d 4bf8 3aa5
000001e0: 3c65 9a3d 31f2 94bd ea5d f03d b01f 82bd
000001f0: 6803 06be a01b 0000 003f 343d 43bb 6a3b
00000200: 8420 3cbd c401 b43d 3cc2 31be bb57 773e
00000210: 3528 13be aab7 b6bd ab55 7c3c a7fa 4b3d
00000220: 0d70 a53d b7a5 693d e9a6 ed3d 6c1b 0000
00000230: 1e0f d63d 7f0e 11be bce8 11bd 001d c33d
00000240: 9c1c d2bd 3904 04be 82d8 883d 27d4 51bd
00000250: e3bd 5f3d d3b7 16bd 0768 20bd 73d9 5b3d
00000260: 752a 7fbd 7b0b b6bb 17f4 993d 4348 2fbc
00000270: da19 0080 f21f 293b d247 b73c 84ce 39bd
00000280: 9287 9abe b3d0 e739 354e 953d 82db f2bc
00000290: 53da dc3d fd34 ca3d 4b75 40bd 339c 91bb
000002a0: 64e1 0abd cf1f 433d 8ba2 9cbd b18f b23d
000002b0: 6173 163e f1d9 8bbd 2d82 783b 00f3 b83d
000002c0: cac5 8f3d 439d aebc 4ba1 55bc 56fc 23be
000002d0: df45 95bc f2d5 ffbb 4753 dabc 3420 0080
000002e0: 5cb9 b03d 858c 66bd 33d3 5ebd 4874 563e
000002f0: 90a8 233d 3017 d93d 6fcf 1fbc d8a9 203e
00000300: 1e3f 8bbd afa6 713d 6256 ac3b 9f65 11b9
00000310: 7b59 e6bd 141b 16bd 5964 583d 651b 0080
00000320: e5f7 88bc 5f6c eb3b 73c4 333d 09c3 073d
00000330: 2e3e 5fbd a9f4 24bc 6a52 103e 24da 14bd
00000340: 48c4 053d de2c 14be 930b ad91 9a26 213d
00000350: 35d7 36bd 770f 4326 8ecf 92be 0ba3 e03d
00000360: 6d3a 5e3d 3261 87bc a1c2 b6b2 02dd 8f3d
00000370: 16f6 beba 7ce8 373d 2bc5 9bbc 72c2 9239
00000380: 4b37 d03c 7146 aebc f137 183e d2f8 d43d
00000390: 50eb 0f3d b147 3b3e e93a 8c3d 7bfc 67bd
000003a0: e14f 0cbc b046 103d ca77 8e3d 0ac4 a8bd
000003b0: 25f0 03bd 2ed9 9f3c a866 a43d eab8 3e92
000003c0: b8b8 7abd 7f0f 5fbd 9e5c a23d c129 173c
000003d0: 1c84 e2bd 7c1b 0080 10f9 60bd 2b52 273b
000003e0: 247c b2bd 2390 43bd 8ff8 23be 8bdc 713e
000003f0: 318b 6dbe d27b aebd fda6 07bd 4cb1 5ebc

conv3.lin_rel.bias f4 [120]
-0.07814681 0.07455131 0.057063635 -0.008931303 0.06890104 0.0635519 0.014236602 0.0769109
-0.06437288 0.006837964 0.07925932 0.063394055 0.010337251 -0.05604832 -0.071445145 0.049291804
0.03145171 -0.06707655 0.076498635 0.0060668103 0.07012501 -0.056101367 0.08149219 0.063202456
-0.051915724 0.09116199 0.050421193 0.045031834 -0.043968905 0.010880414 0.043422528 -0.028675884
-0.014842481 -0.0017269433 0.07567464 -0.03676377 -0.033059716 0.06681056 0.004830349 -0.080419235
-0.061369896 -0.005536874 0.018417276 -0.07129033 0.032434676 -0.09598496 0.048815776 -0.00781887
0.09164279 0.061000302 0.03795583 -0.075939886 0.018342873 0.044616245 0.07018676 -0.029671025
-0.052701432 -0.020092087 -0.040874116 -0.03979008 -0.05219365 -0.090165175 0.020118792 0.07776895
-0.033526268 0.06581553 -0.014976431 -0.054435227 4.6570785e-05 0.085616834 -0.07998975 -0.0684149
-0.08458316 0.049803738 0.044711314 0.04675948 -0.0021542886 0.076072395 -0.013731746 0.02164489
-0.027238684 0.0059942114 -0.06734303 -0.090573855 -0.016811896 -0.057014044 -0.060213864 0.058003582
0.034700673 -0.07186593 0.0431351 0.038717065 -0.06004535 -0.043218806 -0.0899025 0.053366583
0.018795816 0.08236091 -0.0638446 0.04602032 -0.012228935 -0.05784894 0.031584725 -0.044096448
-0.046422202 0.08733597 0.026735205 0.019672815 0.068648234 0.016126115 -0.087849714 -0.019741965
0.054607943 -0.059709165 0.03026866 0.028238576 -0.009160264 0.018922415 -0.08231338 -0.074054025
00000000: 6f0b a0bd 5bae 983d 8fbb 693d 9a54 12bc
00000010: fd1b 8d3d 8027 823d a340 693c 7683 9d3d
00000020: eed5 83bd 0011 e03b b652 a23d bed4 813d
00000030: 935d 293c ec92 65bd d551 92bd 34e6 493d
00000040: 82d3 003d 6e5f 89bd 51ab 9c3d 18cc c63b
00000050: b49d 8f3d 8cca 65bd 61e5 a63d 4a70 813d
00000060: 95a5 54bd 23b3 ba3d 7486 4e3d 4d73 383d
00000070: bd18 34bd c443 323c d2db 313d b0e9 eabc
00000080: e12d 73bc 9a5a e2ba 4efb 9a3d 9b95 16bd
00000090: a069 07bd fad3 883d e747 9e3b d7b2 a4bd
000000a0: 005f 7bbd aa6e b5bb d4df 963c aa00 92bd
000000b0: 39da 043d c393 c4bd 0df3 473d b81a 00bc
000000c0: 37af bb3d 74db 793d 9377 1b3d 5f86 9bbd
000000d0: cb43 963c 86bf 363d 13be 8f3d a610 f3bc
000000e0: 75dd 57bd 2998 a4bc 9e6b 27bd ecfa 22bd
000000f0: 02c9 55bd 85a8 b8bd 2ad0 a43c 5445 9f3d
00000100: d752 09bd 4bca 863d b45f 75bc 79f7 5ebd
00000110: 0055 4338 e157 af3d abd1 a3bd 1c1d 8cbd
00000120: f039 adbd 01ff 4b3d 3623 373d de86 3f3d
00000130: f72e 0dbb d8cb 9b3d 1efb 60bc a050 b13c
00000140: a923 dfbc 176b c43b 24eb 89bd c97e b9bd
00000150: 1ab9 89bc 8f87 69bd d0a2 76bd 2a95 6d3d
00000160: 4b22 0e3d 722e 93bd 6eae 303d c995 1e3d
00000170: 1df2 75bd 3406 31bd cd1e b8bd eb96 5a3d
00000180: aff9 993c d6ac a83d f5c0 82bd ce7f 3c3d
00000190: df5b 48bc 03f3 6cbd fc5e 013d 7a9e 34bd
000001a0: 3525 3ebd 33dd b23d ca03 db3c e228 a13c
000001b0: 7297 8c3d ea1a 843c 8dea b3bd e7b9 a1bc
000001c0: 94ac 5f3d 9991 74bd fbf5 f73c 9654 e73c
000001d0: ef14 16bc 2e03 9b3c eb93 a8bd a3a9 97bd

conv3.lin_root.weight f4 [120, 120]
-0.046506234 -0.059037782 0.019642944 0.021157032 -0.081697345 -9.813e-42 0.06373883 0.0034005353
-0.044279993 0.08587541 -0.07134447 0.25046015 -0.21722081 0.0023553595 -0.0005487872 -0.024404336
0.06172981 -0.031418473 -0.01562817 -9.853e-42 0.05250994 -0.03624828 0.009942471 -0.049857073
-0.05792917 -0.113027446 0.16314344 -0.07013919 0.062438723 -0.054016106 -0.031304114 0.030031567
0.059473492 0.105912946 0.077079594 0.02462449 9.928e-42 0.0013708624 0.07224642 -0.093198374
-0.12565672 0.00035636872 0.0938622 -0.033270996 0.08124297 0.040442146 0.015835987 0.06906007
0.0096321255 0.011162465 -0.07088545 0.09107297 0.117487766 0.09636996 -0.030486068 -0.04819869
0.06714202 -0.010944525 0.0076408554 -0.153892 -0.059164852 0.09672007 0.003345583 1.0088e-41
0.08345683 0.07080165 0.025808914 0.20260036 0.07642572 0.089431286 0.06439148 0.114440344
0.0030001767 0.02979696 -0.03539504 6.9383935e-07 -0.1932109 0.09875667 0.080577955 1.0016e-41
0.021985525 0.0012710216 0.1014622 -0.051288303 0.06636728 0.026506213 0.1099209 -0.028006826
-0.059995104 -0.06893793 -9.832e-42 0.132964 -0.049901444 1.9870676e-14 -0.23348033 -0.01619672
0.08556396 0.02051959 -1.5147277e-14 0.041394893 0.015507773 0.11219543 0.06885546 -5.906461e-06
0.06625136 -0.012476162 -0.0029637027 0.059668243 0.06775346 0.110595234 -0.045732856 0.026982583
-0.0010880247 0.08568757 0.037265852 -0.13120885 0.07808227 0.05123844 -0.03377043 -1.3769829e-30
-0.003294914 -0.11498506 -0.03623468 0.097725295 -0.119302675 -9.854e-42 0.10908517 0.0035029224
-0.04242167 0.06670266 -0.011983018 0.18593365 -0.17331682 -0.028864894 -0.054690152 0.047181547
0.023703126 -0.07614808 0.07037646 -9.864e-42 0.059008732 -0.110463426 -0.021846853 -0.030623795
-0.1748085 -0.047137987 0.055223085 0.05731792 0.08025994 0.041993666 0.00056866714 -0.0077340696
-0.06638995 0.058074664 0.09033244 -0.036782797 9.906e-42 0.0015951535 0.045472316 -0.021442208
-0.23399325 0.00032297889 0.08464001 -0.0026846344 -0.06975921 0.15474887 0.09704703 0.06258483
0.030534241 -0.025559986 -0.07320362 0.10469664 0.11972184 0.0708375 0.09564768 0.011822723
-0.07467095 0.040390834 -0.021530101 -0.14995295 0.0108270375 0.08538878 0.040211234 -9.865e-42
0.048471082 -0.051198635 0.060335387 0.061792195 0.022890799 0.10434582 0.04753253 0.13247046
0.02001461 0.040727064 0.080630384 -2.9956595e-06 -0.031191355 -0.037471373 0.094314285 -1.0047e-41
0.031872988 0.090661034 0.058215294 0.043803528 -0.0094554 0.024743596 0.08328491 0.07837667
-0.024359869 -0.1855462 -9.935e-42 0.14260621 -0.0024019585 -9.506884e-29 -0.23421481 0.014129924
0.05733268 -0.014906109 -1.05030554e-19 0.11448048 0.0803499 0.08340949 -0.027920356 6.246614e-06
0.080453254 -0.003100492 0.11820897 0.070383236 0.07105766 0.050109856 -0.06891429 0.009174847
0.08043029 0.030043224 -0.063323006 -0.09595474 0.0325709 -0.03680583 0.062409807 -9.906e-42
0.101901464 -0.07293548 -0.024385044 0.0025121528 0.016925735 9.846e-42 0.113487564 0.0025117407
-0.05981415 0.11538333 -0.14855035 0.233107 -0.13305989 -0.10370519 -0.05812993 0.052954677
00000000: 527d 3ebd 9ad1 71bd 3dea a03c 8351 ad3c
00000010: f050 a7bd 5b1b 0080 8189 823d 84db 5e3b
00000020: f05e 35bd 72df af3d 0d1d 92bd 503c 803e
00000030: 226f 5ebe 605c 1a3b 7cdc 0fba 9aeb c7bc
00000040: 66d8 7c3d a8b0 00bd a606 80bc 771b 0080
00000050: aa14 573d 1479 14bd bfe5 223c ee36 4cbd
00000060: 2347 6dbd ef7a e7bd 130f 273e 23a5 8fbd
00000070: bfbf 7f3d fe3f 5dbd be38 00bd c304 f63c
00000080: 7a9a 733d e3e8 d83d e8db 9d3d 4cb9 c93c
00000090: ad1b 0000 82ae b33a eef5 933d cade bebd
000000a0: 28ac 00be 00d7 ba39 d33a c03d 2b47 08bd
000000b0: b762 a63d aaa6 253d 79ba 813c 5e6f 8d3d
000000c0: 10d0 1d3c c6e2 363c 642c 91bd 7784 ba3d
000000d0: 6d9d f03d 9d5d c53d ebbd f9bc fd6b 45bd
000000e0: c181 893d aa50 33bc 2460 fa3b dd95 1dbe
000000f0: d856 72bd 2c15 c63d 9241 5b3b 1f1c 0000
00000100: 6aeb aa3d 7500 913d 376d d33c 7876 4f3e
00000110: 1685 9c3d c027 b73d aedf 833d b35f ea3d
00000120: 9d9e 443b c118 f43c 64fa 10bd 4740 3a35
00000130: 14d9 45be f040 ca3d 0e06 a53d ec1b 0000
00000140: fd1a b43c 6898 a63a 6acb cf3d af13 52bd
00000150: 92eb 873d 8f23 d93c 351e e13d 926e e5bc
00000160: 6dbd 75bd 542f 8dbd 681b 0080 b727 083e
00000170: 7565 4cbd a9fa b228 7815 6fbe fcae 84bc
00000180: 283c af3d b318 a83c 3e6f 88a8 b18d 293d
00000190: 5014 7e3c b8c6 e53d 1704 8d3d 1d30 c6b6
000001a0: cbae 873d d168 4cbc ae3a 42bb b066 743d
000001b0: 53c2 8a3d c17f e23d 6052 3bbd 940a dd3c
000001c0: 0d9c 8eba f77c af3d 14a4 183d 9d5b 06be
000001d0: 99e9 9f3d 66df 513d dd52 0abd a26d df8d
000001e0: 7cef 57bb 4a7d ebbd d16a 14bd 3324 c83d
000001f0: f654 f4bd 781b 0080 0c68 df3d 4991 653b
00000200: 58c2 2dbd 679b 883d 6c54 44bc 6465 3e3e
00000210: f779 31be 1276 ecbc c802 60bd 7041 413d
00000220: 0f2d c23c 86f3 9bbd 8921 903d 7f1b 0080
00000230: 24b3 713d a63a e2bd 2cf8 b2bc c1de fabc
00000240: 0001 33be c313 41bd 9a31 623d 32c6 6a3d
00000250: 535f a43d 8d01 2c3d 9b12 153a 146e fdbb
00000260: 74f7 87bd b3df 6d3d 3700 b93d 8fa9 16bd
00000270: 9d1b 0000 7814 d13a 2e41 3a3d 92a7 afbc
00000280: ed9b 6fbe 7e55 a939 be57 ad3d b1f0 2fbb
00000290: ebdd 8ebd 7d76 1e3e 98c0 c63d 7a2c 803d
000002a0: f222 fa3c 2d63 d1bc c8eb 95bd 316b d63d
000002b0: b930 f53d 4013 913d eee2 c33d 18b4 413c
000002c0: 15ed 98bd dc70 253d e55f b0bc 448d 19be
000002d0: e363 313c 50e0 ae3d 89b4 243d 801b 0080
000002e0: 9d89 463d a9b5 51bd 3d22 773d d019 7d3d
000002f0: 7c85 bb3c 43b3 d53d 78b1 423d 56a6 073e
00000300: aef5 a33c 6cd1 263d 8b21 a53d 0a09 49b6
00000310: 0385 ffbc 957b 19bd d927 c13d 021c 0080
00000320: 408d 023d 7eac b93d 2973 6e3d 546b 333d
00000330: d2ea 1abc 15b3 ca3c 4791 aa3d f383 a03d
00000340: 598e c7bc d3ff 3dbe b21b 0080 5d07 123e
00000350: 2d6a 1dbb 3407 f190 02d6 6fbe 3281 673c
00000360: acd5 6a3d c138 74bc 13ff f79f be74 ea3d
00000370: 7d8e a43d 98d2 aa3d 3bb9 e4bc 019a d136
00000380: adc4 a43d a031 4bbb 8b17 f23d 1625 903d
00000390: ae86 913d fe3f 4d3d ef22 8dbd 1952 163c
000003a0: a3b8 a43d 351d f63c 7eaf 81bd eb83 c4bd
000003b0: 1069 053d b6c1 16bd 6da1 7f3d 9d1b 0080
000003c0: b7b1 d03d 325f 95bd 25c3 c7bc eea2 243b
000003d0: d7a7 8a3c 721b 0000 2b6c e83d 049c 243b
000003e0: afff 74bd 184e ec3d 951d 18be 9ab3 6e3e
000003f0: da40 08be 6363 d4bd a619 6ebd 01e7 583d

lin.weight f4 [1, 120]
0.13187025 0.13985884 0.15449588 -0.081309885 -0.063138664 -0.104763985 -0.13574739 -0.06903837
0.091211155 -0.088024214 0.05202837 -0.070294425 0.12181429 -0.08002251 -0.15922904 0.11900921
-0.130463 0.085200414 0.066565685 0.089501664 0.08126614 -0.14055336 0.15206899 0.12597275
-0.06041632 0.1466082 -0.11375844 -0.13438196 -0.09521172 -0.112559 0.08332234 -0.0757691
0.10442075 0.10995944 0.09585752 -0.07332551 -0.10809676 -0.08572618 0.08249642 -0.070768766
0.11435565 -0.06668174 -0.13266273 0.1287684 0.07682683 -0.15331613 -0.067494236 0.0799016
0.06918472 0.09842439 0.060577672 0.123268366 0.11125293 -0.061654482 0.06649197 0.07569788
0.07629586 0.123333015 0.10951757 -0.06849415 0.15339454 -0.07059758 -0.14774819 -0.08629614
-0.14920318 0.07526627 0.046608686 -0.071958095 -0.109994866 0.112536855 -0.14216888 -0.071597874
0.076716214 0.14346166 -0.08928345 -0.104223005 0.0870825 0.13382135 -0.08868994 -0.064349726
0.12543409 -0.07172908 -0.1348157 -0.14077353 -0.07072829 -0.11189396 -0.12314622 0.06957123
0.14156306 -0.12317166 0.110934444 -0.08514573 -0.07052428 -0.09539052 0.15547942 0.14218663
0.071191035 -0.13879995 0.07381117 0.11148668 0.12219104 -0.13522463 -0.10158976 -0.07477411
-0.08001851 -0.10342759 -0.1128967 -0.14984398 0.12466106 -0.1043177 -0.10889223 0.097541556
-0.072965495 0.122280195 -0.076625034 -0.10872148 -0.064463444 0.08686599 -0.07870724 -0.10359174
00000000: ff08 073e 2837 0f3e 2b34 1e3e cc85 a6bd
00000010: d84e 81bd 808e d6bd 5d01 0bbe fd63 8dbd
00000020: eacc ba3d 0a46 b4bd b31b 553d 86f6 8fbd
00000030: c579 f93d d7e2 a3bd f00c 23be 1abb f33d
00000040: 1898 05be 8e7d ae3d 9753 883d a64c b73d
00000050: dd6e a63d 38ed 0fbe f9b7 1b3e 00ff 003e
00000060: 1a77 77bd 7620 163e 2ffa e8bd 6d9b 09be
00000070: 5dfe c2bd 5585 e6bd e7a4 aa3d d42c 9bbd
00000080: 8cda d53d 6a32 e13d f350 c43d af2b 96bd
00000090: d661 ddbd 3591 afbd e2f3 a83d 37ef 90bd
000000a0: 4c33 ea3d 7090 88bd bdd8 07be dddb 033e
000000b0: 6357 9d3d e7fe 1cbe 6b3a 8abd 73a3 a33d
000000c0: b8b0 8d3d ba92 c93d 4b20 783d 2074 fc3d
000000d0: 93d8 e33d 6989 7cbd f12c 883d 7d07 9b3d
000000e0: 0141 9c3d 0596 fc3d bf4a e03d a946 8cbd
000000f0: 7513 1d3e 7795 90bd 4d4b 17be 08bc b0bd
00000100: b8c8 18be 3425 9a3d c0e8 3e3d c45e 93bd
00000110: fd44 e1bd b979 e63d b894 11be e8a1 92bd
00000120: 641d 9d3d 9de7 123e 3eda b6bd df72 d5bd
00000130: 4f58 b23d 7708 093e 12a3 b5bd cac9 83bd
00000140: cb71 003e b2e6 92bd 200d 0abe f026 10be
00000150: fed9 90bd a928 e5bd 1634 fcbd 5c7b 8e3d
00000160: e8f5 103e 6c41 fcbd 9931 e33d e260 aebd
00000170: 096f 90bd 1b5c c3bd ff35 1f3e 5f99 113e
00000180: 9bcc 913d 9321 0ebe 502a 973d 2153 e43d
00000190: 4c3f fa3d 5378 0abe 4b0e d0bd 2b23 99bd
000001a0: bfe0 a3bd d8d1 d3bd 6336 e7bd b370 19be
000001b0: 4c4e ff3d 85a4 d5bd e402 dfbd dec3 c73d
000001c0: ef6e 95bd 0a6e fa3d 96ed 9cbd 5ea9 debd
000001d0: 6905 84bd cce6 b13d 4331 a1bd e827 d4bd
