pretrained_GNN_models/GNNrestrictedgraph_272trainvalid_fold4_1940_16.4872_2.78486.pt (torch, 251201 bytes, 10 tensors)

conv1.lin_rel.weight f4 [120, 14]
0	0xbe7c5772	-0.24642733
1	0xbe208054	-0.15673953
2	0xbe88bb8d	-0.2670559
3	0x3e8e5cd5	0.278052
4	0x3e2f8568	0.17140734
5	0x3e0c0a5c	0.13675827
6	0xbe632a8d	-0.221842
7	0x3b1abe1a	0.0023611845
8	0x3e14be2b	0.14525668
9	0x00001b82	9.868e-42
10	0x3df547eb	0.11976608
11	0x3e64fd4a	0.22362247
12	0xbca89e89	-0.020583408
13	0x3e888577	0.26664326
14	0xbdaaae06	-0.083339736
15	0x3e22eac9	0.15909876
16	0xbe273caa	-0.16331735
17	0x3e350bcf	0.17680286
18	0xbdd6d30d	-0.104894735
19	0x3e5f1eaf	0.21789049
20	0x3e71d8e0	0.23617887
21	0xbe736d3c	-0.23772138
22	0xbd6bee41	-0.057600264
23	0x80001b6c	-9.837e-42
24	0xbdb71d73	-0.08941164
25	0xbe3f359d	-0.18672796
26	0x3e769d8e	0.2408354
27	0xbe542b23	-0.2071958
28	0xbe47b5e5	-0.19502981
29	0xbd95e2ea	-0.07318671
30	0x3c03397a	0.008009309
31	0x3e06ff6a	0.1318337
32	0x3d640cf4	0.055676416
33	0xbbdf75f6	-0.006819482
34	0x3e9a3e36	0.30125588
35	0x0000213d	1.1924e-41
36	0x80001b9b	-9.903e-42
37	0x80001b9c	-9.904e-42
38	0xbd78dce5	-0.060757536
39	0x3da8119a	0.08206482
40	0x3c9415bd	0.018076772
41	0x3dcb0834	0.09913674
42	0x3bc88ab9	0.0061200527
43	0x3aa4bea2	0.001256902
44	0xbe0d813c	-0.1381883
45	0x3ea44ef2	0.3209148
46	0x80001b61	-9.822e-42
47	0x3e2a83a6	0.16651782
48	0x8000209b	-1.1697e-41
49	0x80001b5f	-9.819e-42
50	0x80001b9f	-9.909e-42
51	0x00001b5d	9.816e-42
52	0x3d5a8bc0	0.053355932
53	0x3c1ce521	0.009576113
54	0xbe2c1e27	-0.16808377
55	0xbe17e607	-0.14833842
56	0xbb8439e5	-0.004035222
57	0xbdcc23ab	-0.099677406
58	0x3e0bf88b	0.1366903
59	0xbdf08b70	-0.117453456
60	0x00001d07	1.0413e-41
61	0x80001b69	-9.833e-42
62	0x00001b6d	9.839e-42
63	0x80001b9e	-9.907e-42
64	0x3897271a	7.207524e-05
65	0x00001b8e	9.885e-42
66	0x3c86a933	0.016438102
67	0x3e3455fc	0.17610925
68	0xbd66a888	-0.056313068
69	0xbc1f557c	-0.009724971
70	0xbc552d61	-0.013011307
71	0xbd5ee536	-0.05441781
72	0x3e0ad8f9	0.13559331
73	0x3e1946d3	0.14968424
74	0x80001c81	-1.0225e-41
75	0x80001b90	-9.888e-42
76	0x00001b8b	9.88e-42
77	0x80001b5f	-9.819e-42
78	0x00001b6e	9.84e-42
79	0x00001b84	9.871e-42
80	0x3bfc5645	0.007700714
81	0x3c7181a0	0.014740378
82	0xbd0cc7f6	-0.034370385
83	0xbe4f1457	-0.20222603
84	0xbdedc868	-0.1161049
85	0xbe694d4b	-0.22783391
86	0x3e226bcf	0.15861438
87	0x3e47e6bc	0.19521612
88	0x80001b88	-9.876e-42
89	0xbd499af1	-0.04922003
90	0x3e65cce8	0.22441447
91	0x00001b89	9.878e-42
92	0x80001b68	-9.832e-42
93	0x00001b61	9.822e-42
94	0xbb7bb34d	-0.0038406432
95	0xbdf1b96c	-0.118029445
96	0xbdb3c84b	-0.08778437
97	0xbcbb94c2	-0.022898082
98	0xbe32d5c0	-0.17464352
99	0x3e08a9ad	0.13345976
100	0x3e0f2ced	0.13981982
101	0x3b948586	0.004532519
102	0x80001b8a	-9.879e-42
103	0x3e3bf237	0.18354116
104	0x80001b9f	-9.909e-42
105	0x80001b81	-9.867e-42
106	0x3ea3e08a	0.32007247
107	0x00001b91	9.889e-42
108	0x3d9419af	0.07231461
109	0x3e0ccfdc	0.13751167
110	0xbd7d973d	-0.06191181
111	0x3cb6c522	0.022310797
112	0x3e24f243	0.1610804
113	0xbde22d45	-0.11043791
114	0x3e163ed5	0.14672406
115	0x3ea62090	0.32446718
116	0x3e3c1c2e	0.18370125
117	0x3d61d817	0.05513772
118	0xbc820ade	-0.015874323
119	0xbe7631b1	-0.24042393
120	0x3e8c56b6	0.27409905
121	0x80001b63	-9.825e-42
122	0xbe04a224	-0.12952477
123	0xbd7a5b74	-0.061122373
124	0x3e10e59e	0.14150092
125	0xbc531302	-0.01288295
126	0x3e0de272	0.13855913
127	0xbea5e966	-0.3240463
128	0x3e604745	0.21902187
129	0x3dac12f1	0.0840205
130	0x80001b81	-9.867e-42
131	0x00001b66	9.829e-42
132	0x80001b82	-9.868e-42
133	0x80001b65	-9.827e-42
134	0x80001b71	-9.844e-42
135	0x80001b95	-9.895e-42
136	0x3e9e1a15	0.30879274
137	0xbe3602ce	-0.17774507
138	0xb911f916	-0.0001392107
139	0xbe51acfb	-0.20476143
140	0xbd83618c	-0.0641509
141	0x3e4f4246	0.20240125
142	0xbe4926be	-0.19643685
143	0xbe8cd214	-0.27504027
144	0x80001b68	-9.832e-42
145	0x3c0465d5	0.008080919
146	0x3e3a4692	0.18190983
147	0xbd1fa626	-0.03897681
148	0x3ea33bca	0.31881553
149	0x80001b73	-9.847e-42
150	0xbe4bb463	-0.19893031
151	0xbda4c192	-0.08044733
152	0xbe2c885d	-0.16848893
153	0xbdb417a9	-0.08793575
154	0x3e87797f	0.26459882
155	0x3d8cdab9	0.068776555
156	0x3e665d3f	0.22496508
157	0x80001b8e	-9.885e-42
158	0x239743a6	1.6400103e-17
159	0x00001b83	9.87e-42
160	0x00001b67	9.83e-42
161	0x80001b9e	-9.907e-42
162	0x80001b5c	-9.815e-42
163	0x80001b94	-9.893e-42
164	0xbdcfeacd	-0.101522066
165	0xbd38b96e	-0.045098715
166	0x3d84217e	0.06451701
167	0xbe8c5204	-0.27406323
168	0xbe7edff9	-0.24890126
169	0xbe18f995	-0.14938958
170	0xbda4d071	-0.080475695
171	0x3e352bb7	0.17692457
172	0x3e722d5b	0.23650114
173	0x3e22d416	0.15901217
174	0xbe042f87	-0.12908755
175	0x3adfd770	0.0017077755
176	0x80001b74	-9.848e-42
177	0x00001b5d	9.816e-42
178	0xbd08ffdc	-0.03344713
179	0x3e969a65	0.2941467
180	0x3e95f81d	0.29290858
181	0x3db48915	0.08815209
182	0x3e107b57	0.1410955
183	0x3e6eea28	0.23331511
184	0x3e6bfbd3	0.23045282
185	0x3e02a133	0.12756805
186	0x3e0f5fb8	0.14001358
187	0xb2b3fada	-2.0952417e-08
188	0xbd4794e4	-0.048725978
189	0x3e83f773	0.25774726
190	0x3e56241d	0.20912214
191	0x80001b64	-9.826e-42
192	0xbd936188	-0.07196337
193	0x3ca8936d	0.02057811
194	0x3df961e9	0.12176878
195	0xbc72794b	-0.014799426
196	0xbe6c2697	-0.23061596
197	0x3e7e3a4b	0.24826925
198	0xbdd9d6f5	-0.10636703
199	0x3e2434dc	0.16035789
200	0x3d844433	0.064583205
201	0xbe390615	-0.18068726
202	0xbd998ebe	-0.07497929
203	0xbe6ac8a5	-0.22928102
204	0xbe67b4b0	-0.2262752
205	0x00001b7a	9.857e-42
206	0x3e343b5f	0.17600773
207	0xbe5897e8	-0.21151698
208	0x3e4732f6	0.19453034
209	0x3d297811	0.04137427
210	0x3e365194	0.17804557
211	0x3db3bcbc	0.087762326
212	0x3e63a366	0.222303
213	0x3ec73bdb	0.38912854
214	0xbe59312e	-0.21210167
215	0x3dccfdd0	0.100093484
216	0xbe4b1203	-0.1983109
217	0x3c4f40d2	0.012649732
218	0x3d8bf1ee	0.06833254
219	0x00001b7e	9.862e-42
220	0x3da9c5bd	0.08289669
221	0x3e81d170	0.253551
222	0x3e449f0b	0.19201295
223	0xbe6ab7ca	-0.22921672
224	0x3e8959bc	0.26826274
225	0x3dc31cdb	0.09526988
226	0x3e5453fe	0.20735165
227	0xbd0a3ec3	-0.03375126
228	0xbd1b89a1	-0.03797305
229	0x3e53d632	0.20687178
230	0xbe2584e5	-0.16163976
231	0x3e464f5a	0.19366208
232	0x3cfecf24	0.031104632
233	0x00001bab	9.925e-42
234	0x3e0e228f	0.1388037
235	0xbe4ea307	-0.20179377
236	0x3b5d4f4a	0.0033769184
237	0x3db4bc1f	0.08824944
238	0xbea1145b	-0.31460842
239	0x3e562bc3	0.20915131
240	0xbdde626f	-0.108586185
241	0x3d2277a5	0.039664883
242	0x3e266e81	0.16253091
243	0x3e0580f3	0.13037471
244	0x80001b67	-9.83e-42
245	0x00001b7f	9.864e-42
246	0x00001b81	9.867e-42
247	0x00001b5c	9.815e-42
248	0xbdc74661	-0.097302206
249	0xbcf820c4	-0.030289061
250	0x3d8ff472	0.07029046
251	0xbe871767	-0.26385042
252	0xbe44519a	-0.19171754
253	0x3e61fa76	0.220682
254	0xbcdf92ca	-0.027291674
255	0xbdb70db5	-0.08938161

conv1.lin_rel.bias f4 [120]
0	0x3e5a35fe	0.21309659
1	0x3dc6cb56	0.09706752
2	0x3e8d8a5e	0.27644628
3	0x3dd74019	0.105102725
4	0xbe6431b2	-0.22284582
5	0x3dbfb88b	0.09361371
6	0x3e14f3d0	0.14546132
7	0x3ceedaee	0.029157128
8	0x3b81c7e0	0.0039605945
9	0xbe59fcd4	-0.21287853
10	0x3e8a658e	0.27030605
11	0xbe38e164	-0.1805473
12	0xbe522847	-0.20523177
13	0xbdcdf9d1	-0.10057414
14	0x3e8849ec	0.26618898
15	0x3e2b262a	0.16713777
16	0x3e2b8941	0.16751577
17	0x3cb080f2	0.02154586
18	0x3e5161f2	0.2044752
19	0x3d090834	0.03345509
20	0x3e8a5737	0.27019665
21	0xbe749f36	-0.23888859
22	0x3e1faf9c	0.15594333
23	0xbd9aa676	-0.07551281
24	0xbe23fe1a	-0.16014901
25	0x3e2a6ad5	0.16642316
26	0xbdce10ad	-0.100617744
27	0xbd884a9c	-0.066548556
28	0xbd963f27	-0.07336264
29	0x3e220104	0.158207
30	0xbdcc57b4	-0.099776655
31	0x3d77e4e5	0.060521025
32	0x3e768979	0.24075879
33	0x3e35a1c7	0.17737494
34	0xbe7906b8	-0.24318969
35	0xbdf1906f	-0.11795127
36	0xbe37335a	-0.17890683
37	0x3e0792b2	0.13239554
38	0x3e1aec93	0.15129308
39	0x3ca79403	0.02045632
40	0x3c81705f	0.015800653
41	0xbe5fa5d5	-0.21840604
42	0xbd7c3f45	-0.061583776
43	0x3dd45f8b	0.10369786
44	0xbe506b81	-0.2035351
45	0xbde6629d	-0.11249278
46	0xbda503b1	-0.08057345
47	0x3e0fa7fc	0.14028925
48	0xbe454ef6	-0.19268402
49	0x3e9f06ac	0.31059778
50	0xbe3dcc0d	-0.1853487
51	0xbb3b524f	-0.0028582995
52	0x3dcd308e	0.10019027
53	0xbcad5167	-0.02115698
54	0x3cf17b7e	0.029477831
55	0x3de46c46	0.11153464
56	0xbe2e1aa0	-0.17002344
57	0x3e892a25	0.26789966
58	0x3e818586	0.25297183
59	0x3deaae0e	0.114589795
60	0x3d12dc9d	0.035854924
61	0x3e4921fa	0.19641867
62	0x3e18f243	0.14936166
63	0x3e154a92	0.14579228
64	0x3e4bf805	0.1991883
65	0x3e60b326	0.2194334
66	0xb61c2126	-2.3265106e-06
67	0x3e8baf82	0.2728234
68	0x3b9dacb0	0.0048118457
69	0x3e85656a	0.26053935
70	0x3e20375b	0.15646116
71	0x3d69fbbf	0.05712485
72	0x3d428076	0.04748579
73	0x3e26f02d	0.16302557
74	0xbe77bc22	-0.2419286
75	0xbae3309e	-0.0017333215
76	0x3d8ff194	0.07028499
77	0xbdf9c7f0	-0.12196338
78	0xbda718d4	-0.081590325
79	0xbdba6a60	-0.09102321
80	0x3e569f0d	0.2095911
81	0xbe4a1e35	-0.19738086
82	0xbdb863ff	-0.09003448
83	0x3e6cdae9	0.23130383
84	0xbb874ad6	-0.004128794
85	0xbe630205	-0.22168739
86	0x3caa1ed8	0.02076666
87	0x3e3f7c4b	0.18699758
88	0x3de9978e	0.1140586
89	0xbb1de244	-0.0024091164
90	0xbcf7b22b	-0.030236324
91	0x3e4f21d4	0.20227748
92	0xbc815039	-0.015785323
93	0xbe07ac4f	-0.13249324
94	0x3e4ea8cb	0.20181577
95	0xbde3cb94	-0.11122814
96	0xbd9124cc	-0.070870966
97	0xbe6183f9	-0.22023
98	0xbe1541df	-0.14575909
99	0x3d835361	0.06412388
100	0xbe36aba8	-0.17838919
101	0x3e1ae48e	0.15126249
102	0xbd2e6c81	-0.042583946
103	0x3e3a0d9e	0.18169257
104	0x3cd80f21	0.026374402
105	0x3d6b4c07	0.057445552
106	0xbe1f6b75	-0.15568335
107	0x3e858fc6	0.26086253
108	0x3de2216d	0.11041532
109	0xbdde1472	-0.108437434
110	0x3e3013e2	0.17195085
111	0xbcf327b5	-0.02968202
112	0xbcb0fe93	-0.021605765
113	0x3e03848d	0.12843533
114	0x3d4b5a70	0.049646795
115	0x3d955e6c	0.072934
116	0x3e2d4dd0	0.16924214
117	0x3e759304	0.23981863
118	0x3da0af5d	0.07845948
119	0x3d06af42	0.032881983

conv1.lin_root.weight f4 [120, 14]
0	0xbde3a965	-0.11116294
1	0x3e8c2b6b	0.27376875
2	0x3e58dec6	0.21178731
3	0x3ddc7b38	0.107656896
4	0x3de005fd	0.10938642
5	0x3e2e8ba9	0.17045464
6	0x00002322	1.2603e-41
7	0x3e41e67f	0.18935584
8	0x3d65928c	0.05604796
9	0x00001b77	9.853e-42
10	0xbe35e584	-0.17763335
11	0x3d8d545e	0.069008574
12	0xbe024187	-0.12720309
13	0x3e8f3725	0.2797176
14	0x3e8c650b	0.2742084
15	0x3e07c1b6	0.13257489
16	0xbe6e09cc	-0.23245925
17	0x3e10dc76	0.14146599
18	0x3e4773a4	0.19477707
19	0x00001b94	9.893e-42
20	0x3e45a378	0.1930064
21	0x3e708216	0.23487124
22	0x3abf5749	0.0014598157
23	0x80001b7d	-9.861e-42
24	0x3e52b91d	0.20578428
25	0x3d5eec19	0.05442438
26	0x3e48d13b	0.19611065
27	0x3bf09435	0.0073418864
28	0xbe784523	-0.24245124
29	0x3d8f2d1b	0.06991025
30	0x3e157cf6	0.1459845
31	0x3c68479e	0.014177231
32	0x3e9e3051	0.30896237
33	0x00001b90	9.888e-42
34	0xba18ccd6	-0.0005828863
35	0x3cbd03be	0.023073073
36	0xbcc98f54	-0.024604477
37	0x80001b9c	-9.904e-42
38	0xbcc0c25c	-0.023530178
39	0x3e6e3856	0.23263678
40	0xbe22e3eb	-0.15907256
41	0x3c8cc77d	0.017184967
42	0x3e2d1994	0.16904289
43	0x3bbe75c0	0.0058123767
44	0xbd47965b	-0.048727375
45	0xbb51a05d	-0.0031986453
46	0x80001b62	-9.823e-42
47	0x80001b91	-9.889e-42
48	0x80001ba7	-9.92e-42
49	0x80001b93	-9.892e-42
50	0x80001b7e	-9.862e-42
51	0x80001b74	-9.848e-42
52	0xbd89118d	-0.06692801
53	0x3e7ed6d3	0.24886636
54	0xbe5f8188	-0.21826756
55	0xbdcb91b3	-0.09939899
56	0xbe8805b0	-0.2656684
57	0x3d4d39eb	0.050104063
58	0xba936264	-0.0011244533
59	0xbe3cde86	-0.18444261
60	0x3e7dfa68	0.24802554
61	0xbb76c50e	-0.0037654075
62	0xbdf29464	-0.118447095
63	0x3e41c7cd	0.18923874
64	0x3e907b6c	0.28219163
65	0x80001e60	-1.0896e-41
66	0x3b7f102a	0.0038919547
67	0x3e3ccf5a	0.18438473
68	0x3d5ee5b9	0.0544183
69	0x3e74e602	0.23915866
70	0xbdd08c00	-0.10182953
71	0x80001b74	-9.848e-42
72	0x80001b8f	-9.886e-42
73	0x00001d01	1.0405e-41
74	0x80001b9b	-9.903e-42
75	0x80001cdf	-1.0357e-41
76	0xbd9b6872	-0.07588281
77	0x80001b72	-9.846e-42
78	0x00001b5e	9.817e-42
79	0x80001b71	-9.844e-42
80	0x3be64e7a	0.007028398
81	0x3c7171ee	0.014736636
82	0x3bdb2e95	0.0066889026
83	0x3d78461a	0.06061373
84	0xbe00bd8f	-0.12572311
85	0x3e28106f	0.16412519
86	0xbe71afad	-0.23602171
87	0x3e415a35	0.18882068
88	0xbd7a083e	-0.061043017
89	0x00001d25	1.0455e-41
90	0xbe0f8b67	-0.14018022
91	0xbd03afef	-0.032150205
92	0x3de7957d	0.113078095
93	0x80001b95	-9.895e-42
94	0x3c147218	0.009060405
95	0xbd256959	-0.04038367
96	0x3e20ac65	0.15690763
97	0x3e1c1989	0.15244116
98	0x3e3a9f7c	0.18224901
99	0x00002007	1.1489e-41
100	0x3d57b752	0.052665062
101	0x80001b96	-9.896e-42
102	0x00001b9a	9.902e-42
103	0x80001b65	-9.827e-42
104	0x80001b84	-9.871e-42
105	0x80001b69	-9.833e-42
106	0x80001ce6	-1.0367e-41
107	0x80001b69	-9.833e-42
108	0xbe3f9d0a	-0.1871225
109	0xbe5f02fd	-0.21778484
110	0xbe32ec02	-0.17472842
111	0xbdd07f89	-0.101805754
112	0xbde5991d	-0.11210845
113	0x3e95e994	0.29279768
114	0xbd86be40	-0.06579256
115	0x3d0ad5c5	0.033895273
116	0x3e9bd373	0.3043476
117	0xbdbeca64	-0.09315947
118	0xbe8aac81	-0.27084735
119	0x3df6ced2	0.120511666
120	0xbe1e70c9	-0.15472712
121	0x00001b7d	9.861e-42
122	0x3e510995	0.20413812
123	0x3e82fd01	0.25583652
124	0x3c1498db	0.009069647
125	0xbdecdbe1	-0.11565376
126	0x3dedb2ca	0.11606367
127	0xbdadda4d	-0.08488903
128	0xbdd63782	-0.10459806
129	0x80001bee	-1.0019e-41
130	0x80001b58	-9.809e-42
131	0x00001b7f	9.864e-42
132	0x3e6507e6	0.22366294
133	0x80001b6d	-9.839e-42
134	0x80001b86	-9.874e-42
135	0x80001b85	-9.872e-42
136	0x3dd2c085	0.102906264
137	0xbea45892	-0.32098824
138	0xbe641978	-0.2227534
139	0xbdf673f5	-0.12033836
140	0x3e7d2d78	0.24724376
141	0xbba80db8	-0.0051285885
142	0xbd91c3c0	-0.071174145
143	0x3e837469	0.2567475
144	0x00001b68	9.832e-42
145	0x80001b7a	-9.857e-42
146	0x00001b69	9.833e-42
147	0x80001b7c	-9.86e-42
148	0x80001b9e	-9.907e-42
149	0x80001b84	-9.871e-42
150	0x3e60ab57	0.21940361
151	0xbdd3b000	-0.10336304
152	0xbe03a9fb	-0.12857811
153	0xbe57841b	-0.21046488
154	0x3b56d1df	0.0032778902
155	0x80001b95	-9.895e-42
156	0x00001b87	9.875e-42
157	0x3e581fff	0.21105956
158	0x00001b9c	9.904e-42
159	0xbe112e1a	-0.14177743
160	0x3e808edf	0.25109002
161	0x36879777	4.0409464e-06
162	0x80001b59	-9.81e-42
163	0x80001b87	-9.875e-42
164	0x80001b5c	-9.815e-42
165	0x80001b6f	-9.841e-42
166	0xbdef53c0	-0.11685896
167	0xbe376966	-0.179113
168	0x3e53f66c	0.20699471
169	0xbd32a3ec	-0.04361336
170	0x3e8297a6	0.25506324
171	0x00001b7f	9.864e-42
172	0x80001b92	-9.89e-42
173	0x00001b7a	9.857e-42
174	0x00001b82	9.868e-42
175	0x00001b6a	9.834e-42
176	0x00001b81	9.867e-42
177	0x00001b67	9.83e-42
178	0xbe512028	-0.20422423
179	0x3d8f1dbd	0.06988094
180	0x3cd3c268	0.025849536
181	0xbe4bb29a	-0.1989235
182	0xbe65d2ea	-0.22443739
183	0x3ce2fdcc	0.02770891
184	0xbcab3a2d	-0.020901764
185	0x3e186eaf	0.14885972
186	0x3e65f085	0.22455032
187	0x3dbc937c	0.09207818
188	0xbdff17cb	-0.1245571
189	0xbc34eee3	-0.011043283
190	0x3d82fd18	0.0639593
191	0x80001b6d	-9.839e-42
192	0xbe788990	-0.24271226
193	0x3d471f67	0.048613932
194	0x3e7b9d42	0.24571708
195	0xbe3b4741	-0.182889
196	0x3db04180	0.08606243
197	0xbd9b595b	-0.075854026
198	0xbcf88615	-0.030337373
199	0xbdb2a6b2	-0.08723201
200	0x3e970213	0.2949377
201	0x3e27e8d2	0.16397408
202	0x3c24bd3d	0.010054884
203	0x3e7a85a3	0.24465041
204	0x3e693f97	0.22778164
205	0x000021b3	1.2089e-41
206	0xbdc973b7	-0.09836524
207	0x3d82579e	0.06364368
208	0xbe228dbb	-0.15874378
209	0x3e54be61	0.20775749
210	0xbd895ea9	-0.06707508
211	0x3e1019b4	0.14072305
212	0xbe086eef	-0.13323568
213	0xbe048a27	-0.12943326
214	0x3dec6d28	0.115442574
215	0x3db7e30c	0.08978853
216	0x3b6a2219	0.003572589
217	0xbe98bf1e	-0.2983331
218	0x3daaf84f	0.08348142
219	0x80001b61	-9.822e-42
220	0xbe45355e	-0.19258639
221	0x3e4c8c5b	0.19975416
222	0x3da6c461	0.08142925
223	0x3e7dd317	0.24787556
224	0xbe595a5e	-0.21225879
225	0x3e0271a6	0.12738666
226	0x3e980888	0.2969401
227	0x3e056617	0.13027225
228	0xbe5353d4	-0.20637447
229	0xbd0114e4	-0.031514063
230	0xbd26a6cb	-0.04068641
231	0xbe612f0b	-0.21990602
232	0x3cce3376	0.025171023
233	0x00001bbb	9.948e-42
234	0xbce194b5	-0.02753673
235	0x3de3e8df	0.11128401
236	0x3da4d19d	0.08047793
237	0xbe1a57c3	-0.15072541
238	0x3e3b2e02	0.1827927
239	0x80001b64	-9.826e-42
240	0x00001b84	9.871e-42
241	0x00001b98	9.899e-42
242	0x80001b7e	-9.862e-42
243	0x00001ba0	9.91e-42
244	0x00001b5f	9.819e-42
245	0x00001b79	9.855e-42
246	0x00001b9f	9.909e-42
247	0x80001b5c	-9.815e-42
248	0x3b6d584e	0.0036215964
249	0xbe15a4a9	-0.14613594
250	0x3c2efbc7	0.010680146
251	0xbda5c31c	-0.08093855
252	0x3e748784	0.2387982
253	0xbe2b2413	-0.1671298
254	0xbe6f471e	-0.23366973
255	0x3d67e416	0.056614004

conv2.lin_rel.weight f4 [120, 120]
0	0x3d99c644	0.07508519
1	0x3d883fe8	0.06652814
2	0x3d10e8ad	0.035378147
3	0x3c793154	0.015209515
4	0xbd331c5d	-0.04372822
5	0xbe0b7603	-0.13619237
6	0xbcff0a8b	-0.031132957
7	0x3e1c4e94	0.1526435
8	0xbdca1b53	-0.09868493
9	0xbdf37fcd	-0.118896104
10	0xbd8f3f55	-0.069945015
11	0x3e41ce13	0.18926267
12	0x3d933252	0.07187332
13	0xbd9888aa	-0.074479416
14	0x3daab36a	0.08335002
15	0xbd450e72	-0.04810948
16	0x3d852dc5	0.065028705
17	0xbd2aab9b	-0.041667562
18	0xbd703383	-0.058642875
19	0x3d63615d	0.055512775
20	0x3cbc4d0b	0.022985956
21	0x3ddf8a2b	0.10915025
22	0xbdcc01dd	-0.09961293
23	0x3e08cd54	0.13359576
24	0xbdfc38ee	-0.12315546
25	0x3d5d6ca1	0.054058675
26	0x3d8981ca	0.067142084
27	0x3d221f97	0.039580908
28	0x3dcb98ba	0.0994124
29	0xbe34b676	-0.17647728
30	0x3dae5f46	0.08514266
31	0xbdc35231	-0.09537161
32	0xbd2f0869	-0.04273263
33	0x3d1faaea	0.038981356
34	0xbdd36f61	-0.10323978
35	0xbdae32b0	-0.085057616
36	0x3d8ca558	0.06867474
37	0xbd7ec3bb	-0.062198382
38	0xbd21d8d0	-0.03951341
39	0x3daa62b3	0.08319607
40	0x3dd80a8e	0.10548888
41	0x3d3f3806	0.046684287
42	0xbd3a3777	-0.04546305
43	0x3e088ac5	0.13334186
44	0xbcdaf7bc	-0.026729457
45	0x3c1a5a7f	0.00942099
46	0x3d381a31	0.044946853
47	0x3dc3a1e4	0.095523626
48	0xbdfdc9eb	-0.123920284
49	0x3df02157	0.11725109
50	0xbb566f9f	-0.003272034
51	0x06383e09	3.465213e-35
52	0xbd8dc6b0	-0.06922662
53	0xb86778bd	-5.5187138e-05
54	0xbd5f30fe	-0.054490082
55	0xbcd4c79c	-0.025974087
56	0xbcc3f1eb	-0.023919066
57	0xbd728449	-0.05920819
58	0x3d75d060	0.060013175
59	0x3d1f35b4	0.038869575
60	0xbda689c5	-0.08131746
61	0x3d6fd059	0.058548305
62	0xbc01cca8	-0.007922329
63	0xbcf99b6d	-0.03046962
64	0x3ddb56fa	0.10709949
65	0xbd6b002f	-0.057373222
66	0x2530347b	1.5283348e-16
67	0xbd8c74fa	-0.06858249
68	0x3d3c5aa0	0.045984864
69	0x3d4e0a0a	0.050302543
70	0x3c8bd1c4	0.017067797
71	0x3d036549	0.032079015
72	0xbbdd14f6	-0.0067468835
73	0x3d347a6d	0.044062067
74	0x3cb4c65f	0.022067247
75	0xbb04c6f5	-0.002026019
76	0x3cae08a9	0.021244364
77	0xbdd3db7e	-0.10344599
78	0xbd448e00	-0.047986984
79	0xbcd2ac2c	-0.025716864
80	0x3d805e6f	0.06268012
81	0xbd0c82c8	-0.03430441
82	0xbdb087e9	-0.08619673
83	0x3ccc483a	0.024936784
84	0xba472176	-0.00075962336
85	0x3c7a25a9	0.015267768
86	0xbe127843	-0.14303689
87	0x3de52fc5	0.11190752
88	0xbd50363a	-0.050832964
89	0x3b10fab9	0.0022122099
90	0xbd3f462a	-0.046697773
91	0x3dd9c620	0.106334925
92	0x3d37bd93	0.044858526
93	0x3d60921e	0.05482685
94	0x3d6f9daa	0.05849997
95	0x3d0a88b3	0.033821773
96	0x3d752ffc	0.059860215
97	0x3cd0975c	0.025462799
98	0x3ca18c38	0.019720182
99	0x3dc80d05	0.09768108
100	0xbcf24f5f	-0.029578863
101	0xbc3960a6	-0.011314547
102	0x3a71c14e	0.0009222225
103	0xbd4672cf	-0.048449334
104	0x3cdf68b0	0.027271599
105	0xbcdbbd61	-0.026823701
106	0xbb2e1b8f	-0.002656672
107	0x3c4cf37c	0.012509223
108	0x3dbf8c1f	0.09352898
109	0x3c9bbfdb	0.019012382
110	0x3d2c7ab2	0.0421092
111	0x3d0dcd94	0.034619883
112	0x3d8ce470	0.068795085
113	0xbd527369	-0.051379595
114	0xbd9816a8	-0.07426196
115	0x3d59e766	0.053199194
116	0xbd3fbf5b	-0.04681335
117	0x3d1ded03	0.03855611
118	0x3cb31c48	0.021864071
119	0x3e6f0392	0.23341206
120	0x3db4631e	0.088079676
121	0x3d2688aa	0.040657677
122	0xbd90a893	-0.07063403
123	0x3bb15d70	0.00541275
124	0xbc3d5133	-0.011555004
125	0xbcb9246c	-0.022600375
126	0x3dc1109c	0.09426996
127	0x3e3c0764	0.18362194
128	0xba63bcd9	-0.0008687503
129	0xbc6cd4a9	-0.014454999
130	0xbe56604e	-0.20935175
131	0x3e80b26e	0.2513613
132	0x3e0de869	0.13858189
133	0xbdd097e5	-0.101852216
134	0x3db36ca2	0.087609544
135	0x3d93847f	0.07203006
136	0x3c196f5d	0.00936493
137	0xbe39bbab	-0.18137996
138	0x3c2874ef	0.010281785
139	0x3dc46601	0.09589768
140	0x3cc93f61	0.024566354
141	0x3a74e5e0	0.00093421154
142	0x3c021f4a	0.00794203
143	0x3e2c1957	0.16806541
144	0xbd13d5d4	-0.036092594
145	0xbd84fb80	-0.06493282
146	0x3c970602	0.018435482
147	0x3d1b183c	0.03786491
148	0x3d5829a6	0.052774094
149	0xbe371a61	-0.17881157
150	0x3d0f035c	0.034915313
151	0x3c163f0e	0.009170307
152	0x3d14bb08	0.03631118
153	0x3d194dd9	0.037427757
154	0xbcad124a	-0.021126885
155	0xbca12044	-0.019668706
156	0x3e2c2e72	0.16814592
157	0x3ca1e538	0.01976262
158	0xbd7a8aa2	-0.061167367
159	0x3d256f12	0.040389128
160	0xbd8c21f4	-0.068424135
161	0x3e17f5a9	0.14839806
162	0x3d9e6e2e	0.07735859
163	0x3c9ebe9a	0.019377995
164	0x3cae8763	0.021304792
165	0x3cd6fcd4	0.026243605
166	0x3d64cab8	0.05585739
167	0x3d652b91	0.05594975
168	0xbe03e1b6	-0.1287907
169	0x3e000f76	0.12505898
170	0x3da40420	0.08008599
171	0x251b4bcf	1.3469792e-16
172	0x3c5253c9	0.012837359
173	0xb8e3df3d	-0.00010865785
174	0xbd5fbee1	-0.054625396
175	0x3da65435	0.0812153
176	0xbd0368b5	-0.03208228
177	0x3d4fd296	0.05073794
178	0xbc277386	-0.010220414
179	0x3dbe3ee6	0.09289341
180	0xbd8f8cfd	-0.07009313
181	0x3b8afb54	0.0042413864
182	0xbd933dc3	-0.071895145
183	0xbc9db564	-0.019251533
184	0x3dfb8347	0.122808985
185	0x3dacc74d	0.08436451
186	0xb4312a97	-1.6499904e-07
187	0xbdba4d8e	-0.09096824
188	0x3e21f458	0.15815866
189	0x3d34d3ab	0.044147175
190	0x3c8853d1	0.01664153
191	0xbd93f34f	-0.07224142
192	0xbd1c49e3	-0.0381564
193	0x3bd640d8	0.0065384917
194	0xbd8d91d4	-0.0691258
195	0xba85edd2	-0.0010217971
196	0x3dc0ce35	0.09414331
197	0x3c6ca3b6	0.014443329
198	0xbd2a9fa6	-0.04165616
199	0xbd7adc3c	-0.061245188
200	0xbd4d00dd	-0.05004965
201	0x3ba31feb	0.00497817
202	0xbd6468f9	-0.055764172
203	0xbcb5d43e	-0.022195932
204	0xba9c9293	-0.0011945538
205	0xba32eaf2	-0.0006825171
206	0xbe108f93	-0.14117269
207	0x3e033d8c	0.12816447
208	0xbd9ec291	-0.07751954
209	0x3b0dc9b9	0.0021635129
210	0xbdb42505	-0.087961234
211	0x3df7bae0	0.120961905
212	0xbd7baa6d	-0.061441828
213	0x3d063400	0.032764435
214	0xbd5ceb40	-0.05393529
215	0xbd3f819f	-0.046754476
216	0xbc70fe5d	-0.014709082
217	0xbd9eb853	-0.07750001
218	0x3d9917ae	0.0747522
219	0xbd889cc9	-0.066705294
220	0x3d330328	0.043704182
221	0x3d20b949	0.0392392
222	0x3d9c3335	0.076269545
223	0xbcbe5120	-0.023232043
224	0x3dbd6760	0.09248233
225	0x3d329076	0.0435948
226	0xbda06f13	-0.07833686
227	0x3da3a113	0.07989707
228	0xbc96266d	-0.01832887
229	0xbe13b01d	-0.1442265
230	0x3cd7dbe7	0.026349975
231	0x3d10ba7f	0.035334107
232	0xbc1d8184	-0.009613398
233	0x3dc03967	0.09385949
234	0x3d1e51bb	0.038652163
235	0x3cc02724	0.023456164
236	0xbd21b6dd	-0.039481033
237	0xbd14c856	-0.036323868
238	0x3e2e8e20	0.17046404
239	0x3e6db4b0	0.23213458
240	0xb381b754	-6.040378e-08
241	0x9892c35f	-3.793739e-24
242	0x847767b8	-2.9082336e-36
243	0x80001bb0	-9.932e-42
244	0x00001b71	9.844e-42
245	0x00001c69	1.0192e-41
246	0x00001b90	9.888e-42
247	0x00001c80	1.0224e-41
248	0xb23d05a4	-1.100253e-08
249	0x00001b82	9.868e-42
250	0x80001c23	-1.0094e-41
251	0x80001b97	-9.897e-42
252	0x94ba715c	-1.8825913e-26
253	0xa81cd617	-8.706163e-15
254	0xae38454c	-4.1898304e-11
255	0xb5e8aa55	-1.733492e-06

conv2.lin_rel.bias f4 [120]
0	0xbdaa4df8	-0.083156526
1	0x3da6a043	0.08136036
2	0xb363176f	-5.287387e-08
3	0x3d917adc	0.07103512
4	0x3d4eebb3	0.05051775
5	0xbcee27ee	-0.029071774
6	0x3daf9467	0.085732274
7	0x3ca4ae55	0.02010266
8	0x3d9d41d0	0.07678568
9	0x3d70bb6b	0.058772486
10	0x3daef987	0.08543687
11	0xbc3e4862	-0.011613937
12	0x3d3ae15c	0.045625076
13	0x00001b60	9.82e-42
14	0xbc74b7bb	-0.014936383
15	0x3c349480	0.011021733
16	0x3c71fda6	0.014769947
17	0xbcafbb73	-0.021451687
18	0x3c5021a9	0.012703338
19	0xbc96d991	-0.01841429
20	0x3c1f1f44	0.009712044
21	0x3cc7d7ce	0.024394896
22	0xbd0af4db	-0.03392492
23	0x3d0bd68a	0.034140147
24	0xa460ad8c	-4.8719257e-17
25	0x3d2c0910	0.04200083
26	0x3c0f2a63	0.008738133
27	0x3d069b19	0.032862756
28	0xbb123e38	-0.0022314917
29	0x3de44555	0.111460365
30	0x3c0f0563	0.008729312
31	0x3d543b65	0.051814456
32	0x9a2101dd	-3.3295525e-23
33	0xbcca8010	-0.024719268
34	0xbce84159	-0.028351473
35	0xbcb5795f	-0.0221526
36	0x3d3575e0	0.044301867
37	0xbd3c5613	-0.045980524
38	0xbd139643	-0.036031973
39	0xbd900cc8	-0.07033688
40	0x3da467d5	0.08027617
41	0x3d780d3e	0.060559504
42	0x3da291ba	0.079379514
43	0x3daa9a1a	0.08330174
44	0x3c4ff4b4	0.012692619
45	0x3dbbb611	0.09165586
46	0xbd852431	-0.065010436
47	0x3d921762	0.07133366
48	0x3d7dc031	0.061950866
49	0x3d5cd992	0.05391843
50	0xba664f70	-0.0008785641
51	0xbd3315c0	-0.043721914
52	0xbca0508a	-0.019569654
53	0xbd4404df	-0.047856208
54	0x3da3ebcd	0.0800396
55	0xbd4986dc	-0.049200878
56	0xbd93db11	-0.07219518
57	0x3da1ea23	0.07905986
58	0xbc346535	-0.011010458
59	0x3dcfc653	0.10145249
60	0x3d00f53f	0.031483885
61	0xb5e8b52c	-1.7338075e-06
62	0x3bf1a935	0.0073749074
63	0xb48febfb	-2.6807524e-07
64	0xbd818554	-0.063242584
65	0x3da3c7e7	0.07997113
66	0xbd5c7685	-0.053823967
67	0x3dacf7b9	0.08445687
68	0xbc6c582a	-0.014425317
69	0xbd9fb53e	-0.07798241
70	0xbcccb9d1	-0.024990948
71	0x3da8be11	0.08239377
72	0xbd6d1736	-0.057883464
73	0xbc6b92ed	-0.014378292
74	0xb4ee955c	-4.4439628e-07
75	0x3d90e738	0.070753515
76	0x3bc64051	0.0060501476
77	0xbd511060	-0.051041007
78	0xbd5c8e64	-0.05384673
79	0x3d59c0c8	0.053162366
80	0x3d905e29	0.070492096
81	0xbd391585	-0.04518654
82	0xa626ebd2	-5.7912416e-16
83	0xbda74870	-0.08168113
84	0xa98fbf7e	-6.383694e-14
85	0xbcd57b6c	-0.026059829
86	0xbcfe8a57	-0.031071825
87	0x3d1bef76	0.038070165
88	0xa6b0bd14	-1.2263703e-15
89	0x3d8475f5	0.06467811
90	0xbc8fa425	-0.017534325
91	0x3d3bb64f	0.04582816
92	0x3d814726	0.063123986
93	0xbdadaad8	-0.084798515
94	0x3da5192c	0.08061442
95	0x3c54f2e6	0.012997365
96	0xba000c60	-0.00048846565
97	0xbd7b2fb2	-0.061324783
98	0xbdb1e1d5	-0.08685652
99	0x3dc5f46d	0.09665761
100	0xba91d502	-0.0011126103
101	0xba2df93c	-0.0006636565
102	0x3d96313c	0.073336095
103	0xbdb45ed2	-0.08807148
104	0xbd8f4b5a	-0.06996794
105	0xbd1a32ac	-0.03764598
106	0x3d06fbfd	0.03295516
107	0x3c79a89c	0.0152379535
108	0x3d88d858	0.06681889
109	0x3d4b3a02	0.049615867
110	0xbd7c92fa	-0.061663605
111	0x3c9a0097	0.01879911
112	0x3dd52e46	0.104092166
113	0xbd322c9e	-0.04349958
114	0x3b99e108	0.0046960153
115	0x3c9d4f1e	0.019202765
116	0x3c24f476	0.01006805
117	0x333fc4a5	4.46495e-08
118	0xb9f09e33	-0.00045894235
119	0xbc0152bc	-0.007893261

conv2.lin_root.weight f4 [120, 120]
0	0xbc86b278	-0.016442522
1	0x3d8bb8ed	0.06822381
2	0xbb10f128	-0.0022116397
3	0x399a0839	0.00029379295
4	0xbbca73ee	-0.0061783707
5	0xbd840859	-0.06446905
6	0x3e136d64	0.14397198
7	0x3e071353	0.13190965
8	0xbd2cf7c6	-0.042228483
9	0xbc014a53	-0.007891255
10	0xbdc31be1	-0.09526802
11	0x3e51029e	0.20411155
12	0x3cbf7cef	0.023375003
13	0xbc1f9d9e	-0.009742169
14	0x3d909b7a	0.07060905
15	0x3d878a80	0.06618214
16	0x3d591bd8	0.05300507
17	0xbe4bf522	-0.1991773
18	0x3d0de314	0.034640387
19	0xbb327b35	-0.0027234082
20	0x3df01d2d	0.11724315
21	0x3db32899	0.08747978
22	0x3dad164d	0.08451519
23	0x3bd22b33	0.006413841
24	0xbe4f7afa	-0.20261756
25	0x3d0c3738	0.03423235
26	0xbd6843bc	-0.05670522
27	0x3e31566a	0.1731812
28	0x3da49b0f	0.080373876
29	0xbc50e012	-0.012748735
30	0xbd0f2924	-0.034951344
31	0xbcc7abe9	-0.024373965
32	0xbd0b7cc7	-0.034054544
33	0x3d4c3d58	0.04986319
34	0xbdcdad27	-0.10042792
35	0xbddd74a7	-0.10813265
36	0x3dcdf375	0.10056201
37	0x3d138b4a	0.03602151
38	0xbd8c1399	-0.068396755
39	0x3d02ad1d	0.031903375
40	0xbd0d31cd	-0.03447132
41	0x3d9dd912	0.077074185
42	0x3d5cc37c	0.053897366
43	0x3da89118	0.082307994
44	0x3d00df9d	0.031463254
45	0xbd6ddb55	-0.0580705
46	0xbc5a1d60	-0.013312668
47	0x3da02efb	0.07821461
48	0xbe798fa0	-0.24371195
49	0x3e1eb518	0.1549877
50	0xbd5f7cc6	-0.054562353
51	0x00001b9d	9.906e-42
52	0x3ba9cf20	0.005182162
53	0xb8679321	-5.5211716e-05
54	0x3d3ba62f	0.045812782
55	0x3d860aa7	0.065450005
56	0xbb1ebcee	-0.0024221498
57	0x3d8959f2	0.06706609
58	0x3d99abcf	0.07503473
59	0xbd80c34e	-0.062872514
60	0xbcd26fea	-0.02568813
61	0x3d83f2a5	0.06442765
62	0xbc8a1bb1	-0.016858907
63	0xbccb46d3	-0.024814045
64	0xbc19cded	-0.009387475
65	0xbc44a4de	-0.012002198
66	0x94c44e0f	-1.9821731e-26
67	0x3d160793	0.036628317
68	0x3e022117	0.12707935
69	0x3d8548d9	0.06508035
70	0xbd5625f7	-0.0522823
71	0xbd614651	-0.0549987
72	0x3d0c5eb9	0.034270022
73	0xbce13174	-0.027489401
74	0x3d23ba70	0.039972723
75	0xbabd02ca	-0.0014420387
76	0x3de9cae7	0.11415654
77	0xbd59416b	-0.053040903
78	0xbdbbd1ff	-0.09170913
79	0x3cf9632b	0.030442795
80	0x3d6d36fa	0.057913758
81	0x3ce51639	0.027964698
82	0xbdd61808	-0.10453802
83	0x3cef6813	0.029224431
84	0xb995b7bc	-0.00028556387
85	0xbdb4a336	-0.088201925
86	0xbe340f76	-0.17584023
87	0x3cbff73f	0.023433326
88	0x3d373c75	0.04473539
89	0x3a9c9406	0.001194597
90	0xbc4b8055	-0.012420733
91	0xbd1df311	-0.038561884
92	0x3dc5f58b	0.09665974
93	0x3da256f2	0.0792674
94	0xbd2b9458	-0.04188952
95	0xbc4e11a8	-0.012577452
96	0xbd1b9482	-0.037983425
97	0xbc300431	-0.010743187
98	0x3dc69f9d	0.096984126
99	0xbd49724e	-0.049181275
100	0xbd6f6b10	-0.058451712
101	0xbd0983f6	-0.033573113
102	0x3da08361	0.078375585
103	0x3d6aad96	0.05729445
104	0x3d880225	0.06641034
105	0xbd213202	-0.03935433
106	0x3d99cb37	0.07509463
107	0x3927dd96	0.00016008908
108	0x3d8aa25c	0.06769249
109	0x3d2238a1	0.039604787
110	0x3c013d9d	0.007888225
111	0x3de09e85	0.10967735
112	0x3d205265	0.039141078
113	0xbbcd369a	-0.0062626125
114	0x3d78f23d	0.06077789
115	0x3d8ce8ea	0.06880362
116	0x3d15b150	0.03654605
117	0xbda3d36d	-0.07999311
118	0x3e02b8b9	0.12765779
119	0x3e5cd264	0.21564633
120	0x3d620f45	0.055190343
121	0x3d33181c	0.043724164
122	0xbdaad345	-0.08341078
123	0xbbd55247	-0.0065100524
124	0xbcb5f29f	-0.022210417
125	0xbdbcc32d	-0.09216914
126	0x3c46afeb	0.012126903
127	0x3e1dfaf2	0.1542776
128	0x3d0c9318	0.034319967
129	0xbd35cb81	-0.04438353
130	0xbe481d21	-0.19542362
131	0x3ea888a3	0.32916746
132	0xbc8127f7	-0.015766127
133	0xbdbf65c3	-0.093455814
134	0x3d2ed707	0.042685535
135	0xbc872c99	-0.016500758
136	0x3d0b5a05	0.034021396
137	0xbe42bff8	-0.19018543
138	0x3d9b1218	0.075718105
139	0x3de6bfe3	0.11267068
140	0x3e37f7fd	0.17965694
141	0x3d8b9c64	0.068169385
142	0x3d673515	0.056447107
143	0x3d827133	0.06369247
144	0xbdd361b7	-0.10321372
145	0x3dae215c	0.085024565
146	0xbd1d6a2d	-0.038431335
147	0x3e25ffa3	0.16210799
148	0x3df18987	0.117938094
149	0xbddd72aa	-0.10812886
150	0x3c508c96	0.012728831
151	0x3dc8f55d	0.09812424
152	0x3d618df2	0.05506701
153	0x3d4af446	0.049549364
154	0xbdd8e274	-0.105900675
155	0xbdf60157	-0.12011974
156	0x3d7aa013	0.061187815
157	0xbd88c98f	-0.06679069
158	0xbd662165	-0.05618419
159	0xbd887e4e	-0.06664716
160	0x3c32548e	0.010884417
161	0x3cd1880a	0.025577564
162	0x3b3c78b3	0.0028758466
163	0x3bfb93dc	0.0076775383
164	0x3cbf3878	0.023342356
165	0x3da66b8d	0.081259824
166	0x3d6d2aee	0.05790227
167	0x3d90181a	0.07035847
168	0xbe3102d9	-0.17286243
169	0x3de19185	0.11014084
170	0x3ce50112	0.027954612
171	0x81984916	-5.5940855e-38
172	0xbd84fe8e	-0.06493865
173	0xb8d83322	-0.00010309207
174	0x3d65249c	0.055943117
175	0x3d6cfc03	0.057857525
176	0xbd9a0e7f	-0.07522296
177	0x3d346e93	0.044050764
178	0xbd9a341b	-0.075294696
179	0x3d1cb0ff	0.038254734
180	0x3dab5520	0.08365846
181	0xbca3c4d3	-0.019991314
182	0xbd1206ef	-0.035651144
183	0xbced9cae	-0.029005375
184	0x3d731170	0.0593428
185	0x3daa2077	0.083069734
186	0xab6752a8	-8.2182395e-13
187	0x3c726c44	0.01479632
188	0x3e2eda4e	0.17075464
189	0xbd12d635	-0.035848815
190	0x3c0c7e0f	0.008574977
191	0x3c5520ca	0.013008306
192	0xbd8dc229	-0.06921799
193	0x3dcf2bd3	0.10115781
194	0xbdadabb8	-0.084800184
195	0xba8af065	-0.0010600208
196	0x3dc35804	0.09538272
197	0xbda79b86	-0.081839606
198	0xbd474ef5	-0.048659284
199	0xbd32a846	-0.04361751
200	0xbd462781	-0.048377518
201	0xbd8f4abb	-0.069966756
202	0xbd710675	-0.05884405
203	0xbad710ff	-0.0016408263
204	0xba2ead58	-0.00066634035
205	0xbae716eb	-0.0017630731
206	0xbdbf9fec	-0.093566746
207	0xbd0d79ef	-0.034540113
208	0xbcd53f60	-0.026031196
209	0x3ab9ae18	0.0014166264
210	0xbdd6e5d0	-0.10493052
211	0x3d648c7e	0.055798046
212	0x3d3b17fe	0.045677178
213	0x3c3abb2d	0.011397165
214	0xbd908a14	-0.07057586
215	0x3da28e45	0.07937292
216	0x3d9b7e0a	0.075923994
217	0xbd11c60b	-0.03558926
218	0x3da3d886	0.08000283
219	0xbbb0c5d5	-0.005394677
220	0xbd0862e3	-0.03329743
221	0x3d5fbdd9	0.054624412
222	0x3d925233	0.071445845
223	0xbd22c19b	-0.039735418
224	0xbd3c4b46	-0.045970224
225	0x3da2426f	0.079228275
226	0xbd7e9f1c	-0.062163457
227	0xbd97281e	-0.073806986
228	0x3dffae52	0.12484421
229	0x3d2b1f6a	0.041778006
230	0x3c45891f	0.012056618
231	0x3d3c67fd	0.04599761
232	0x3d32f435	0.043689925
233	0x3d87bff1	0.06628407
234	0xbdad3dec	-0.08459076
235	0x3ccb0317	0.024781747
236	0x3d88f513	0.06687369
237	0x3d636eb3	0.055525493
238	0x3d4528da	0.048134662
239	0x3e7ebb6f	0.24876188
240	0xa898872e	-1.6934015e-14
241	0x80001b67	-9.83e-42
242	0x00001b7f	9.864e-42
243	0x00001b95	9.895e-42
244	0x00001b8f	9.886e-42
245	0x00001e6e	1.0916e-41
246	0x00001c2a	1.0103e-41
247	0x00001dc4	1.0678e-41
248	0xa62c2099	-5.9718666e-16
249	0x00001bad	9.928e-42
250	0x00001c8c	1.024e-41
251	0x80001b9b	-9.903e-42
252	0x80001b91	-9.889e-42
253	0x0934c555	2.1759497e-33
254	0x9d4e89a2	-2.7335027e-21
255	0xaf293ae2	-1.539138e-10

conv3.lin_rel.weight f4 [120, 120]
0	0xbd1caac2	-0.038248785
1	0x3d5d8b2c	0.054087803
2	0x1322c768	2.054559e-27
3	0x3d21e208	0.0395222
4	0x3d897d37	0.06713336
5	0xbe171284	-0.14753157
6	0x3e457b02	0.19285205
7	0xbcd820fe	-0.02638292
8	0xbd0665fe	-0.03281211
9	0xbca114e3	-0.01966328
10	0x3ce23950	0.02761522
11	0x3d678fd6	0.056533657
12	0xbd90a36e	-0.07062422
13	0x00001b5e	9.817e-42
14	0xbd84c4f3	-0.064828776
15	0xbd501dc2	-0.05080963
16	0x3db6d473	0.0892724
17	0xbd950e6b	-0.07278141
18	0x3dae284f	0.08503782
19	0x3d26d663	0.0407318
20	0x3da39287	0.07986932
21	0x3dd64d8b	0.10464009
22	0xbd6e27af	-0.058143314
23	0x3d8b403b	0.0679936
24	0x24a850fa	7.2995566e-17
25	0xbd3ca432	-0.046055026
26	0x3cdabfa1	0.026702704
27	0x3b55706f	0.0032568236
28	0xbaf5f68f	-0.0018765497
29	0xbe6dae25	-0.23210962
30	0xbd5d5a74	-0.05404134
31	0xbc533fea	-0.012893656
32	0x00001f3d	1.1206e-41
33	0x3ce290c6	0.027656924
34	0x3cf35c88	0.029707208
35	0xbc90adb9	-0.017660962
36	0x3d72b83b	0.059257727
37	0xbd7795bf	-0.060445543
38	0xbbb7c1f8	-0.0056078397
39	0xbb764557	-0.003757795
40	0x3e091e8a	0.13390556
41	0xbc532564	-0.012887333
42	0xbd1f0371	-0.03882164
43	0xbd80768c	-0.06272611
44	0xbd727fe5	-0.059204
45	0x3dab4883	0.0836344
46	0x3d9fd530	0.07804334
47	0xbc9bba27	-0.019009663
48	0xbd463b9e	-0.0483967
49	0xbd2e2729	-0.042517815
50	0x9bc7aba6	-3.3032714e-22
51	0x3d2e1d60	0.042508483
52	0xbd1289db	-0.035776
53	0xbbc6febc	-0.006072847
54	0xbdf8a4a1	-0.121407755
55	0x3de01a79	0.10942549
56	0x3d645155	0.055741627
57	0x3c502de7	0.0127062565
58	0x3d4bef49	0.049788747
59	0x3dc3a803	0.0955353
60	0x3dbacfcc	0.09121665
61	0x38a9b129	8.0915466e-05
62	0x3db5a276	0.088688776
63	0x80001be1	-1.0001e-41
64	0xbd886d9f	-0.066615336
65	0x3d96bbbf	0.073600285
66	0x3d866e9b	0.06564065
67	0x3d8b427d	0.06799791
68	0x3dd0559c	0.10172579
69	0x3c987d57	0.018614454
70	0x3d5e2e57	0.054243412
71	0x3d0f4555	0.03497823
72	0xbcfd1fc2	-0.030898932
73	0x3db2fc2d	0.08739505
74	0x34de64bf	4.1424025e-07
75	0x3d9298bc	0.07158038
76	0x3d01bce7	0.031674292
77	0x3bcb0984	0.0061962027
78	0x3d82f692	0.06394686
79	0x3daba427	0.08380919
80	0xbcb368c8	-0.02190055
81	0xbe868b77	-0.26278278
82	0x8bd3d170	-8.158937e-32
83	0x3df6f492	0.12058367
84	0x3022158a	5.8965866e-10
85	0x3d8b2d94	0.06795803
86	0x3d3453a1	0.044025067
87	0x3daa4664	0.08314207
88	0x08c49a65	1.1832619e-33
89	0x3d4a0bae	0.049327545
90	0xbcf2763b	-0.029597392
91	0xb99d4275	-0.00029994888
92	0x3d10e928	0.035378605
93	0x3d2f4a51	0.042795483
94	0x3da7ff1a	0.08202954
95	0xbbeb70cf	-0.0071850787
96	0x38b09410	8.419913e-05
97	0xbda3ebbc	-0.08003947
98	0xbd24005d	-0.04003941
99	0x3d9393ff	0.072059624
100	0xba714831	-0.0009204178
101	0x371f408e	9.492169e-06
102	0x3d69ead9	0.057108734
103	0x3d6eaa29	0.058267746
104	0x3de1327b	0.109959565
105	0xbd1a8591	-0.037725035
106	0x3db7716f	0.089571826
107	0xbcb326fd	-0.021869177
108	0xbe002e6e	-0.12517712
109	0xbd9a9569	-0.07548029
110	0xbe549641	-0.20760442
111	0xbe76e7bb	-0.24111836
112	0x3dc64ded	0.09682832
113	0xbd4138d3	-0.047173332
114	0x3db8931b	0.09012433
115	0x3dcebaf8	0.10094255
116	0x3da40229	0.080082245
117	0xb0055ff5	-4.852148e-10
118	0x3d7c29a7	0.06156316
119	0xbcf8887c	-0.030338518
120	0x3daa309d	0.083100535
121	0x3d6dc037	0.05804464
122	0x00001b7b	9.858e-42
123	0x3d1b94b8	0.037983626
124	0x3df2adb1	0.11849535
125	0xbe28f153	-0.16498308
126	0x3e644244	0.22290903
127	0x3c625ec8	0.013816543
128	0x3dcb74e1	0.09934402
129	0x3d0cc4ac	0.03436725
130	0x3da6310d	0.081148244
131	0x3cb58a6e	0.022160735
132	0xbd37bad3	-0.044855904
133	0x00001bac	9.927e-42
134	0x3cca3ca2	0.024687115
135	0xbc8c0983	-0.01709438
136	0x3bc25028	0.0059299655
137	0xbc87d11d	-0.016579205
138	0xbbd4521c	-0.0064795148
139	0x3d6da7a9	0.05802122
140	0x3d82124b	0.06351145
141	0x3e1b826f	0.15186475
142	0xbdafb3bf	-0.08579206
143	0xbc9ef557	-0.019404097
144	0x80001b71	-9.844e-42
145	0x3c832fd9	0.016014026
146	0x3dbab73b	0.0911698
147	0xbd907a2d	-0.07054553
148	0xba721fe6	-0.00092363206
149	0xbe306471	-0.17225815
150	0x3d041d95	0.032254774
151	0x3c17ce74	0.009265531
152	0x80001b81	-9.867e-42
153	0x3ded083b	0.115738355
154	0xbca414ab	-0.020029387
155	0x3d5e531b	0.054278474
156	0x3bc77725	0.006087201
157	0x3db7577f	0.089522354
158	0x3d9939d8	0.07481736
159	0x3da8c157	0.08240002
160	0x3dc09cd6	0.09404914
161	0xbce1aa56	-0.027547043
162	0xbd054cff	-0.032544132
163	0xbd3f9ad9	-0.046778534
164	0x3de45e40	0.11150789
165	0xbc365b7a	-0.011130208
166	0x3dcd402e	0.10022007
167	0xbca0def2	-0.019637559
168	0x3dccc935	0.09999315
169	0xbbd81108	-0.006593827
170	0x303213af	6.4783995e-10
171	0x3d830d9b	0.063990794
172	0xbce2926e	-0.027657714
173	0x3cfafe01	0.030638697
174	0xbe16525c	-0.14679855
175	0x3e02ba81	0.12766458
176	0x3d8d27d9	0.06892366
177	0x3e055242	0.1301966
178	0x3da68ccd	0.08132324
179	0x3de61930	0.11235273
180	0x399501e6	0.0002842091
181	0x33e0fdbf	1.0476969e-07
182	0x3d940322	0.0722716
183	0x80001b6a	-9.834e-42
184	0x3cc4e60a	0.024035472
185	0xbd33a89a	-0.043861963
186	0x3c9947c2	0.018710975
187	0xbd2c032c	-0.041995212
188	0x3d8a8f29	0.06765587
189	0x3d27bfd4	0.040954426
190	0x3d6dd5c7	0.058065202
191	0x3db27054	0.08712831
192	0x3d720ca9	0.059094105
193	0x3dedf6ec	0.11619362
194	0xb34777e3	-4.6442334e-08
195	0x3c2edda4	0.01067296
196	0x3dbc28c7	0.09187465
197	0x3b8b6e9b	0.0042551286
198	0x3d137de9	0.03600875
199	0x3d8a7426	0.06760435
200	0xbcac9617	-0.021067662
201	0xbe8933c8	-0.26797318
202	0x088e77a5	8.574442e-34
203	0x3ca4dc1f	0.020124493
204	0x240aec85	3.012432e-17
205	0x3cd6ca7a	0.026219595
206	0x3e0c5f2d	0.13708182
207	0x3be6f4f6	0.0070482446
208	0x2e8fc4c3	6.537839e-11
209	0x3b9a7396	0.004713486
210	0x3d01aa23	0.031656396
211	0x3d82a6cb	0.063794695
212	0x3c91b040	0.017784238
213	0x3daee73c	0.08540198
214	0x3bbe7d48	0.0058132745
215	0x3d11ba35	0.03557797
216	0xb79ff40c	-1.906792e-05
217	0xbd7bc075	-0.06146284
218	0x3d9771b3	0.07394733
219	0x3dd57227	0.104221635
220	0xbaeb529a	-0.0017953694
221	0x36304d31	2.6270975e-06
222	0xbd0e2537	-0.03470346
223	0x3bf54712	0.007485279
224	0x3dea58ce	0.114427194
225	0x3d24e509	0.040257487
226	0x3de44e40	0.111477375
227	0x3c399c5b	0.011328782
228	0xbdb8fa60	-0.0903213
229	0xbe0d3e8f	-0.13793395
230	0xbe826a6e	-0.25471824
231	0xbe830ec0	-0.2559719
232	0x3deffef3	0.117185496
233	0xbd6a029c	-0.057131395
234	0xbca9f365	-0.020745942
235	0x3ce6651f	0.02812439
236	0xbd52a781	-0.051429275
237	0x9fc6da67	-8.421758e-20
238	0x3c8224e3	0.01588673
239	0xbcee7358	-0.029107735
240	0x3d3d9348	0.046283036
241	0x3e131c13	0.14366178
242	0x80001b5d	-9.816e-42
243	0x3dc1a66d	0.09455571
244	0xbcd47c7d	-0.025938267
245	0xbe6473c6	-0.22309789
246	0x3e880569	0.26566628
247	0x3dd3dc80	0.103447914
248	0x3dfdc557	0.12391155
249	0xbc64c0ee	-0.013962014
250	0x3dc474e2	0.09592606
251	0x3d666b02	0.056254394
252	0xbc7f17bb	-0.015569623
253	0x00001ba8	9.921e-42
254	0x3baeaee7	0.0053309086
255	0x3dd52387	0.10407167

conv3.lin_rel.bias f4 [120]
0	0x3c285a38	0.010275416
1	0xbc74b395	-0.014935394
2	0xbd145091	-0.036209647
3	0x3d1255e0	0.035726428
4	0x3c37bffe	0.011215208
5	0x3c905ef1	0.017623397
6	0xbda1d002	-0.079010025
7	0xbd1d36e5	-0.03838243
8	0xbc69c6b5	-0.014268567
9	0xbd057360	-0.032580733
10	0x3d621196	0.055192553
11	0xbd571fec	-0.052520677
12	0xbb861e9f	-0.004093006
13	0xbd28357b	-0.041066628
14	0x3c8b61a9	0.017014341
15	0xbd4cec91	-0.050030295
16	0xbd9b3aa3	-0.075795434
17	0xbd150cd2	-0.03638918
18	0x3cde67ac	0.027149044
19	0xbda7d856	-0.0819556
20	0xbcecd3e7	-0.028909637
21	0x3d586eb1	0.05283994
22	0xbca91f0a	-0.020644683
23	0x3d5dc193	0.054139685
24	0xbd9c0daf	-0.076197974
25	0x3da51ede	0.08062528
26	0xbc911e9c	-0.017714791
27	0xbcb245e7	-0.021761848
28	0xbcb486e6	-0.02203698
29	0xbc92759c	-0.017878346
30	0xbcd8e757	-0.026477499
31	0x3db4517d	0.08804605
32	0x3dabe5f7	0.08393472
33	0xbd458f57	-0.048232403
34	0x3cbb242b	0.022844395
35	0x3d7fae59	0.06242213
36	0x3d0a59c4	0.033777013
37	0x3d80b8a1	0.06285215
38	0xbc11bda3	-0.008895311
39	0x3da37198	0.07980651
40	0xbda294ac	-0.07938513
41	0xbc77dba5	-0.015128051
42	0x3d806b8e	0.062705144
43	0x3c7efabb	0.0155627085
44	0x3d69149b	0.056904417
45	0x3d30c7fd	0.043159474
46	0x3d801cfa	0.06255527
47	0xbd22b700	-0.039725304
48	0xbb490c3e	-0.0030677463
49	0xbd96dda2	-0.07366492
50	0x3d85fab4	0.065419585
51	0xbb828e8e	-0.003984279
52	0xbc2fdfa7	-0.010734475
53	0x3d48eabd	0.04905199
54	0xbc9da248	-0.01924242
55	0x3d1b5e04	0.037931457
56	0x3d10193d	0.03518032
57	0x3d1ca3ad	0.03824203
58	0xbd8d1a3f	-0.06889772
59	0xbdac901d	-0.08425925
60	0xbacb34e9	-0.0015503439
61	0xbc67b52b	-0.014142315
62	0xbdc4c1b6	-0.0960726
63	0xbcb0379c	-0.021510892
64	0x3d97e20e	0.074161634
65	0x3d11de2f	0.03561228
66	0x3db10c59	0.08644933
67	0xbdaf57d1	-0.085616715
68	0x3d94c4ce	0.072641
69	0x3c868110	0.016418964
70	0xbcb347d4	-0.021884836
71	0xbcaec79b	-0.021335414
72	0x3d92c523	0.07166507
73	0x3d0cacc8	0.034344465
74	0x3c3c8650	0.011506632
75	0x3db2cc62	0.08730389
76	0x3ce24aed	0.027623618
77	0xbc203261	-0.009777636
78	0xbd8d0a43	-0.06886723
79	0xbd8f4ac4	-0.06996682
80	0xbd9b10b3	-0.075715445
81	0x3d89d28b	0.06729611
82	0x3d13c434	0.036075786
83	0x3ad9b2ff	0.0016609131
84	0x3b04ead2	0.0020281565
85	0x3cecdefc	0.028914921
86	0xbd90d2ca	-0.07071455
87	0x3d6b8a59	0.057504985
88	0xbd79fbe9	-0.061031256
89	0xbc1abad0	-0.009443954
90	0xbd1d524b	-0.03840856
91	0xbda652a3	-0.081212305
92	0x3ccdd703	0.02512694
93	0x3d2f2023	0.042755257
94	0xbd9d5fb4	-0.076842695
95	0x3d38be96	0.045103632
96	0xbd91cfa8	-0.071196854
97	0x3d88b983	0.066760086
98	0x3ca1ecbd	0.019766206
99	0xbc993a96	-0.018704694
100	0xbd9159ac	-0.07097182
101	0x3c4c84df	0.012482851
102	0x3db385c9	0.08765752
103	0x3d21f972	0.03954453
104	0xbcc69a73	-0.024243569
105	0xbd876cda	-0.06612559
106	0x3da3ed4d	0.08004246
107	0xbcbe5cd9	-0.023237633
108	0xbdb0b1c9	-0.0862766
109	0x3dbf40f2	0.09338559
110	0xbb2e0271	-0.0026551748
111	0xbdb1f286	-0.08688836
112	0xbced6d91	-0.02898291
113	0xbd8235d1	-0.06357921
114	0x3cd415b5	0.025889257
115	0xbd538987	-0.05164483
116	0x3d46cb69	0.04853383
117	0xbd0caaed	-0.034342695
118	0x3c94ecae	0.018179264
119	0xbd231cec	-0.039822504

conv3.lin_root.weight f4 [120, 120]
0	0x3d900c7c	0.07033631
1	0x3dd65355	0.10465113
2	0x00001b99	9.9e-42
3	0xba62f029	-0.00086570025
4	0x3dbb1540	0.091349125
5	0xbdee6707	-0.11640745
6	0x3e9325bb	0.28739724
7	0x3ba6b988	0.005088035
8	0x3d4a1b23	0.049342286
9	0x3ce2c46f	0.027681557
10	0x3db2a430	0.087227225
11	0x3d47d58b	0.048787635
12	0xbd4484b5	-0.04797812
13	0x80001bae	-9.93e-42
14	0xbbe58fdf	-0.007005676
15	0x3d11e156	0.035615288
16	0x3da8f687	0.08250146
17	0xbd775554	-0.06038411
18	0x3daa5461	0.08316875
19	0xbd3496f2	-0.044089265
20	0x3da1028b	0.07861813
21	0x3dd09b97	0.101859264
22	0xbd049ff8	-0.03237912
23	0x3d0a5276	0.033770047
24	0x0007e2fd	7.24277e-40
25	0x3c994c20	0.018713057
26	0x3d9271b4	0.071505934
27	0x3d3b2b8a	0.04569582
28	0xba8a9965	-0.001057428
29	0xbe2d3929	-0.16916336
30	0x3d187c48	0.0372279
31	0x3d0e3b56	0.034724556
32	0x80001b96	-9.896e-42
33	0xba405dc5	-0.00073381915
34	0x3d876c8c	0.066125005
35	0x3def0468	0.11670762
36	0x3d8b008b	0.06787213
37	0x3d527317	0.05137929
38	0xbd4098a1	-0.04702056
39	0xbd541b86	-0.05178406
40	0x3dac32c5	0.08408121
41	0x3dcd1f57	0.10015743
42	0x3d89450e	0.06702624
43	0x3d56a0a9	0.05239931
44	0x3d250e76	0.040296994
45	0xbc9b0dfc	-0.018927567
46	0x3d90f5dc	0.07078144
47	0x3dc949a2	0.098284975
48	0x3d1aa1ed	0.03775208
49	0xbcc5936c	-0.024118148
50	0x80001b90	-9.888e-42
51	0xbd58da1c	-0.05294238
52	0xbd5cd88b	-0.05391745
53	0xbba3fab3	-0.005004251
54	0xbc96c20c	-0.018403076
55	0x3da84500	0.08216286
56	0xbd2762d8	-0.04086575
57	0xbbd040b1	-0.006355368
58	0x3c602d58	0.013682686
59	0x3ccfde79	0.025374638
60	0x3da96635	0.082714476
61	0x355bfbf5	8.1950503e-07
62	0x3dc916f5	0.09818832
63	0x800021ae	-1.2082e-41
64	0xbd6646e6	-0.056219958
65	0x3cd0b726	0.025477957
66	0x3dee30ec	0.11630425
67	0xbd1fd93f	-0.03902554
68	0x3e0a6840	0.1351633
69	0xbd2ff5ec	-0.04295914
70	0x3d55d507	0.05220511
71	0x3dcc4c2a	0.09975465
72	0xbcb8c88b	-0.022556564
73	0x3dd5794a	0.10423525
74	0x34e228ca	4.2125458e-07
75	0x3c69173a	0.014226729
76	0x3daae43c	0.083443135
77	0x3cb6186f	0.022228448
78	0xbc936f2f	-0.017997352
79	0x3e020fe6	0.12701377
80	0xbd667801	-0.05626679
81	0xbe878737	-0.26470348
82	0x00001b67	9.83e-42
83	0xbbf29a82	-0.0074036727
84	0x210c6738	4.7570454e-19
85	0xbd728859	-0.059212063
86	0x3d6f01cb	0.05835132
87	0xbcdee01e	-0.027206477
88	0x00001b9d	9.906e-42
89	0x3ca4f1a9	0.020134764
90	0x3dc5535b	0.096350394
91	0x3d624b98	0.055247873
92	0x3d988b82	0.07448484
93	0x3c404e38	0.011737399
94	0x3db4633e	0.088079914
95	0x3e04f5aa	0.12984338
96	0x37d62b4d	2.5530951e-05
97	0xbd4801a9	-0.04882971
98	0xbd33d506	-0.043904327
99	0x3d7eb051	0.062179867
100	0xba50358a	-0.0007942548
101	0x2dab87cf	1.950076e-11
102	0xbb9b3e15	-0.0047376254
103	0xbd096905	-0.03354742
104	0x3de866de	0.11347745
105	0xbcdf6e32	-0.027274225
106	0xbcd2139c	-0.025644116
107	0x3d31e5fc	0.04343222
108	0xbdcac2f7	-0.09900468
109	0x3d3ae385	0.045627136
110	0xbe7be61b	-0.24599497
111	0xbe2e5916	-0.17026171
112	0x3d9f6032	0.0778202
113	0x3c8c557d	0.017130608
114	0x3d38130a	0.044940032
115	0x3d213026	0.03935256
116	0xbd515a5f	-0.051111575
117	0xa3974c5a	-1.6403789e-17
118	0xbce95a7e	-0.028485533
119	0xbce609dd	-0.028080875
120	0x3bfb0f98	0.007661771
121	0x3cb0353f	0.021509765
122	0x80002264	-1.2337e-41
123	0x3dcffaf1	0.10155285
124	0xbc518add	-0.012789455
125	0xbe2ff088	-0.17181599
126	0x3e3b3295	0.18281014
127	0x3df59819	0.11991901
128	0x3d92081c	0.07130453
129	0x3d104ac6	0.03522756
130	0x3c861158	0.016365692
131	0x3d022729	0.031775627
132	0xbc94cc84	-0.018163927
133	0x80001e06	-1.077e-41
134	0x3dd94e36	0.10610621
135	0xbd2c60b2	-0.042084403
136	0x3dd2a82e	0.10285984
137	0xbce0e8c8	-0.027454749
138	0x3d4ce769	0.050025377
139	0x3d9b36b6	0.07578795
140	0x3db8fe9b	0.09032937
141	0x3ddd5d5f	0.10808825
142	0x3c644302	0.0139319915
143	0x3d95ba33	0.07310905
144	0x80001b61	-9.822e-42
145	0xbd2f965b	-0.042868
146	0xbc3db7d0	-0.011579469
147	0xbd5f0e8d	-0.054457236
148	0xb9655ea1	-0.00021874394
149	0xbe090367	-0.13380204
150	0xbb600000	-0.0034179688
151	0x3d361c23	0.044460427
152	0x80001b61	-9.822e-42
153	0x3dede4b8	0.1161589
154	0x3d97b9e7	0.07408505
155	0x3ca58fde	0.020210203
156	0x3bbf4fe1	0.0058383797
157	0xbd44593b	-0.04793666
158	0x3daf9ac3	0.0857444
159	0x3d88921e	0.06668495
160	0x3d71e7d4	0.05905898
161	0x3d62a93b	0.055337172
162	0xbd160676	-0.036627255
163	0x3c847e0e	0.016173389
164	0x3de24708	0.110487044
165	0xbc4baa44	-0.012430731
166	0xbbd9286c	-0.006627133
167	0x3dae85e2	0.0852163
168	0x3dd8cbab	0.105857216
169	0xbcca9495	-0.024729053
170	0x1ebff045	2.0322285e-20
171	0xbd6339bb	-0.055474978
172	0xbd19b464	-0.03752555
173	0xbd438354	-0.047732666
174	0xbdc1706e	-0.094452724
175	0x3e04b620	0.129601
176	0x3d92f413	0.0717546
177	0x3de86e30	0.113491416
178	0x3de21bee	0.110404834
179	0x3d3eb4f9	0.046559308
180	0x3caaf22c	0.02086743
181	0x26632d32	7.8817697e-16
182	0x3e37fb7b	0.17967026
183	0x00001ebb	1.1024e-41
184	0x3d9659e8	0.07341367
185	0xbc2c99bd	-0.010534701
186	0xbd478225	-0.0487081
187	0x3d834d78	0.0641126
188	0x3e0ee4dc	0.1395449
189	0xbd09c4c6	-0.033634923
190	0x3daec6a0	0.085339785
191	0x3d93e4db	0.07221385
192	0x3dad9488	0.08475596
193	0x3d374521	0.04474366
194	0xb3485d42	-4.6650946e-08
195	0x3d6ad153	0.057328533
196	0x3d65863c	0.05603622
197	0x3d644deb	0.05573837
198	0xbaf1ec2f	-0.0018457229
199	0x3d0831a4	0.033250466
200	0x3d8482db	0.06470271
201	0xbe8a0258	-0.26954913
202	0x80001b5f	-9.819e-42
203	0x3d6e75b8	0.058217734
204	0x80001b77	-9.853e-42
205	0xbd96f55d	-0.07371018
206	0x3e0e0e8b	0.13872735
207	0xbcde40b1	-0.027130457
208	0x1db70891	4.8448554e-21
209	0x38507764	4.9702256e-05
210	0x3de9a003	0.11407473
211	0x3d21cf74	0.039504483
212	0x3c9265c3	0.01787079
213	0xbd7abdc5	-0.061216135
214	0x3dabeb16	0.083944485
215	0x3cf0d0cc	0.029396437
216	0xb5b2f626	-1.3333672e-06
217	0xbd801bc1	-0.06255294
218	0x3ded117e	0.11575602
219	0xbd2bd8ba	-0.041954733
220	0xba439fc1	-0.0007462465
221	0x2d4eb483	1.1749826e-11
222	0x3d3db8ad	0.0463187
223	0x3d60b315	0.054858286
224	0x3d85f124	0.065401345
225	0xbd199989	-0.03749994
226	0x3d945901	0.07243539
227	0xbc23484c	-0.009965967
228	0xbdafef26	-0.08590536
229	0xbcb4f50d	-0.022089506
230	0xbe696355	-0.22791798
231	0xbe37f5ab	-0.17964809
232	0x3da5e3fd	0.08100126
233	0x3da174f1	0.07883633
234	0x3d51e352	0.05124218
235	0x3ddf9458	0.10916966
236	0x3d2c3f1e	0.04205238
237	0x00001b79	9.855e-42
238	0xbd3d9f43	-0.046294462
239	0xbcd1d705	-0.025615225
240	0x3bddfd61	0.00677459
241	0x3d48b700	0.049002647
242	0x00001b6f	9.841e-42
243	0x3d8fd363	0.07022741
244	0x3d23b280	0.039965153
245	0xbe30aa36	-0.1725243
246	0x3e7cb910	0.2467997
247	0x3de46cd3	0.11153569
248	0x3e039e9c	0.12853473
249	0x3d811af0	0.06303966
250	0xbc73ca4a	-0.014879772
251	0x3ce2a81b	0.02766805
252	0xbdb07d13	-0.08617606
253	0x80001b5d	-9.816e-42
254	0x3cbda093	0.023147857
255	0xbc007c3b	-0.007842119
