pretrained_GNN_models/GNNrestrictedgraph_272trainvalid_fold1_1543_16.17973_3.03558.pt (torch, 251216 bytes, 10 tensors)

conv1.lin_rel.weight f4 [120, 14]
00000000: d487 dabd fee6 3ebd bb69 95be 002f fb3b
00000010: c259 4b3e f87f 163e 0e45 27be b66b 61be
00000020: 4176 24be 8a1b 0080 9c01 0a3e 31b2 633e
00000030: 2c9b 123e f7ae a33c 89ed 383e 0272 ad3e
00000040: 7a5e 1e3e e7b7 d8be 5006 acbd 0836 c1bd
00000050: 25d4 5e3e dbe3 a1be f2b2 38be 731b 0080
00000060: 2c48 3ebc 6b7b d0bd c6f5 06bd 472f da3c
00000070: 195c 6abe e767 1bbe a953 e1bd cd2d 8bbd
00000080: 701b 0080 701b 0000 a2b7 92be 5b1b 0080
00000090: 651b 0000 751b 0080 6456 f13d 1300 fc3d
000000a0: 92d5 65bd 2038 acbc dc31 7a3d 2a4a 633e
000000b0: 4b7e cf3e c229 8c3d 320b a8bd e177 0b3e
000000c0: f3ae 273d cd7e 5c3e bd5e 6e3d 8f1b 0080
000000d0: da16 303e 019f 35be 0a9f 893e 09c9 303e
000000e0: f40f 863d 8486 ec3d 0856 98bd cc80 123d
000000f0: 9e1f 883c a1ff 8bbe 98bb 343e b758 6b3e
00000100: 27c3 023d 591b 0000 bc43 563b ee69 003e
00000110: 2aba 5e3d 2bcc 59bb 8a1c 4a3d 9490 dabc
00000120: f245 03be 0c0d 983e 19f7 e7bc cf07 1f3e
00000130: 3865 383e d589 723d a4be 183e 661b 0000
00000140: 03ef 413e d8a8 44be 1ea0 953e 1b94 2c3e
00000150: b7e4 48be 7360 3b3e 0a46 da3d d169 28be
00000160: 8d7a c9bd d214 10be 1b0f 84be df91 9a3e
00000170: 6011 113e 8f1b 0000 5ace 75be 5924 8dbb
00000180: 868c 223e 19e0 fcbd f593 813e 1879 afbc
00000190: cce2 42be bd60 0e3e d50c b43d 3d6f 04be
000001a0: d5af 003e 9464 f4bc d40b 6b3e 751b 0080
000001b0: 9b57 b23d 5477 7c3e f0f5 eabd 73d5 3e3e
000001c0: 82db 41be 3c81 4fbc 42ea 163e ff7b 413d
000001d0: 0e4f 6bbc 991b 0080 7c7b 783e 8a1b 0080
000001e0: 7e1b 0000 681b 0080 6f78 87bd d8e8 913e
000001f0: dc4e dd3c a475 153e ad61 843e 1505 02be
00000200: 0fcb a7bc 595c bebd 3856 68bd 9756 95bd
00000210: 1271 cebc 6f29 92bd 9e21 963d 7f1b 0000
00000220: 0cb2 ee3d d50a 33be c127 153d 7572 623e
00000230: 5546 733e 8430 8e3e 42a3 47be 5b3f 593e
00000240: 9da9 7c3d 39ba 3bbe 4b5d 4f3e 1a98 883e
00000250: f212 d13d 591b 0080 8cf3 383d 8040 71be
00000260: de96 ebbd a829 333e cffd 903c 621b 0080
00000270: 611b 0080 bb22 0000 3a2c 443e 581b 0000
00000280: a755 5e3d 5b1b 0080 ad1b 0000 6d1b 0080
00000290: e21e 84be 370b 40bd 2f6d f2bc 1677 dcbd
000002a0: 5f29 c0bd d998 f93d 9282 903e 949d 793e
000002b0: 7f1b 0080 651b 0000 b053 92bc 791b 0000
000002c0: 5d1b 0080 751b 0000 1a22 473e 2b11 2cbe
000002d0: 038f 8cbc d2a3 633e 05e9 14be 76dc c6bd
000002e0: af04 cbbc ec37 bcbc 641b 0080 eddc f73d
000002f0: 3fba ce3d 6b1b 0080 9ef3 963e 981b 0000
00000300: b827 53bd 9934 383e 193f 953b a8f9 b8bd
00000310: 369e 753d 9b1b 0000 5f1b 0080 981b 0000
00000320: 7d1b 0000 0184 8c3d f5f3 9d3d 8e1b 0000
00000330: 911b 0080 891b 0000 5434 90bc 4428 213d
00000340: 6d38 5dbe c0f6 6b3d 5d81 1d3e d7fc 10be
00000350: 9f5d 24be 59d0 cfbd c190 093d 91ee 7dbd
00000360: a248 72bd 86f9 853c 7f39 723e 6d1b 0080
00000370: c575 0a3e 79a4 1d3e 3627 45be 3b14 403e
00000380: 82f9 d6bd ecdc e83d 4ece 073e 581e 8ebe
00000390: 1ad7 5f3e e777 1bbe eae2 74ba d4c7 d43c
000003a0: efee 8b3e 621b 0000 1121 3e3e 3a6c 19be
000003b0: d52d 49be 8076 043e fd6a 1b3e 9cfc 87bd
000003c0: fea0 c5bc eee1 85be b1a7 ca3c 3ccd 8dbe
000003d0: 28f2 02bd f035 2fbe 1557 933e 651b 0000
000003e0: ed12 87bd 6a0d 4abe 335d 0abe 3dfa 5a3d
000003f0: 5780 84bd c159 033e c4e8 8bbe a312 72bd
-0.106704384 -0.04660701 -0.29182228 0.007665515 0.19858459 0.14697254 -0.16334936 -0.22013745
-0.16060735 -9.879e-42 0.13477176 0.22235943 0.14317006 0.01998089 0.18059362 0.33876044
0.15465727 -0.42327806 -0.083996415 -0.09434134 0.21760614 -0.31619152 -0.18037012 -9.847e-42
-0.011613887 -0.1017979 -0.03294923 0.026633872 -0.22886695 -0.15176354 -0.11002285 -0.06795845
-9.843e-42 9.843e-42 -0.28655726 -9.813e-42 9.827e-42 -9.85e-42 0.11784056 0.12304702
-0.05611188 -0.021022856 0.061082706 0.2219626 0.4052604 0.06843902 -0.0820526 0.13619949
0.04093833 0.21532746 0.05819582 -9.886e-42 0.17196217 -0.17736436 0.2687915 0.17264189
0.065460116 0.11549094 -0.07438284 0.03576736 0.016616639 -0.27343467 0.17649686 0.22983061
0.031924393 9.81e-42 0.0032694181 0.12540409 0.05437676 -0.0033233266 0.049343623 -0.026680268
-0.12819651 0.29697454 -0.028316068 0.15530322 0.18007362 0.059213478 0.14916474 9.829e-42
0.18938832 -0.19205034 0.29223722 0.16853373 -0.19618498 0.18298511 0.1065789 -0.16446616
-0.09837828 -0.14070442 -0.25792775 0.30189416 0.14166784 9.886e-42 -0.24004498 -0.0043073115
0.15873918 -0.12347431 0.25308195 -0.021420047 -0.19031829 0.1390409 0.0879151 -0.12933059
0.12567075 -0.029833116 0.22953731 -9.85e-42 0.08708116 0.24654895 -0.1147269 0.18636112
-0.18931392 -0.012665089 0.147378 0.047237393 -0.01436211 -9.9e-42 0.24265856 -9.879e-42
9.862e-42 -9.832e-42 -0.06614768 0.28497958 0.027015142 0.14595658 0.2585577 -0.12697251
-0.020482568 -0.09294958 -0.05672285 -0.07291906 -0.0252004 -0.07136809 0.07330631 9.864e-42
0.116550535 -0.17484601 0.036414865 0.22113974 0.23757298 0.2777139 -0.19495872 0.21215574
0.061685193 -0.18332757 0.20250432 0.26678544 0.10208692 -9.81e-42 0.04515414 -0.23559761
-0.11503385 0.1749636 0.01769915 -9.823e-42 -9.822e-42 1.2459e-41 0.19157496 9.809e-42
0.054280903 -9.813e-42 9.928e-42 -9.839e-42 -0.25804812 -0.046885695 -0.029593078 -0.10764901
-0.09382891 0.121873565 0.28224617 0.24376518 -9.864e-42 9.827e-42 -0.017862171 9.855e-42
-9.816e-42 9.85e-42 0.19446602 -0.16803424 -0.017158037 0.22230461 -0.14542015 -0.09710018
-0.024782507 -0.022975884 -9.826e-42 0.12102685 0.100941174 -9.836e-42 0.2948274 9.899e-42
-0.05155155 0.17988814 0.004554641 -0.09031993 0.059965335 9.903e-42 -9.819e-42 9.899e-42
9.861e-42 0.06861115 0.07712547 9.885e-42 -9.889e-42 9.878e-42 -0.017603077 0.03934504
-0.21603556 0.057608366 0.1538138 -0.14158951 -0.16051339 -0.10147161 0.033585314 -0.061995093
-0.0591513 0.016354334 0.23654746 -9.839e-42 0.13521488 0.15394773 -0.19253239 0.18757717
-0.104968086 0.113702625 0.13262293 -0.27757525 0.21859398 -0.15182458 -0.0009341674 0.025974192
0.2733073 9.823e-42 0.18567301 -0.14982691 -0.1964639 0.12935829 0.15177532 -0.06639978
-0.024124619 -0.26148933 0.024738165 -0.27695644 -0.03196922 -0.1711042 0.28777376 9.827e-42
-0.06595407 -0.1973168 -0.13512115 0.053461302 -0.064697914 0.12827207 -0.27326024 -0.059099805

conv1.lin_rel.bias f4 [120]
00000000: 415b 853e bea3 aebc 21ee 353e 0b36 85bd
00000010: 80e4 813e 840c 8bbe bc02 453e 9f08 833e
00000020: c603 24bc ef22 cabc fe90 8a3d 7435 a9bd
00000030: 1e34 64be c597 8c3e b44f 8fbe 45a3 8c3d
00000040: 710b 473e 104f 753e fcc6 87bd c87d 303e
00000050: a5f6 ee3c 0e9a 313e abbb 1d3e 7a5c 823e
00000060: e892 23be dcdd 01be 2b76 eb3d c23d 38bd
00000070: 12cd 7b3b 420e 50bb 2153 a6bd ef7d ecbb
00000080: 6e3e 843e 3445 943e 22be 55bd 2b19 79be
00000090: 605e f2bc 064e 123d 7ba5 a0bd 9014 063e
000000a0: f505 ea3b 2e54 81bc bb06 223d 04ba 493c
000000b0: b013 423c 73f7 4b3e c388 d1bd 5e2f 7f3e
000000c0: 181c 7a3e d5b6 71bc e8d8 dca6 7da6 783c
000000d0: 64f2 8f3e bd4e fbbd 3864 09bc 19b3 47be
000000e0: ef1f ecb7 90fd 70bd 8028 853e a855 13bd
000000f0: 196f 8f3d 42c1 e43d 1c4a 3bbe 29b2 86be
00000100: f84f 68be 430b da3b 9598 73be ec68 86be
00000110: 46c1 543d 8f05 443e cc46 73bb 53b6 5b3e
00000120: 278f 1ebe 4041 893e 71f8 713c 8a5a b6bd
00000130: 0362 e3bd 7ba9 44be 1485 6a3e 7577 043d
00000140: 15e5 683e 22e6 92bd 3d6e 99bd f330 13be
00000150: 18d0 c3bd dad1 5bbe 4807 4e3e c0d7 893e
00000160: a134 053e ddcd d1bd 8774 43be e556 41bd
00000170: e013 493c e985 483e 5163 19bd 296c 223d
00000180: e61e 843e ad3d febd 16aa 623e 7abb 15be
00000190: 08bd 45be 6445 203e 105b bfbd b447 b6bd
000001a0: 00f1 0f3e 9d5f 4ebe 3799 f03d 76eb bd3c
000001b0: b146 033e 0676 4dbe 445f 803d d76a 02be
000001c0: b6a9 1cbe 1322 353e 7e64 f7bd e14c 593d
000001d0: 7bdd 283e f45d 22be 5c34 4b3e 433d fd3c
0.26046184 -0.021318313 0.1776662 -0.065044485 0.25369644 -0.27157986 0.19239324 0.25592515
-0.010010665 -0.02467486 0.06765936 -0.082621485 -0.22285506 0.2745954 -0.27990496 0.06867079
0.19437958 0.23955941 -0.0662975 0.17235482 0.029170344 0.17343923 0.15403621 0.2546118
-0.15974009 -0.12682289 0.11497148 -0.04498077 0.0038421792 -0.003174678 -0.08121324 -0.007217161
0.2582888 0.28959048 -0.052183278 -0.24326007 -0.029586017 0.03571894 -0.07844063 0.13093781
0.0071418234 -0.01578721 0.0395572 0.012312416 0.011845514 0.19918613 -0.10231163 0.24920413
0.2442478 -0.014753063 -1.5324359e-15 0.015176413 0.28114617 -0.122708775 -0.00838571 -0.19501914
-2.8148263e-05 -0.058835566 0.26007462 -0.03597036 0.07003612 0.111696735 -0.18289989 -0.263078
-0.22686756 0.0066541745 -0.23788674 -0.26251924 0.051942132 0.19142745 -0.0037121056 0.2145627
-0.15484296 0.26807594 0.014768706 -0.08903988 -0.111026786 -0.19205277 0.22902328 0.032340486
0.22743638 -0.071728006 -0.074917294 -0.14374141 -0.09561175 -0.21466771 0.20119965 0.26922417
0.13008358 -0.102443434 -0.1908742 -0.04720201 0.012272805 0.19582333 -0.03744823 0.03965393
0.25804824 -0.124141075 0.22135195 -0.14622298 -0.19310391 0.1565147 -0.09343541 -0.08900395
0.14056778 -0.20153661 0.117479734 0.023183566 0.12819935 -0.20064554 0.062681705 -0.12736069
-0.15299115 0.1768878 -0.12079714 0.053051833 0.16490738 -0.15856153 0.19844192 0.030913

conv1.lin_root.weight f4 [120, 14]
00000000: e75f e83d 25e1 66be 0c25 45bd 9375 01be
00000010: 146c 19be a21f 32bc 721b 0000 da7b 6e3e
00000020: 046b 953e 981b 0000 997e 35be 9ed5 e7bd
00000030: a059 273e 3b77 0ebe 0e45 01be 6208 5fbe
00000040: b97e 193c 274f 7abe 21e5 2bbe f3b9 37be
00000050: f4e2 703a 56e1 04be a7fe b73d 971b 0000
00000060: 295f 58be c293 bc3d d1cd 1e3e 5fe8 293e
00000070: df65 5bbe 883d 753e 8663 5e3e 1869 79bd
00000080: c60e 923e 921b 0000 7a1b 0000 791b 0000
00000090: 7d1b 0080 6b1b 0080 afa9 ce3d c10b 883e
000000a0: f9c8 7ebd 46a3 923b 4753 07be 8694 9e3e
000000b0: 9656 833d be50 64be a55d 4a3e f20d 19be
000000c0: a69a 813c 5b2a cebd fe7f 063e 691b 0080
000000d0: f12e 143e 16ae 493e 3886 453e 990f a63d
000000e0: 8442 4f3d 60ca cfbc 566c 993e dd25 9fbd
000000f0: 2cb4 763e 0526 a9bd 8279 043e faf9 0e3e
00000100: f656 54bd 6c1b 0000 e02a 9c3d 1514 cabc
00000110: 2147 53bd 9299 2cbd 3406 a23a 0fac 5ebc
00000120: df9e 7ebe b8d7 053e 6c1b 0080 5a3c 623d
00000130: 7190 c4bb 621b 0080 921b 0000 5a1b 0000
00000140: 0447 d1bc 686e 93bd 66da 03be 4e29 3abe
00000150: 065a 76bc 54f9 8e3d f475 f83d 7d1b 0000
00000160: 0292 8a3e 601b 0080 5b8f 893d 8d98 e7bc
00000170: e0db c03c 9d1b 0000 0986 9fbe 1068 5eb7
00000180: c8a6 ca3d 03da 543d 6d3b 80be a519 32be
00000190: b07d 28bc a73f 693e 0acd 59be d9e9 323e
000001a0: 9d1b 0000 954c 15be 31a8 ccbc 7f1b 0080
000001b0: f47f 053d 3a1d 00be be11 e43d d0b9 8dbe
000001c0: f19c 46be 751b 0080 63da 91be 6b1b 0080
000001d0: 661b 0080 581b 0080 54d4 2fbe 6f1b 0000
000001e0: 4f12 943e 731b 0000 e53a 88bd 63b1 62be
000001f0: a962 b5bd 501c ae3c d862 813d a232 0c3e
00000200: cf79 873e 7dca 1d3d 6df7 59be 17ab c4bd
00000210: 7d1d 99bd 774a 3fbe bdef 1ebe 811b 0080
00000220: 65ad 02be f651 403e c374 e3bd 5e4c 72be
00000230: 326a 593e 7691 eabd 4f51 2a3e 1d34 85bd
00000240: 2e8a 14be d917 04bc 81e0 cf3c a872 13be
00000250: bda9 2dbe ab1b 0080 52ba 963d fdc5 493e
00000260: cf16 0fbe f267 ed3d 6452 86be e42e ccbb
00000270: 1582 773e 741b 0080 c78a 83bd 761b 0080
00000280: 9d1b 0000 df28 9d3e 8c1b 0080 691b 0080
00000290: 6c1b 0080 751b 0000 e9a1 853e 16e0 a0bd
000002a0: 6746 23be 805a 0c3e 9007 5fbd 231d 94bd
000002b0: 671b 0000 6b1b 0080 dce0 3e3e 641b 0000
000002c0: 961b 0000 961b 0000 20be 8d3d b0fb 423e
000002d0: 246e 42bc 31e4 53be 654b 2dbe fd8a fb3d
000002e0: a532 2b3e fe11 4a3e bceb afbc 611b 0080
000002f0: 7038 12bd 763b 08be 41ca 38bd 9e1b 0080
00000300: d075 813e 25c1 5c3d ab02 6b3e d307 a3bb
00000310: 10f7 253e ce2d 0b3e a796 c83d 631b 0080
00000320: 951b 0080 8e1b 0000 781b 0000 781b 0000
00000330: 871b 0080 8c1b 0080 f88b 74bd 4e7c d5bd
00000340: 53a5 4b3e e2f5 37be 5d89 c03d 9e09 8b3e
00000350: c1c3 493e 964b 10be 6daa 44be edb8 74bd
00000360: 581b 0080 df84 733e f748 3f3e 741b 0080
00000370: 0804 4b3e 70b3 bebc d619 8e3d 4074 3cbd
00000380: 97b7 393e 289f b43a 47ca d13d bb41 8a3d
00000390: 5cf7 7f3e 4c16 843b a82c bdbd 0284 4bbe
000003a0: 7c5c 41be 801b 0000 df6a f23d 2ae9 fe3d
000003b0: fed8 653e bf18 2cbc fcf1 da3d a22f 6f3e
000003c0: 7059 b93d 7240 e13d 872d b2bc 81fd 18be
000003d0: b708 edbc 394a 163e c82e d0bd 991b 0080
000003e0: 0b89 3c3e bfc4 603e ab3d 8cbd 8e1c be3d
000003f0: 89f3 1d3d 527c 58be c2ef 873e 3526 0e3e
0.11346417 -0.22546823 -0.048131034 -0.12642507 -0.14982635 -0.0108718 9.846e-42 0.23289433
0.2918321 9.899e-42 -0.17724074 -0.11320041 0.16342783 -0.1391267 -0.12623999 -0.21780542
0.009368592 -0.24444257 -0.16786624 -0.17942028 0.0009189092 -0.12976584 0.08984118 9.897e-42
-0.2113005 0.0920787 0.155082 0.16592549 -0.2142558 0.23949254 0.21717653 -0.06089124
0.28526896 9.89e-42 9.857e-42 9.855e-42 -9.861e-42 -9.836e-42 0.10090958 0.26571468
-0.06220338 0.00447503 -0.13215362 0.3097269 0.06412999 -0.22296426 0.19762285 -0.14946726
0.015820812 -0.100666724 0.13134763 -9.833e-42 0.14471032 0.19695315 0.19289482 0.08108444
0.050600544 -0.025365055 0.29965466 -0.07770894 0.24092168 -0.08259205 0.12936977 0.13962546
-0.051840745 9.837e-42 0.07625365 -0.024667779 -0.051581506 -0.042138644 0.0012361468 -0.013590827
-0.24865292 0.13070571 -9.837e-42 0.055233337 -0.005998664 -9.823e-42 9.89e-42 9.812e-42
-0.025546558 -0.07198793 -0.12876281 -0.18179819 -0.015036112 0.06981149 0.12131873 9.861e-42
0.2706452 -9.82e-42 0.06716796 -0.028270984 0.023542345 9.906e-42 -0.31156948 -1.325646e-05
0.09895092 0.051965725 -0.25045338 -0.17392595 -0.0102838725 0.22778188 -0.21269622 0.17472018
9.906e-42 -0.14579995 -0.024982544 -9.864e-42 0.03259273 -0.12511149 0.111361966 -0.27680826
-0.19395806 -9.85e-42 -0.28486928 -9.836e-42 -9.829e-42 -9.809e-42 -0.1717084 9.841e-42
0.28920218 9.847e-42 -0.06651858 -0.2213798 -0.088567086 0.021253735 0.06317681 0.1369119
0.2646012 0.038523186 -0.21285792 -0.09602945 -0.074763276 -0.1868075 -0.1552114 -9.867e-42
-0.12761457 0.18781266 -0.11106255 -0.23661944 0.21231917 -0.11453526 0.1663258 -0.065040804
-0.14505836 -0.008062326 0.025375606 -0.14399207 -0.16959281 -9.925e-42 0.073597565 0.19704433
-0.13973545 0.115920916 -0.26234734 -0.0062311757 0.24170716 -9.848e-42 -0.06422954 -9.851e-42
9.906e-42 0.30695245 -9.882e-42 -9.833e-42 -9.837e-42 9.85e-42 0.2610009 -0.07855241
-0.15944825 0.13706398 -0.05445057 -0.0723212 9.83e-42 -9.836e-42 0.18640465 9.826e-42
9.896e-42 9.896e-42 0.06921029 0.19041324 -0.01186708 -0.20692517 -0.16923292 0.12282369
0.16718538 0.19733426 -0.021474712 -9.822e-42 -0.035698354 -0.13303933 -0.04511476 -9.907e-42
0.25285196 0.053895134 0.22950236 -0.004975298 0.16207528 0.13591692 0.0979436 -9.825e-42
-9.895e-42 9.885e-42 9.854e-42 9.854e-42 -9.875e-42 -9.882e-42 -0.059703797 -0.104241
0.19887285 -0.1796489 0.094012 0.27155775 0.1970358 -0.14091334 -0.19205637 -0.05974667
-9.809e-42 0.23781155 0.18680178 -9.848e-42 0.19825757 -0.023278922 0.069385216 -0.046009302
0.1813644 0.0013780342 0.102436595 0.06750818 0.24996704 0.0040309783 -0.09237033 -0.19874576
-0.18882936 9.865e-42 0.1183679 0.12446816 0.22446057 -0.010503947 0.10690686 0.23358014
0.09050262 0.1099862 -0.021750225 -0.14940454 -0.02893482 0.14676751 -0.10165173 -9.9e-42
0.18411653 0.21950053 -0.068477 0.0928279 0.03856233 -0.21141174 0.26550108 0.13881762

conv2.lin_rel.weight f4 [120, 120]
00000000: 5b0b 963d ed63 aabd 9a64 b3bc a3c6 e33d
00000010: 7e3a dbbb 3a84 f23c 6f6e 77bd e90b 6ebd
00000020: e2a7 d4bd 2ac9 953d 2714 81bb 7a98 b93d
00000030: a093 5bbe 4395 26bc a1b9 65bd 721b 4bbc
00000040: d913 023d 6184 aa3c cd79 343c 4892 923d
00000050: a271 4e3d 9dbc ae3d 0555 b13d acc2 8bbd
00000060: 06c0 5e3e 7145 493d 233b 133d ee11 c73b
00000070: 07a4 85bc 8061 e63c c641 a0bd f76f cc3d
00000080: d7c9 893d 98fb 61bd fa75 8dbe 41c3 a23d
00000090: a221 d43d 3ec5 433d 3acc 03bd cc07 4fbc
000000a0: 52ef 903d 9391 6ebd 8552 8f3c 9b71 303d
000000b0: db4f 3cbc 081d 953d f677 7d3c edb9 b53d
000000c0: 5775 353e dcf8 ab3b 631b 0080 a2b3 2a3d
000000d0: 84af 01bd 65f8 c83d 8be0 88be 24f3 6abd
000000e0: 981d 2f1f a450 523d fbd2 24be 2f47 e33d
000000f0: 88e5 b1bb 50fe 80bd 73ee 83bd b3bc b63c
00000100: b45b 9b3b 8863 403d 70e1 89bb 884f 963d
00000110: 4526 12be 40b2 45bd 9ba0 0d3b a0cd 72bd
00000120: 6801 61be 056b 163b 8e95 d83c c30d a9bd
00000130: 5960 2dbd 07aa a3bd 768c 6d3d 8c29 2f3d
00000140: 7991 0d3d da8e a2bd d82d c93b 8109 3fbd
00000150: 5dbd 8db9 c155 22bd 614d d63c 137e a43d
00000160: f050 bb3d 1e10 8ebd 1490 d93d e074 abbd
00000170: 84e0 1c37 5632 353d dc36 45bd e1f7 173d
00000180: c4ce 2a3d 8771 a5bd d5d9 b63d b19e 293e
00000190: 2964 553d 66d7 a63d 3edc 98bc 39a7 5bbd
000001a0: e226 87bd cf05 023e 859c 903d 6595 1dbd
000001b0: cc58 c53d e5ef d53d 8ddc 3cbe bee8 f5bc
000001c0: 3222 413e d2d2 85bd 9cf3 7fbd db17 413e
000001d0: de8e 16bd 893f 3bbd 8122 3f3d 8372 9ebd
000001e0: 4b56 94bc da90 903d b6ed 9d3d 505b a3bd
000001f0: 77ed a13d 5d97 793d 2bb6 cb3d 09ce f9bc
00000200: 350d 0c3e 8a18 e83c 78a7 bebc 12dd 8b3c
00000210: 97d4 c83d d8c3 a1bc 2fb1 b5bc ad04 cb3d
00000220: 607e 233d f815 523d 3e9c 1dbe e2df 7bbd
00000230: f7a8 803d 4627 c3bc 9cbb a6bd 9d3c 513d
00000240: 065f 6cbe 9618 fbbb 0e20 7fbd e965 623d
00000250: 60a3 653d cd8b 2ebd da90 75bd 5b7f debd
00000260: 551f aebd 3368 a3bd 1b83 a33e 8235 933d
00000270: 6653 99bd e208 a93d 77bf 023d e0a2 11bd
00000280: 5681 9a3d c05e 9dbc d1f9 693d 79ea 03bd
00000290: adeb b63d 3a36 393d 33f4 86bc ea42 e23c
000002a0: a51d f8bd cf28 14be 8f1b 0000 c732 8c3d
000002b0: cf76 4a3d ee6f 48bd a664 693e ccb4 533d
000002c0: 75e9 ba94 a190 ef3b ab21 2d3e 6d01 06be
000002d0: 1760 7bbd ff52 6f3b faa1 54bd 82af d7bc
000002e0: 6d40 babd 7e9b c03c 4aee 233d 4ba2 92bd
000002f0: 9af6 903d 9642 33bd 9c3c d9ba 7ee4 c4bb
00000300: 0bc1 803e d1a8 adbc 110c 03bd 8e0c e03d
00000310: 9010 2b3d 0c5d 9fba cf2d 8e3d 0eee 903d
00000320: d88c fb3c 2e30 5d3d 3d0e 753d 3951 0d3d
00000330: e019 ff3b 8647 483d 4877 2fbd b715 c13d
00000340: 217c 6d3d 469c c43d df27 51be 59a6 dd3d
00000350: 17ff 4ebd 9add b03c 34bc bc3c 9413 6e3d
00000360: d6b7 bcbc 271f 553d 177f bf3d d297 3abe
00000370: 4c76 10bd 8705 5d3c 1514 29bc 3cbe b7bd
00000380: a367 1cbc 80b4 2b3d 753d 863d 382b b53c
00000390: 9485 2e3d e442 eabd 8263 373e 37f9 fe3d
000003a0: a79c 3ebd de55 343d 690c b43c e5bf 3ebe
000003b0: 34d7 6a3d 84d4 21bc 0dee 99bd fc34 193d
000003c0: 0546 863d cb14 1a3d c9c8 993d 7236 4c3d
000003d0: 3973 b9bd ffb9 483d 2f22 d93d bcc2 b4bd
000003e0: 8078 303e 6de2 a23d ffa5 3e3d 5ab1 223d
000003f0: 277e 463e 3710 383d 20c1 943b 355b 5bbd
0.07326385 -0.083198406 -0.021898557 0.11121871 -0.0066903224 0.029604066 -0.060408052 -0.058116827
-0.103835836 0.073137596 -0.00393917 0.09062286 -0.21443033 -0.010167423 -0.056085233 -0.01239668
0.03175721 0.020815076 0.011015368 0.07156807 0.050401337 0.08532069 0.08658794 -0.0682424
0.21752939 0.04913849 0.03594507 0.0060751354 -0.016313566 0.028122663 -0.07825045 0.09982293
0.06727951 -0.05517158 -0.2762907 0.07947398 0.103579774 0.047795527 -0.032177188 -0.012636136
0.07076897 -0.0582443 0.017495403 0.043077093 -0.011493648 0.07280928 0.015470495 0.08873353
0.17720543 0.005248172 -9.825e-42 0.041675217 -0.031661525 0.098130025 -0.26733813 -0.057360783
3.708217e-20 0.051346436 -0.16096108 0.110975616 -0.0054289736 -0.06298506 -0.06441965 0.022306776
0.0047411565 0.04696992 -0.0042077824 0.07339388 -0.14272411 -0.048265696 0.002161062 -0.05927813
-0.21973193 0.0022951972 0.0264385 -0.08254578 -0.042328212 -0.079914145 0.057995282 0.04276423
0.03456256 -0.07937403 0.006139498 -0.046639923 -0.00027034702 -0.039632563 0.026159944 0.08031859
0.09146297 -0.06936668 0.10623184 -0.083719015 9.350599e-06 0.044237457 -0.04814802 0.03710163
0.041701093 -0.08078294 0.08928267 0.16564442 0.052097473 0.08146553 -0.018659707 -0.053626273
-0.06599213 0.12697528 0.07061104 -0.03847255 0.09636077 0.10446147 -0.18443508 -0.030018207
0.188607 -0.065343514 -0.062488183 0.18856756 -0.036757343 -0.04571489 0.046663765 -0.07736685
-0.018107554 0.07058878 0.077113554 -0.07976401 0.07906621 0.060935367 0.09946855 -0.030493753
0.13676913 0.028332014 -0.023273215 0.017073188 0.09806173 -0.019746706 -0.022179214 0.09913001
0.039915442 0.051290482 -0.15391633 -0.06149281 0.062822275 -0.023822438 -0.081412524 0.051083196
-0.23083124 -0.007662843 -0.06228643 0.05527297 0.05606401 -0.042613793 -0.059952594 -0.10864135
-0.0850207 -0.07978859 0.31935963 0.0718794 -0.0748661 0.082536474 0.031920876 -0.03555572
0.075442 -0.01921022 0.05712301 -0.032206032 0.0893167 0.04521773 -0.016473865 0.027619798
-0.12115029 -0.14468692 9.886e-42 0.068456225 0.04942971 -0.04893487 0.227923 0.051686093
-1.8873283e-26 0.0073109423 0.16907375 -0.13086481 -0.061370935 0.0036517975 -0.051912285 -0.026328806
-0.090943195 0.023511644 0.040022172 -0.07159861 0.070782855 -0.043764673 -0.0016573849 -0.0060086837
0.2514728 -0.021198662 -0.03199393 0.109398946 0.041763842 -0.0012158467 0.06942331 0.07076655
0.030706808 0.054001026 0.05982803 0.034501288 0.007785067 0.048896335 -0.042838365 0.0942797
0.057979707 0.09600119 -0.20425366 0.10822744 -0.05053624 0.021590043 0.023038961 0.05812414
-0.023036879 0.052031662 0.09350412 -0.18221977 -0.035269067 0.013490087 -0.010319729 -0.08971831
-0.009546193 0.041920185 0.06554691 0.022115335 0.04260786 -0.114385396 0.17909053 0.12449878
-0.046536114 0.0440272 0.021978574 -0.1862789 0.05733414 -0.009877328 -0.07516108 0.037404045
0.06556324 0.037617486 0.07509 0.04985661 -0.0905518 0.049005505 0.10602223 -0.08826205
0.17233467 0.079533435 0.046545025 0.039719917 0.19384061 0.04493734 0.004539624 -0.05355378

conv2.lin_rel.bias f4 [120]
00000000: 38fd a7bd aa24 8f3d 2be3 6bbd a067 c0ba
00000010: 2909 56bd b23e 74bd a86d 03bd 4f73 55bb
00000020: 711c c43c 3568 5f3d 5d9b 10bd 3891 e0bc
00000030: f3a5 a9bd 7f73 13ba 24e9 f239 bf84 a63d
00000040: 197e 813c 6064 3a3d ea5e 86bd 848a 058b
00000050: c04f 903c 5947 433d 2fa8 ab3d 9520 183d
00000060: 4357 3cbb 48d1 74bc 2aec 403d ac1d 99bd
00000070: 7da8 c63c a116 b63c eff5 393d a506 8d3d
00000080: 603c f73c 4ee9 143c 2425 b13d 435b e93d
00000090: eaa7 0dba d042 76bd 46aa 753c b148 18bd
000000a0: 2726 793d cda3 833c 2a97 c9a7 c194 c0ba
000000b0: 62ec 2cbb 35e1 ab3c b3d6 9aba 94f6 033d
000000c0: f5db e03b cccd 18a8 29f4 2e3c 9f44 873d
000000d0: f2f6 9abd 7132 c93d 4b84 adba ed69 87b1
000000e0: c7bb 733d 7228 ac3c 08ab 7a3d b17b 063d
000000f0: a542 1c3d eb17 7c3a 73cc 6dbc e34b ad3d
00000100: 5308 1e3d 7c7e 293d 3be7 f23d c84a 8cbd
00000110: e904 893d b177 93bd e206 1fbd f490 683d
00000120: 5606 093d b979 d73d f3a8 a53d c463 ba3d
00000130: d756 7cbd ec00 3d3a b2d9 e53d 6d21 0000
00000140: acb3 b93c 88e4 743d 6ec9 e23d d6f2 913d
00000150: 51f4 453d 3b27 9ebd 89da 073d 9d6a 7b3d
00000160: 9710 3cbd 01ea 403c eed3 1b3d 4408 95bd
00000170: 6c48 693c b35d 0b3d f217 fe3b 3d8e 793c
00000180: 5059 cf3c 0e92 e0b4 515a b43d c766 543d
00000190: 91a4 d03d 769d 123d 2d73 483d 9b9f 16bb
000001a0: 2e89 9c3d 9372 dc3d 58f8 e0bc 2d2f 42bc
000001b0: 8b12 993a 1119 af3d bf05 023d 81a5 853d
000001c0: 9ac5 82bd c8a0 82bd 1eba 64b8 8d08 47bb
000001d0: 3ae3 3c3d e904 cebc 6168 2ebc 4efe a13d
-0.082025945 0.06989415 -0.05758969 -0.001467932 -0.05225483 -0.059630103 -0.032087 -0.003256995
0.023939343 0.05454274 -0.035304416 -0.027412996 -0.082836054 -0.0005624815 0.0004633154 0.08130788
0.015807198 0.04550588 -0.06561072 -2.5719076e-32 0.017616153 0.047675464 0.08381688 0.037140448
-0.0028738535 -0.014942475 0.047100224 -0.074763626 0.024250263 0.022227587 0.045400556 0.06886033
0.030180156 0.009088827 0.08649662 0.1139436 -0.0005403744 -0.06012231 0.01499421 -0.0371787
0.0608274 0.016069317 -5.59526e-15 -0.001469277 -0.0026386012 0.02098141 -0.0011813253 0.032217577
0.0068621584 -8.48232e-15 0.0106783295 0.06604885 -0.07566632 0.09824074 -0.0013238279 -3.9410595e-09
0.05950525 0.02101538 0.061198264 0.032832805 0.038149495 0.0009616601 -0.0145140765 0.0846174
0.038582157 0.04138039 0.1186051 -0.06850201 0.0669039 -0.07200564 -0.038824923 0.056778863
0.033453308 0.10521264 0.08088865 0.0910106 -0.061606254 0.0007209915 0.11223163 1.1991e-41
0.022668682 0.059788257 0.11073576 0.071263954 0.0483287 -0.07722326 0.033167396 0.06138097
-0.04591426 0.011774541 0.03804391 -0.07276967 0.014238458 0.034024905 0.0077543193 0.015231666
0.025311142 -4.182952e-07 0.08806289 0.05185583 0.101876386 0.035794698 0.048937965 -0.0022983316
0.076433524 0.10764041 -0.02746217 -0.011852068 0.00116785 0.08549703 0.03174376 0.06525708
-0.06385346 -0.06378323 -5.453277e-05 -0.0030370087 0.046115138 -0.025148826 -0.010645003 0.07909833

conv2.lin_root.weight f4 [120, 120]
00000000: b3a8 853b 95d2 abbd 0ae1 abbc a023 a8bc
00000010: 8c13 a93c 2f27 00bd 307b 813c 11fb d53b
00000020: 28d6 d9bd f508 99bd fa9b 8c3d c323 4abd
00000030: b5af 03bd 0859 88bd bcc9 5e3a c34b 503c
00000040: be0a 85bd dfb2 243c 0f0e ee3b ddff 9fbd
00000050: 22e6 853c 774c a73d cebd 86bd 8b55 063d
00000060: f488 523e db75 bdbc f075 89bd 6510 393d
00000070: 3070 a7bd dad1 19bd 285b 78bd c18f a03d
00000080: 75a5 bb3d a82f 07bc da5d 8abe d824 0a3e
00000090: 67a8 1f37 a887 803d 0492 1fbd 571f ca3b
000000a0: f868 b43c 0d79 92bd ba52 12bd 8e4f 0f3e
000000b0: 8bad 09be 3e8e 243d 2a67 03bb d26e 70bd
000000c0: 9392 1d3e 2a65 2f3e 871b 0000 e2cf 77bd
000000d0: 41da d13d 5ef5 a23c 7776 c2be 6253 54bd
000000e0: 6f1b 0000 5d9b fab9 8d4b c1bd b146 f33d
000000f0: c2cf e43c 7db2 9abc 5371 85bc c5d8 813d
00000100: 4be8 2e3d 3677 753d 4b9e b23d dbe5 d3bc
00000110: b1bd 4fbd 6ca8 8b3d 8dc0 b43a 50db 3bbc
00000120: 538b 58be 833c cc3d 1969 22bd 6c94 133d
00000130: 6b52 b33d 2975 8dbd 184a 50bd 7cd4 a8bc
00000140: 6c4b 213d 6448 353d 0f82 a33d 74ea d0bd
00000150: a015 da3c 8a14 99bc edff 9c3d 6d44 713d
00000160: 3f70 103d ed30 2fbe 6af6 383e 1272 8cbd
00000170: ccf8 653d 33e0 81ba 0553 bf3d e36e a8bc
00000180: 763f 3ebc 9caa c73c df21 523c 9d61 803d
00000190: 2f84 523d 4525 1cbd 9177 6f3c 2489 3c3d
000001a0: 33c8 b5bd 07cd b03d d386 67bc d98c 5c3d
000001b0: c1fb 7e3d 1c68 d63d 752b 49be d834 da3c
000001c0: 6cd0 0e3e 5108 19be 0db4 53bc df9d 163e
000001d0: b49a 95bd f0d5 3a3d 20dd 15bd 9e6b 313c
000001e0: 0467 b63c e173 083c a960 e63d ee60 a4bb
000001f0: f320 c13d 3359 753d 13e9 1e3e 04cb 833d
00000200: 17d0 9a3d 27f1 b9bd 2148 10bc e253 303d
00000210: 2f3f 363e b586 753c a9eb d1bd 4cc8 9b3d
00000220: c4ad 973d 75f6 673d f9f0 02be 307d a53c
00000230: e402 e93d e743 593c 464e 8b3d ec8a 2fbd
00000240: ec5d 6cbe 7db8 bcbd 4291 a43c dbf8 5b3d
00000250: f0e1 5a3c 423f b33d 5b8f 003d b155 c1bd
00000260: ce75 82bd 69c9 19bd 7306 a03e 8720 72bd
00000270: 277b 77bd 80e3 4f3d 3860 943d 973d bd3d
00000280: ece2 aa3c 663f 233d 02f1 c5bc 7205 8bbd
00000290: cbca 493e 5a35 683d c9ee 8ebd 732c bf3b
000002a0: d958 5bbe 2c88 e2bd c51c 0080 d53e c3bd
000002b0: 5e93 073d 85a2 4c3c 322b be3e a074 7b3d
000002c0: 941b 0080 8856 91bd a256 9d3d 03c2 e9bd
000002d0: 37e6 d93d 0466 0dbd c0a2 df3c 0abc 0d3d
000002e0: f13f 16bd 487d aabd ba86 9dbd e217 893c
000002f0: 284b 113e a148 953d ee7a 9aba 1514 b13b
00000300: 9766 773e 66f7 8cbd b6e6 e03c ab43 c53d
00000310: 1371 adbd cf25 8f3d ee76 2bbd 7176 173d
00000320: 151a 263d 032d be3c 560b b83d 919b 3cbd
00000330: 68b4 81bc 6a07 af3d 7703 333d 5599 d7bc
00000340: 8893 dabb 56c5 153e ecdb 95bd 7b47 3bbd
00000350: 94a8 86bd 9d18 153d 46a8 5abc b5dc 87bc
00000360: 7f49 a23b 6ba3 1c3d aa3b 7e3d 69b0 a5bd
00000370: 5676 bc3d 6385 283d 7729 f33b 29fd 963d
00000380: 065b 6b3c a3ee 80bd 1a5e 5fbd 01d9 92bd
00000390: d1a8 283c d380 7d3d 2119 123e c085 ea3d
000003a0: 732a 9cbd 55cb e83c dd92 e03d 862e 48be
000003b0: b6f3 20bc a4b0 cabd a70b 833d 3976 00bd
000003c0: 48e1 b13b 8615 743d 44e2 82bd 99b2 903d
000003d0: 581f 92bd 9bfa 91bd 20e9 123e 9c34 483d
000003e0: 9c26 2e3e 941e 97bd 9737 3a3d e983 ca3d
000003f0: 7b72 363d 2118 2bbd b434 8cbd 5918 5a3d
0.0040789484 -0.08389775 -0.02098133 -0.0205248 0.020639203 -0.03128737 0.01580581 0.0065301736
-0.1063655 -0.074724115 0.06865688 -0.04935051 -0.03214999 -0.06657606 0.00084986887 0.0127133755
-0.064961895 0.010052412 0.0072648595 -0.07812474 0.016345087 0.081688814 -0.06579171 0.032796424
0.20560056 -0.023127487 -0.06711948 0.04518165 -0.08175695 -0.037553646 -0.06063381 0.07839919
0.09162418 -0.008251108 -0.27024728 0.13490617 9.516348e-06 0.062758744 -0.03895761 0.006168287
0.02202271 -0.07151995 -0.035723425 0.13995191 -0.13445108 0.040174715 -0.0020050504 -0.058699436
0.15387945 0.17128435 9.875e-42 -0.060500987 0.10246707 0.01989239 -0.37981007 -0.051837333
9.841e-42 -0.0004779947 -0.09438238 0.11878718 0.027931098 -0.018883938 -0.016289389 0.06340174
0.042702 0.05992814 0.08721598 -0.02586644 -0.050718013 0.06819233 0.0013790295 -0.011465862
-0.21146898 0.09972479 -0.03965101 0.036030218 0.08755954 -0.06907112 -0.05085191 -0.020609133
0.03937857 0.04425849 0.07983791 -0.102009684 0.02662164 -0.018686552 0.076660015 0.058903147
0.035263296 -0.17108507 0.1806275 -0.06857695 0.056145474 -0.0009908736 0.093420066 -0.020560687
-0.01161181 0.024373345 0.012825458 0.06268618 0.05139559 -0.03812148 0.014615909 0.046029225
-0.088760756 0.08632856 -0.014131266 0.05384526 0.06225181 0.10469076 -0.19645484 0.026636526
0.13946694 -0.14944579 -0.012921345 0.1470866 -0.07304898 0.045614183 -0.036587834 0.010828881
0.022265919 0.008328409 0.11248905 -0.0050164377 0.09430113 0.05989952 0.15518598 0.064352065
0.07559221 -0.09079199 -0.008806259 0.043048747 0.1779754 0.01498573 -0.10250027 0.07606563
0.0740619 0.056631524 -0.12787236 0.020201296 0.113775045 0.013260818 0.06802039 -0.042857096
-0.23082703 -0.09214876 0.020088796 0.053704124 0.013359532 0.087523 0.031386714 -0.094401725
-0.06370126 -0.037545595 0.3125492 -0.05911305 -0.06042018 0.05075407 0.07244915 0.09240263
0.020860158 0.039855383 -0.024162773 -0.06788148 0.19706266 0.056691505 -0.069791384 0.005834156
-0.21420611 -0.11061129 -1.032e-41 -0.09533469 0.033099525 0.01248992 0.3714233 0.06139052
-9.893e-42 -0.07096583 0.076825395 -0.11413958 0.10639613 -0.034521118 0.027299285 0.034603156
-0.036682073 -0.08324677 -0.07691713 0.016735021 0.14188826 0.072892435 -0.0011785903 0.0054040053
0.24160229 -0.06883125 0.027453762 0.09632047 -0.08468833 0.06989633 -0.041861467 0.03697819
0.040552218 0.023214823 0.08986537 -0.046046797 -0.015833095 0.08546336 0.043704476 -0.026318232
-0.006670419 0.14626059 -0.073173374 -0.045722466 -0.065751225 0.036400426 -0.013345784 -0.016584734
0.004952609 0.038241785 0.06206862 -0.08090288 0.09202258 0.041142832 0.0074207145 0.07372505
0.014364963 -0.06295516 -0.0545331 -0.071702965 0.010294155 0.061890434 0.14267398 0.11451292
-0.07625284 0.028417269 0.10965512 -0.19548997 -0.00982373 -0.09896973 0.06398707 -0.031362746
0.005428467 0.05959084 -0.06390813 0.07065315 -0.071348846 -0.07127877 0.14346743 0.048878297
0.17006916 -0.07378879 0.04546317 0.09888441 0.04454277 -0.041771058 -0.0684599 0.053245876

conv3.lin_rel.weight f4 [120, 120]
00000000: 85cb bbbb 0406 17bd 4ff8 303d eda6 163b
00000010: 4662 78bd aaf1 b3bd d9c9 ecbd 1527 7f3d
00000020: eedc b7ba 403f cfbc f848 f43d 37b1 81bd
00000030: ea2b 60bd 11d5 9e3b 1a79 713e c956 ab3c
00000040: 2855 e3bd 1287 cbbd 162e a0bd 0a64 0580
00000050: a178 91bd 35f6 44bd 7400 c53c 8f5a 14bd
00000060: ec25 f23a fe52 613d 8167 073e 4c28 b03d
00000070: b6aa 863c 3b75 b8bd a803 ed3d 2a95 54bd
00000080: 16da 48bc 52d1 ff3c 96e3 e13c dc3c 64bc
00000090: 807f ea36 3a05 7f3d ceb8 a33c 4884 273d
000000a0: be6e f8bd aa47 8cbd fd46 c99d 268a b2b8
000000b0: bb54 1abb 2e6f c5bd 1569 82bb eb66 243d
000000c0: f708 a9bd e093 a827 669c d33c b809 fcbc
000000d0: 39f8 5bbd 366e 6ebd c0e1 f839 95d7 ef31
000000e0: 05ff d8bb 4890 f6bd a2f9 083d 44e1 a73d
000000f0: d496 acbd fd0f 2c3d d4d9 07bb 694e a3bd
00000100: c6a4 163c 6494 883d 4bcc e2bd d063 543c
00000110: 6e89 d0bd 123b 70ba c7ff ebbc c29e 2fbd
00000120: d86a a43c 7492 d83c 8009 b5bd 64db 7b3d
00000130: 41d5 563d a7b6 863d a0d4 87bc 951b 0080
00000140: e009 ffbb 6d40 743c fe72 833e 086d b03c
00000150: d330 0bbe f793 9e3e a6a1 c83c 74f6 f6bc
00000160: 17dd 143d 827d a8bd b31c 6d3c 3684 ccbd
00000170: b9da cc3c d9a1 bebc bc42 40bd 0d7a 4c3d
00000180: c782 7a3d 96d3 1626 3dbc 003d 229a c0bd
00000190: 07d4 bcbd ad44 0dbd 3dc8 d6bd 5034 a03a
000001a0: d2de 33bd bc0b 6bbd d1d1 72bb 6bae 1a3d
000001b0: e1c2 6ebb 2ff7 26bd 958c 8ebd 997e 40bd
000001c0: 42d8 8fbd e7d7 e43c 5ed6 403e 4876 84b9
000001d0: ff72 50bb c66b 313d 7d5e 3b3d 721f fbbd
000001e0: 881a 96bc dd9c 14bd fcc2 013c 0ca6 c139
000001f0: adc7 99bd d978 833d 01b3 9cbb 824f c5bd
00000200: 32e1 23bd 6016 ce3a 7f78 b5bc 86b9 3dbc
00000210: d36d 39bd d10c d43a e61b 543e 4db4 34bd
00000220: 6aea a3bd 55a3 49be 273a aebd 9623 0680
00000230: bc63 a6bd c96d 983d 1e05 62bd a9b6 6a3d
00000240: 7c95 1d3b 4e26 963c 52f7 833e 69de 12bd
00000250: 2bb5 8cbd 6926 84bd 6058 b23d 437d 8bbb
00000260: f8bb 2abd a13c 8b3c 6d2a 113d 1109 0fba
00000270: 1b6c a633 c1fc 023d 1b44 94bc f976 c2bd
00000280: 340e 12be d610 253d 7ab9 4895 78eb 4db7
00000290: a2e9 87ba 03b8 223d 0824 c2bb 5d95 973d
000002a0: 80a2 a8bd 4f9d 35b7 f5be 8ebd 5dda acbd
000002b0: 0a87 b2bd 37f2 64bd 88aa 333a 00ad 2532
000002c0: 0474 823d 11e2 24be a6c8 f5bd d278 d43d
000002d0: 0c3e a3bd 5536 4c3d bdcc baba af4a 28bc
000002e0: 6aa8 26bd 78a0 b5bd fe84 ebbd 9a70 a93d
000002f0: 83bf 373d 6d7b ccb6 4979 1abd 9341 50bd
00000300: 9330 eabc f763 01bd 5124 9ebd ad6a 57bd
00000310: f4f7 343d ce2a 873b 0674 81bd 901b 0080
00000320: 3fd4 1e3d 77fb cbbd 7425 883e 87d3 c7bd
00000330: cc41 acbd b52e a83e b6d9 d4bd 5496 04be
00000340: 3a9c 843d 41a6 7b3c 989c d0bd 5c9c 023c
00000350: 3bc2 4bbd 069e 393b ee04 f2bd 1b9f de3c
00000360: 5e89 1b3d 87fa 9db6 2158 343d 6404 a5bd
00000370: 1eed 84bc e933 853d 80f5 d7bd 7bd4 09bb
00000380: 0b75 463d 03be 843c c59b bbbd 8e68 adbd
00000390: e112 a9bd 2817 80bd b974 3fbc b7ff 1e3d
000003a0: d3ab 8b3c 064d b5bc d2cb ec3d 4a6d 3639
000003b0: 6d12 223d d94d c03b 1188 ccbd e314 14be
000003c0: 1509 563d 6143 41bd 7c45 a8bd f11b dbb7
000003d0: 0090 c0bd 0eb7 d2bd 726c 60bc b22a f2bd
000003e0: ee43 4bbd af82 d1bd b145 df3c 9e92 63bd
000003f0: 279a 4a3d 7abe 003a 1779 3c3e 5ff5 f43c
-0.0057310485 -0.03687097 0.043205556 0.002298768 -0.060640596 -0.08786328 -0.11561937 0.06229313
-0.0014027634 -0.025298715 0.1192798 -0.06332629 -0.05472938 0.004847177 0.23581353 0.020915406
-0.11100227 -0.09937872 -0.0782129 -4.95065e-40 -0.07103086 -0.048086364 0.024048068 -0.036219176
0.0018474436 0.05501079 0.13223077 0.08601436 0.016438823 -0.09006735 0.11572963 -0.051900066
-0.012259027 0.031227741 0.027574342 -0.013930526 6.9885864e-06 0.062260844 0.019985583 0.040897638
-0.121304974 -0.06849606 -5.3277657e-21 -8.5134336e-05 -0.0023549038 -0.096403465 -0.003979812 0.040137213
-0.08253663 4.6789693e-15 0.025831413 -0.030766353 -0.05370352 -0.058210574 0.00047470443 6.9803243e-09
-0.0066221976 -0.12039238 0.033441193 0.08197263 -0.08427206 0.042007435 -0.00207292 -0.0797394
0.0091945585 0.06668928 -0.11074122 0.01296325 -0.10182463 -0.00091640756 -0.028808488 -0.042876013
0.020070478 0.026437022 -0.088397026 0.061488524 0.05244947 0.06577807 -0.01658088 -9.895e-42
-0.0077831596 0.014907938 0.2567367 0.021536365 -0.13592844 0.30972263 0.024491142 -0.030146815
0.03634366 -0.08227064 0.014472174 -0.09986155 0.025006639 -0.023270534 -0.046938643 0.049921084
0.061159875 5.2328457e-16 0.031429518 -0.094043985 -0.092201285 -0.034489322 -0.10487411 0.0012222622
-0.04391367 -0.057384238 -0.003705133 0.037763994 -0.0036432075 -0.040763076 -0.06960408 -0.046995733
-0.0702367 0.027934982 0.18831775 -0.00025265128 -0.0031806824 0.04331567 0.045744408 -0.12261857
-0.018323198 -0.03628241 0.007920023 0.00036935543 -0.07508788 0.06419534 -0.004782081 -0.096343055
-0.040009685 0.0015723221 -0.022152184 -0.011579877 -0.045270752 0.0016178136 0.20713767 -0.04411726
-0.08003695 -0.19691212 -0.085071854 -5.63779e-40 -0.081244916 0.07442815 -0.05518066 0.057303105
0.0024045398 0.018328812 0.25774628 -0.035856638 -0.068704925 -0.06452639 0.087082624 -0.0042568757
-0.041683167 0.016996684 0.03544085 -0.0005456368 7.7496416e-08 0.031979326 -0.018098881 -0.094953485
-0.1426323 0.04029926 -4.0535994e-26 -1.22737765e-05 -0.0010369311 0.03972627 -0.0059247054 0.07401536
-0.082341194 -1.0825067e-05 -0.06970016 -0.08440087 -0.08717163 -0.055895057 0.0006853719 9.6436e-09
0.063697845 -0.16101862 -0.12001161 0.10374607 -0.07970819 0.049856503 -0.0014251691 -0.010271712
-0.040687956 -0.088684976 -0.114999756 0.0827343 0.044860374 -6.0940424e-06 -0.037713323 -0.050843786
-0.028587615 -0.031589475 -0.077217706 -0.05259197 0.04418178 0.0041249758 -0.06320958 -9.888e-42
0.038776632 -0.099600725 0.26591074 -0.097571425 -0.08410987 0.32848135 -0.103930876 -0.1294797
0.0647511 0.015359462 -0.10186118 0.007971849 -0.04974578 0.002832295 -0.118173465 0.027175477
0.0379728 -4.70813e-06 0.04402936 -0.08057478 -0.016226348 0.06504042 -0.10544872 -0.002103119
0.048451465 0.016203886 -0.0916057 -0.08467208 -0.08255554 -0.06254417 -0.011685544 0.038818087
0.017049706 -0.022131454 0.11562313 0.00017397586 0.039568353 0.005868655 -0.0998689 -0.14461093
0.052254755 -0.0471834 -0.08216378 -2.6119846e-05 -0.09402466 -0.10288821 -0.01369773 -0.1182455
-0.04962533 -0.10230004 0.027254911 -0.055559747 0.049463417 0.0004911196 0.18405567 0.029902158

conv3.lin_rel.bias f4 [120]
00000000: 1840 fbbc 2302 b8bc 0660 09bd 2b38 ae3c
00000010: f434 263d 4eb7 71bc 406e c63c 60b4 b1bb
00000020: ddf8 ba3c 1159 b43d 26da b33d e704 15bd
00000030: 3e0d 5b3d b6ef df3c a02c 36bd cbb6 053d
00000040: 39e2 533d 6fbd 86bd 4d5e d6bc 39a6 a9bd
00000050: 2a18 6e3d 090a 263d 2769 cf3a 3458 8ebd
00000060: 653b 533d 7729 273d 1599 0cbd 64e2 993d
00000070: 6f9f a53d 882f b6bd 8abc df3c 6cca 283d
00000080: 7b1e 453d 756b 92bd ceaf 23bd bb3c af3c
00000090: 17ed 81bd 0781 7fbd e85b 67bd 4a8d 94bd
000000a0: cdea b0ba 68a0 f3bc 1188 89bd 5dcf 843c
000000b0: 1ea7 763d 86d6 993d fc5e 24bd 8305 5d3d
000000c0: 3b11 3a3d fc66 01bd 01d4 70bd ffdb dcbc
000000d0: 989f bbbc f3f5 57bd fb68 73bd 3524 393d
000000e0: 3e6f 833d 2a53 80bc b0ad 1ebd 1b92 103c
000000f0: eb9e 0c3d a13c 93bd e6a0 57bb 459f a33c
00000100: 1690 9c3d 93b9 88bd 9652 d13d 78e5 a63d
00000110: 5f91 68bd 08b6 4e3b cdba 5ebc 31a7 92bd
00000120: 8ba6 b43c 3e31 b43b 7b38 d53c 23db 3b3d
00000130: 409e 1abd a0d1 253d a5f4 9d3d fe5f 99bc
00000140: f304 48bd cfc6 39bd 44c0 abbd 54de 8cbd
00000150: be19 b73d 7790 aabd 4cbb 0fbd f205 5abd
00000160: 848d aa3d 7189 a2bd 05fe 9ebd fa20 0bbc
00000170: 5e9c 47bd b79d cf3d ae5e f3bb 397c 123d
00000180: c5e8 8e3c 3a7f 8e3d 139f 973d 6b62 853c
00000190: 96fd 23bd d843 a23c a02a 403d 799e a63d
000001a0: 9fab 833d 34e7 04bd 7d07 48bc e87b c5bc
000001b0: b580 233d 5795 973d 4769 42bc c40f 90bd
000001c0: 18d5 ba3c 3c9b 2c3a 149c a03d e0ef 8fbd
000001d0: 4d02 a73c c8f1 d2bc e703 f83c 1204 93bd
-0.03067021 -0.022461956 -0.03353884 0.021267017 0.040577844 -0.014753176 0.024222493 -0.0054231137
0.022823745 0.088060506 0.08781843 -0.03638163 0.053479426 0.027335983 -0.04447615 0.032645028
0.051729415 -0.065791 -0.026168013 -0.082836576 0.058128513 0.040536914 0.0015824185 -0.06950417
0.051570315 0.04081103 -0.034325678 0.07513884 0.0808705 -0.088957846 0.027311582 0.04120867
0.04812477 -0.07149402 -0.039962582 0.021391263 -0.063440494 -0.06237891 -0.056484133 -0.07253511
-0.001349771 -0.029739574 -0.06715406 0.01621216 0.06021797 0.0751162 -0.040129647 0.053960335
0.04542659 -0.031592354 -0.058795933 -0.026960371 -0.022903249 -0.05272479 -0.05942629 0.045200545
0.06417702 -0.015664656 -0.03873986 0.008823897 0.034331243 -0.071892984 -0.00329023 0.019973407
0.0764467 -0.066760205 0.1022083 0.081492364 -0.05677926 0.0031541605 -0.013594341 -0.071607955
0.02205207 0.005499034 0.026027909 0.045863282 -0.037748575 0.040483117 0.07712678 -0.01872253
-0.048832845 -0.045355614 -0.08386281 -0.06878343 0.08940457 -0.08328336 -0.03509073 -0.053228326
0.08327773 -0.07936371 -0.07763294 -0.008491749 -0.048733108 0.101375036 -0.007427058 0.035763
0.017444978 0.0695786 0.07403388 0.01628228 -0.04003676 0.019807741 0.04691565 0.08135695
0.064292185 -0.032447055 -0.012208817 -0.024106935 0.039917666 0.07401531 -0.01186592 -0.07034257
0.02280669 0.0006584411 0.078422695 -0.070281744 0.02038684 -0.025750056 0.030275298 -0.07178511

conv3.lin_root.weight f4 [120, 120]
00000000: 9785 943d dd05 27bd 0915 e4bd d508 9e3a
00000010: 97f5 45bd f46c 3c3c 9e9b 50ba c8d4 a5bc
00000020: a0a7 1ebd c0b0 6dbd df67 4f3d b7d0 6cbd
00000030: 29c6 803d 10b1 653b 87e0 fb3d b9f9 07bd
00000040: 7442 c7bd db36 1dbe a5c3 89bd 2023 0200
00000050: 4c34 87bd 79b3 473d a31c 4fbd c205 ca3c
00000060: 5b67 f23a c23e 8b3d 8eb8 f33d 5fbf a8bd
00000070: e326 5dbd 3116 a6bc eca9 e13c 4b07 5e3c
00000080: e8ef d33c eeaf 8cbd d94c db3c 2016 dabd
00000090: dc02 6329 8551 863d fb54 8cbb 2910 81bd
000000a0: cee4 10bc 4bbd 3f3c 6b1b 0080 d85b c4b8
000000b0: fe11 13bb be5b 273d 91ba 77bb 763e 0d3b
000000c0: 325e 23be 4e95 0a15 ef18 4cbd effb 77bd
000000d0: dcc3 a1bd f5cc 80bc c8e8 e637 8a90 6832
000000e0: 00f4 8bbd 79f0 20be be19 f13b 2c1b ebbc
000000f0: 8f5b eebd 2273 683d 8f3e 0bbb 1991 aebd
00000100: d792 683d a558 583d 9131 dbbd e9a8 9b3d
00000110: bbbe cf3c bc13 973a 7214 debd a532 a2bd
00000120: 7292 babd 8636 163d 7da0 04be 5bb9 45bd
00000130: 1b6c ab3d a1d6 953d 140c 02be 6d1b 0000
00000140: f0b8 3bbd 2164 393d 6128 773e 6e13 103a
00000150: 5f5a 03be 25a3 0c3e e698 c7bd b954 7dbd
00000160: fbbe 0e3c ed96 ffbd 82f6 94bd c361 5cbd
00000170: ed16 763d d4a1 6c3d 98ce 8d3c 615a 6d3d
00000180: dbfe 66bd 5124 3500 d298 6dbd 7d9e aa3b
00000190: 946c 9dbd 8375 b53b 2d6a 3cbc b856 743a
000001a0: 61e9 043d b2c8 81bc d5b8 c6bd 5ce4 ea3c
000001b0: 40f3 16bd 90fe 31bd d773 92bd b8e2 acbc
000001c0: 1706 5e3d f2a0 a93d d801 ad3c dac7 e2b8
000001d0: 1537 643d 4d08 cbbd aa53 b0bc 574b eabc
000001e0: 613f 54bd 2334 b6bd 3674 c1bd 7d6a 2239
000001f0: d9ff 60bd b13c c2bd 2357 8bbc 6650 a4bc
00000200: 8880 6d3d 21c5 b6bd 7294 823d d0de 2bbe
00000210: 8d4c 15bd e758 943a c376 0c3e f142 babd
00000220: 527e 10bb 151a a8bd a24b adbd 9e7b 0480
00000230: dfd4 82bd 2f3b 31bd 1c5b 8abc a5b4 81bd
00000240: f756 0e3b 5da7 a3bd cb60 af3d df56 34bd
00000250: 0837 213c 9409 113d 037a 133d b12d 63bd
00000260: 8a9e d5bc 9116 a8bd cdb6 7cbd 29b6 e03a
00000270: ae63 5611 7c91 ac3d a266 0b3c f38c b9bd
00000280: c12f 3dbd 662a b73c 901b 0080 a59e b5b5
00000290: ebc9 65ba 27d3 a6bd 4261 b9bb 6f45 7b3d
000002a0: 9e44 d8bd 8e1f 9db1 8797 b1bd a96d 0abe
000002b0: 3569 cf3c e68d a1ba bb2e d038 f74d 4a32
000002c0: 50bb b93d cfbd b6bd 066a 45bd f78d df3d
000002d0: 5166 72bb f6a7 aebd 7051 bdba db47 1f3c
000002e0: 44b0 9f3d 7f7b ad3c 02d2 58bd a3b1 243d
000002f0: 681e 123d 07a8 c4b6 6fd1 57bd 0a91 9fbd
00000300: 11fc 06be 5d86 5a3d 2668 2cbd a2fe c63c
00000310: 6cbc c73d 8312 9cbd e99a 84bd 6d1b 0080
00000320: e477 96bd cd5f 403d f30a 7c3e f934 8fbd
00000330: 2e6f 14be fe97 853e 4d14 08bd ff29 bdbc
00000340: 2d0e bebd b69f d9bd 03af 24bc 2595 7cbd
00000350: 7249 e0bd eff7 0fbd 5c3a cbbd ada6 ebba
00000360: a5ed e2bd 124d 02b1 10e8 37bd 01fa 2cbd
00000370: 89d3 80bd 0e39 183c 23dd 4fbd 0807 8bba
00000380: 6ad7 a8bd 7e64 b3bd 2979 3d3d f973 eabd
00000390: 5ea1 e73c 94f0 c2bc a4dd 343d 0774 98bd
000003a0: 4000 823d dd4d 853c eea5 4b3e e037 b137
000003b0: 44e1 9abd 6672 14bd c0ad 9ebc 4d2f 69bd
000003c0: c865 d9bc d875 593d 6ec4 283d ddb1 a236
000003d0: 85b5 013d 9403 b53c e2ba fdbd 2a06 cfbd
000003e0: e8ae 943d 7495 b3bd f593 a2bc 2613 82bd
000003f0: 28f4 d1bd cced ea39 2d5b d63d 1ef8 0b3d
0.07252043 -0.040777076 -0.11136825 0.0012057076 -0.048329916 0.011500586 -0.0007957759 -0.020243064
-0.03873408 -0.05802989 0.05063617 -0.057816233 0.06287796 0.0035048164 0.122986846 -0.03319714
-0.09729472 -0.15352957 -0.06726769 1.96271e-40 -0.06601772 0.048755143 -0.05056442 0.024660949
0.0018493937 0.067990795 0.119004354 -0.08239626 -0.053992163 -0.020274254 0.027546845 0.0135515435
0.025871232 -0.068694934 0.026770042 -0.10648751 5.0406605e-14 0.06558517 -0.0042825914 -0.063019104
-0.008843614 0.011702846 -9.836e-42 -9.3631155e-05 -0.0022441144 0.040858977 -0.0037800411 0.0021552122
-0.15953901 2.798666e-26 -0.049828466 -0.060542997 -0.07898685 -0.015722731 2.7526534e-05 1.3537042e-08
-0.06833649 -0.15716733 0.007357805 -0.02869948 -0.11638557 0.056750424 -0.0021247005 -0.08523769
0.056780662 0.052818913 -0.107028134 0.076005764 0.025359502 0.0011526267 -0.108437434 -0.07919816
-0.091099635 0.03667309 -0.12951846 -0.048272472 0.08370229 0.07316328 -0.1269992 9.839e-42
-0.045830667 0.045261506 0.24136497 0.00054960593 -0.12827443 0.1373411 -0.0974596 -0.061848376
0.0087125255 -0.12479959 -0.0727358 -0.05380417 0.060080457 0.05777152 0.017310426 0.05794752
-0.056395393 4.880309e-39 -0.05800707 0.0052068816 -0.07686725 0.00553769 -0.011499924 0.00093207834
0.03244913 -0.01584277 -0.09703223 0.028673343 -0.036853075 -0.04345566 -0.07151001 -0.021104202
0.054205026 0.08282651 0.021119043 -0.00010813745 0.055716593 -0.099136926 -0.02152427 -0.028600378
-0.051818255 -0.08896663 -0.094459936 0.00015489194 -0.054931495 -0.09484232 -0.017009323 -0.020057868
0.057983905 -0.08924318 0.0637597 -0.16784215 -0.036449958 0.0011317999 0.13717179 -0.09094799
-0.002204795 -0.082081 -0.084616914 -4.11687e-40 -0.06388258 -0.043269332 -0.016889147 -0.06333283
0.0021719316 -0.079909064 0.08563384 -0.04402816 0.009839781 0.035409525 0.03600503 -0.055463497
-0.026076574 -0.08207429 -0.06169777 0.0017144132 1.691234e-28 0.084261864 0.008508356 -0.09060087
-0.04618812 0.022359084 -9.888e-42 -1.3531723e-06 -0.0008765745 -0.08145743 -0.005657346 0.061345514
-0.10559963 -4.5728887e-09 -0.0867148 -0.13518395 0.025318721 -0.0012325614 9.926917e-05 1.1775675e-08
0.0906893 -0.08922922 -0.048196815 0.109157495 -0.0036987255 -0.0852813 -0.0014443826 0.0097217215
0.07797292 0.021177052 -0.052934654 0.04020847 0.03567353 -5.860816e-06 -0.052689966 -0.07791336
-0.13182093 0.053350795 -0.04209151 0.02429134 0.097527355 -0.07620718 -0.06474859 -9.839e-42
-0.07347086 0.046966363 0.24613552 -0.069925256 -0.14495537 0.26092523 -0.033222485 -0.023091314
-0.092800476 -0.106261656 -0.010051492 -0.061665673 -0.109515086 -0.035148557 -0.099232405 -0.001797875
-0.11080483 -1.89613e-09 -0.044899046 -0.04223061 -0.06290347 0.009290947 -0.050748 -0.0010606954
-0.08244212 -0.08759402 0.046258125 -0.11447901 0.028275188 -0.023796357 0.044156685 -0.074440055
0.06347704 0.01627248 0.19887516 2.1126063e-05 -0.07562497 -0.03624191 -0.01936996 -0.056929875
-0.02653779 0.0530909 0.041202955 4.8486822e-06 0.03166725 0.022096433 -0.12389161 -0.101085976
0.07259923 -0.0876874 -0.019845942 -0.063513085 -0.10251647 0.0004480913 0.10466609 0.03417217

lin.weight f4 [1, 120]
00000000: 9c76 edbd b039 88bd 3b96 88bd 4ce7 cdbd
00000010: be11 a4bd ee5c 80bd cfee 58bd 455e 043e
00000020: 6985 bbbd 139a 83bd 62a1 fe3d 220f 98bd
00000030: d02c e33d 56cb d7bd 198e 85bd 1351 debd
00000040: 0fe6 e4bd a05c ea3d 1d5a 91bd 666b 123e
00000050: 65b5 08be a5ab 9cbd c037 dabd 7ede eb3d
00000060: b038 f23d a801 efbd aaf9 873d 3b2d fbbd
00000070: 970a debd 0288 c1bd 7db7 df3d ff4b b5bd
00000080: 6d7b 8ebd 1afe b4bd 9c3c ae3d 0c57 8e3d
00000090: 5f0d 993d 9f40 e53d 5cc4 b13d 6eaf c1bd
000000a0: 0114 bdbd ac39 873d eef2 e3bd ca4d ad3d
000000b0: 4f15 fc3d a82e aebd 3f38 c6bd 594e a63d
000000c0: 5081 8abd 6244 5b3d 76be 72bd ab7a a03d
000000d0: 5756 74bd 4124 eebd 06d2 bb3d 225e 9a3d
000000e0: aa68 db3d 1111 4dbd e210 e1bd e420 ee3d
000000f0: a7b7 063e 43aa 083e dd70 9cbd 3fe8 d43d
00000100: fcf6 853d 98b5 dbbd 6652 8f3d 575d dc3d
00000110: 5130 f13d 096d bc3d af9d 983d aca5 023e
00000120: 05c0 dc3d c746 b6bd a114 ecbd e85e e93d
00000130: 0a9f 843d e561 9dbd b56a a53d 3105 ab3d
00000140: 6b20 dc3d f1d6 923d e7a1 c3bd a565 8b3d
00000150: e174 cf3d 1b37 9abd b564 92bd c17b c4bd
00000160: 4eed d93d 5c18 dfbd 277e d0bd 2a7c e03d
00000170: 764f 063e aac0 813d 5294 debd eb81 96bd
00000180: a797 f1bd a981 6e3d 0b8d f63d 1ab9 053e
00000190: 16ee ae3d 0510 f53d ff26 0a3e a5a5 843d
000001a0: ac5a c6bd 12c8 4bbd ff18 ea3d f7dd cd3d
000001b0: 0f23 e4bd 8bd3 fdbd 7d27 803d 19f8 013e
000001c0: 5ca1 6f3d b222 d63d 30c5 a13d 10d6 e0bd
000001d0: d36d 833d 6bf7 043e 1a66 b7bd 47d3 ab3d
-0.115948886 -0.06651628 -0.06669279 -0.10053882 -0.080111966 -0.06267725 -0.05296212 0.12926586
-0.09156305 -0.06425872 0.12433125 -0.07424761 0.11092532 -0.1053683 -0.065212436 -0.108553074
-0.11176693 0.11443448 -0.07097266 0.14298782 -0.13350447 -0.07649926 -0.10655165 0.115170464
0.118272185 -0.11670238 0.066394165 -0.122644864 -0.108418636 -0.094497696 0.109236695 -0.08852386
-0.06957135 -0.088375285 0.08507654 0.069501966 0.074732535 0.11193966 0.08680031 -0.09457289
-0.09232331 0.06602797 -0.111303195 0.08462103 0.12308752 -0.08504993 -0.09678697 0.081204124
-0.06762946 0.05353201 -0.05926367 0.07835897 -0.059652653 -0.11628009 0.09170918 0.07537486
0.107133225 -0.050065104 -0.10989548 0.11627367 0.13155995 0.133462 -0.076387145 0.1039586
0.06541249 -0.10727996 0.06998138 0.10759991 0.11776794 0.09200484 0.07451951 0.12758511
0.10778812 -0.089002185 -0.11527372 0.11395055 0.06475647 -0.076846875 0.080769934 0.083505996
0.10748371 0.07169903 -0.09552365 0.068064965 0.10129715 -0.07530042 -0.071481146 -0.09593917
0.106409654 -0.10893318 -0.10180312 0.109611824 0.1311625 0.06335576 -0.108681336 -0.07348999
-0.117965035 0.058229122 0.120386206 0.13058892 0.08541505 0.11965946 0.13491438 0.06476907
-0.09685263 -0.04975135 0.11430549 0.10052102 -0.111394994 -0.12393864 0.06257532 0.12692298
0.058503494 0.10455836 0.07898939 -0.10978329 0.06417432 0.12985007 -0.08955021 0.08389907
